model/classifyFurinaCharacter.pth (torch, 463808 bytes, 8 tensors)

conv1.weight f4 [16, 1, 3, 3]
0	0xbe19ea19	-0.15030707
1	0x3e94bbb6	0.29049462
2	0x3e8c2a04	0.27375805
3	0xbda43f13	-0.08019843
4	0x3bf2c42f	0.007408641
5	0x3e7cf0fc	0.24701303
6	0x3e1696d7	0.14705978
7	0x3d64b660	0.05583799
8	0xbd7da3f4	-0.061923936
9	0xbe6223fe	-0.22084042
10	0x3e08a13a	0.13342753
11	0xbe530a51	-0.20609404
12	0xbe4a8b5b	-0.19779722
13	0xbea6004a	-0.32422096
14	0x3e612f48	0.21990693
15	0xbe7e8cf1	-0.24858452
16	0x3c4ec440	0.012620032
17	0x3e87ded8	0.26537204
18	0xbe94e450	-0.2908044
19	0x3de96de8	0.11397916
20	0x3e031777	0.1280192
21	0x3d86ce52	0.06582321
22	0xbb733fb2	-0.0037116823
23	0x3c365886	0.011129504
24	0xbead5eab	-0.33861288
25	0x3e964e91	0.29356816
26	0xbe89a5b1	-0.26884225
27	0x3dd796a7	0.105267815
28	0xbe294219	-0.1652912
29	0x3d29082d	0.041267563
30	0xbe27e9f0	-0.16397834
31	0xbe6811c4	-0.22663027
32	0xbe2bb533	-0.16768341
33	0x3e9b35a6	0.30314368
34	0xbd86f72f	-0.06590115
35	0xbd01d387	-0.03169587
36	0x3e3181e9	0.17334713
37	0x3de83b0c	0.11339387
38	0x3e773665	0.24141844
39	0x3d97dc9c	0.07415125
40	0x3dd93775	0.10606281
41	0x3e718be9	0.23588528
42	0x3e256ec5	0.16155536
43	0x3dbcb583	0.09214308
44	0xbd0532fd	-0.03251933
45	0xbd849af4	-0.064748675
46	0xbe4bb72f	-0.19894098
47	0xbd2115f4	-0.039327577
48	0xbd5f7af7	-0.054560628
49	0x3d44a457	0.04800829
50	0xbe915bdd	-0.283904
51	0x3dc43615	0.09580628
52	0x3e976cef	0.29575297
53	0x3e967583	0.2938653
54	0x3e4a53a5	0.1975847
55	0xbe9ff063	-0.31238088
56	0xbe6ca3b3	-0.23109321
57	0xbe80db36	-0.25167245
58	0x3b21ccc0	0.002468869
59	0x3e22f73d	0.15914626
60	0xbe475191	-0.19464709
61	0xbda1257f	-0.0786848
62	0xbe1e1799	-0.1543869
63	0x3e854f66	0.2603714
64	0xbe4e589a	-0.20150986
65	0xbe642134	-0.22278291
66	0xbe32f5c6	-0.17476568
67	0xbe55ca34	-0.20877916
68	0x3e46ec26	0.19426021
69	0x3dc46027	0.09588652
70	0xbd6adac4	-0.057337537
71	0x3e7c1a55	0.2461942
72	0xbe89f368	-0.26943517
73	0x3d9d5e7f	0.07684039
74	0xbe88347c	-0.26602542
75	0xbda15252	-0.078770295
76	0xbe0e9620	-0.13924456
77	0xbca3ff79	-0.02001928
78	0x3db4f02e	0.08834873
79	0xbe5e3adc	-0.2170214
80	0xbd960d5f	-0.07326769
81	0xbdf4f57c	-0.11960885
82	0x3e0c7a09	0.13718428
83	0xbe171075	-0.14752372
84	0x3d9dc7aa	0.077040985
85	0xbdcce017	-0.10003679
86	0xbe9bb67c	-0.30412662
87	0xbc95c8ef	-0.01828429
88	0xbe900490	-0.2812848
89	0x3e4bbde6	0.1989666
90	0xbe180d03	-0.14848714
91	0xbe2e57c3	-0.17025666
92	0xbb70048a	-0.00366238
93	0xbe095927	-0.13412915
94	0x3dcef083	0.10104468
95	0xbc644103	-0.013931516
96	0xbdd795d6	-0.10526626
97	0x3df5122e	0.11966358
98	0xbe48bce9	-0.19603314
99	0x3dd534d2	0.10410465
100	0x3dfa7ac9	0.12230451
101	0x3d843f6c	0.06457409
102	0x3e39419b	0.18091433
103	0xbe98f0b0	-0.2987113
104	0x3e45cecf	0.19317172
105	0x3e4d3102	0.20038226
106	0xbd9d78e1	-0.076890714
107	0x3e6d0e79	0.23150052
108	0x3e71a326	0.23597392
109	0x3e0efc2a	0.1396338
110	0xbd815e0a	-0.06316765
111	0x3df224f0	0.118234515
112	0x3c2d771f	0.010587483
113	0x3e83c356	0.25734967
114	0xbe436e9c	-0.19085163
115	0x3e1dc1c2	0.15405944
116	0x3dca1e0d	0.09869013
117	0xbe2ce2f5	-0.16883452
118	0xbd40ef09	-0.04710296
119	0xbcd4f7d5	-0.025997082
120	0xbd1076c7	-0.035269525
121	0xbea284b3	-0.31741866
122	0xbd1eb610	-0.038747847
123	0x3ea5ca64	0.32380974
124	0xbe561e86	-0.20910081
125	0x3e84336c	0.25820482
126	0xbe4e99d4	-0.20175868
127	0xbd1042eb	-0.035220068
128	0xbe92d20d	-0.2867588
129	0xbd8046af	-0.06263482
130	0xbe9bdb76	-0.30440873
131	0x3b9c5036	0.004770304
132	0xbcf7ed93	-0.030264651
133	0x3b09f1e9	0.002104873
134	0x3de2e6ba	0.11079164
135	0xbe78703d	-0.24261566
136	0x3db91254	0.09036699
137	0x3e53fc0f	0.20701621
138	0xbd92aee0	-0.07162261
139	0x3e5e4c40	0.21708775
140	0x3e74e533	0.23915558
141	0xbe9ccfc5	-0.30627266
142	0xbe640663	-0.22268061
143	0x3d8d7622	0.06907298

conv1.bias f4 [16]
0	0xbe9be137	-0.30445263
1	0x3e8f437b	0.2798117
2	0x3e4713c3	0.19441132
3	0xbe6e22a7	-0.23255406
4	0xbe6d824a	-0.23194233
5	0xbde6ed53	-0.11275735
6	0x3e6110ac	0.21979016
7	0xbcf088da	-0.02936213
8	0xbe6861eb	-0.22693603
9	0x3d0c3661	0.034231547
10	0xbe24ab2e	-0.16080925
11	0x3e173fcd	0.14770432
12	0x3bd30a71	0.0064404537
13	0xbe396978	-0.1810664
14	0x3da77d50	0.08178198
15	0xbe0dffa8	-0.13867056

conv2.weight f4 [32, 16, 3, 3]
0	0xbd3d94e7	-0.046284582
1	0x3cbdc30e	0.023164298
2	0xbd9a0fb6	-0.07522528
3	0x3d077b73	0.033076715
4	0x3c12bdf0	0.008956417
5	0xbcea7726	-0.028621268
6	0xbd3017b3	-0.04299135
7	0xbdb5db22	-0.08879687
8	0xbd2c5dba	-0.042081572
9	0xbd326239	-0.043550704
10	0x3d751de4	0.05984296
11	0xbd2530f8	-0.040329903
12	0x3bf4f6b9	0.0074757007
13	0xbcb3b78d	-0.02193811
14	0xbd80f601	-0.062969215
15	0xbbe4f2e2	-0.0069869617
16	0xbcfeadf8	-0.031088814
17	0x3d011ad6	0.031519733
18	0xbdaee8f6	-0.085405275
19	0xbda6e22a	-0.08148606
20	0xbd0d063a	-0.034429766
21	0x3d375138	0.04475519
22	0x3d8da037	0.06915324
23	0x3c231be3	0.009955379
24	0x3d1a4f50	0.037673295
25	0x3cc7a4c2	0.024370555
26	0x3be9c488	0.007134024
27	0xbd4d2f89	-0.05009416
28	0x3cbc0f20	0.02295643
29	0xbb0e9879	-0.0021758361
30	0xbdb697cd	-0.089156725
31	0xbd878489	-0.06617076
32	0x3d45d200	0.048295975
33	0x3d3c8697	0.046026792
34	0xbd549b65	-0.05190601
35	0xbcf19ae7	-0.029492809
36	0xbcaa90bd	-0.02082097
37	0x3d83611c	0.064150065
38	0xbd638b38	-0.05555269
39	0xbd5e40c3	-0.05426098
40	0xbd7f9f39	-0.062407706
41	0x3d8ba622	0.06818797
42	0xbcb1ab47	-0.021688117
43	0xbc92bbc9	-0.017911809
44	0xbd8d1fa6	-0.06890802
45	0xba98b6bb	-0.0011651138
46	0x3d440143	0.047852766
47	0x3d6bbe77	0.05755469
48	0xbb463177	-0.0030241886
49	0xbdad9112	-0.084749356
50	0xbda178b8	-0.078843534
51	0x3d921488	0.07132822
52	0xbc3dbbc0	-0.011580408
53	0x3d8ec1bc	0.06970546
54	0xbcd78e09	-0.026312845
55	0xbdab8657	-0.08375233
56	0xbb5d4c2c	-0.0033767326
57	0xbc36c07e	-0.011154292
58	0x3c8f1423	0.017465657
59	0xbd6f79bc	-0.058465704
60	0xbcd5a78f	-0.026080875
61	0xbd71e21d	-0.05905353
62	0x3cbf409d	0.02334624
63	0xbc9e1cc5	-0.019300828
64	0xbcfdbf12	-0.030974898
65	0x3c8b2b26	0.016988348
66	0xbdae7f46	-0.08520369
67	0x3d741ed0	0.059599698
68	0x3c83542b	0.016031345
69	0xbd3f0f96	-0.046645723
70	0xbd461252	-0.048357315
71	0xbdaaa099	-0.08331413
72	0x3bd7c48e	0.0065847104
73	0x3bb604d1	0.0055547734
74	0xbd418e68	-0.04725495
75	0xbd91cccd	-0.07119141
76	0xbd04b7e7	-0.032401945
77	0xbd8ca68d	-0.068677045
78	0xbdb2177a	-0.08695884
79	0x3ce493ec	0.027902566
80	0xbd8c74f9	-0.06858248
81	0x3d8dc93e	0.069231495
82	0x3c9ab08c	0.018883012
83	0xbd4f541b	-0.05061732
84	0x3c4c4619	0.012467884
85	0xbd8e8aa0	-0.06960034
86	0x3d15b50d	0.036549617
87	0xbdb6d21c	-0.08926794
88	0xbcada4d5	-0.021196762
89	0xbd8f0c80	-0.06984806
90	0xbb9ea0b3	-0.004840934
91	0xbc42a425	-0.011879955
92	0xbda84a2f	-0.082172744
93	0x3d1f1774	0.038840726
94	0x3d025bbf	0.031825777
95	0xbc052d79	-0.008128517
96	0xbd1d9530	-0.038472354
97	0x3cfb02e0	0.03064102
98	0x3cfe1a0f	0.031018285
99	0x3c82b6a3	0.015956229
100	0xbd2a9299	-0.041643713
101	0x3cd6abe7	0.026205016
102	0xbd32d07b	-0.043655854
103	0xbd9b36b7	-0.075787954
104	0x3cf694fe	0.030100342
105	0x3ccda719	0.025104092
106	0x3d1d3b6f	0.03838676
107	0xbc961082	-0.018318418
108	0x3d59a945	0.053139944
109	0x3c14bbbd	0.009077963
110	0x3d5a8120	0.0533458
111	0x3d1c4207	0.038148906
112	0xbcffaba7	-0.03120978
113	0xbd8d8a4d	-0.069111444
114	0x3d345d12	0.04403407
115	0xbd5ffe3e	-0.054685824
116	0xbdb17c4d	-0.086662866
117	0x3d690d7b	0.05689762
118	0xbdaf7d8e	-0.085688695
119	0x3d1b6ba8	0.037944466
120	0x3d81af2a	0.06332238
121	0xbd9e8e74	-0.077420145
122	0xbd876426	-0.06610899
123	0xba2bb2e3	-0.00065497885
124	0xbd8039e2	-0.0626104
125	0x3d9b37a9	0.07578976
126	0x3d7bbdde	0.06146037
127	0xbd286191	-0.04110867
128	0x3d156e3c	0.03648208
129	0xbdafa125	-0.08575658
130	0xbcd151d8	-0.025551721
131	0xbb5eeb01	-0.0034014585
132	0x3d85c950	0.06532538
133	0xbc46737e	-0.012112496
134	0xbd8a1aad	-0.06743369
135	0xbdb12cbe	-0.08651112
136	0xbd8ca512	-0.06867422
137	0x3d616a10	0.05503279
138	0x3cf76c5b	0.030203035
139	0xbdaf450a	-0.0855809
140	0x3cdf765d	0.02727812
141	0xbcd97c35	-0.026548484
142	0xbd529e57	-0.051420536
143	0x3d4d8d78	0.050183743
144	0x3d1c3599	0.038137052
145	0xbd3f94a9	-0.046772633
146	0xbd7d5d56	-0.06185659
147	0xbd83b34f	-0.06430685
148	0x3d5ef0d3	0.054428887
149	0xbda342d5	-0.079717316
150	0x3d0400a2	0.032227166
151	0x3d2bb71a	0.041922666
152	0x3c4ee66d	0.01262818
153	0xbcb860d1	-0.022507103
154	0x3d2c39bb	0.042047244
155	0x3a098bff	0.00052469963
156	0xbd1849fd	-0.037179936
157	0xba7eba8e	-0.000971713
158	0x3d022e90	0.031782687
159	0x3c122f07	0.008922345
160	0x3d980585	0.07422928
161	0x3d78515e	0.060624473
162	0xbbcecb1b	-0.006310833
163	0xbcc2149b	-0.023691466
164	0x3d1bfd30	0.038083255
165	0xbd9dde19	-0.077083774
166	0xbd088663	-0.033331286
167	0xbd22ade1	-0.039716605
168	0x3d0b5f9a	0.03402672
169	0xbb9e69ec	-0.004834404
170	0x3ced0dd8	0.028937265
171	0xbc992969	-0.018696504
172	0x3d52f0b2	0.051499076
173	0xbcfd60b2	-0.030929897
174	0xbdb3835c	-0.08765289
175	0xbd8046e2	-0.0626352
176	0xbd580212	-0.05273635
177	0x3c93b8de	0.018032487
178	0xbd1d0b82	-0.038341053
179	0x3d4439c5	0.047906656
180	0xbcc08ae4	-0.023503728
181	0x3d9d4a65	0.07680205
182	0xbd801daf	-0.06255662
183	0xbd246247	-0.040132787
184	0xbd8aa266	-0.06769256
185	0x3d1cd287	0.038286712
186	0xbd414eb2	-0.04719419
187	0xbd97c522	-0.07410647
188	0xbd16076c	-0.03662817
189	0x3d9904fa	0.07471652
190	0xbd1eddb0	-0.038785636
191	0xbd8b5a45	-0.06804327
192	0x3d73aa37	0.0594885
193	0xbbac52ad	-0.005258879
194	0x3d4ed9bb	0.050500613
195	0x3cc5ffd4	0.02416984
196	0xbd86c533	-0.065805815
197	0xbc04d4eb	-0.008107404
198	0xbcdc3811	-0.026882203
199	0xbd81d1e6	-0.06338863
200	0xbcd7321a	-0.026269007
201	0x3d3323c8	0.043735296
202	0xbc1cd1cc	-0.009571504
203	0xbbe5003b	-0.006988553
204	0x3d57771c	0.052603826
205	0xbca771e1	-0.020440044
206	0xbd741c48	-0.059597284
207	0x3d211620	0.03932774
208	0xbd53c861	-0.051704768
209	0x3d48c620	0.04901707
210	0x3c8ea4d9	0.01741259
211	0x3d3bd188	0.04585412
212	0x3d6df9dd	0.058099616
213	0x3d40b864	0.04705085
214	0xbb908993	-0.0044109314
215	0xbdab4ecc	-0.08364639
216	0x3d0dcc51	0.03461868
217	0x3d4aa002	0.049469
218	0xbd6f4554	-0.058415726
219	0x3d2ad966	0.041711234
220	0xbdb5cad3	-0.08876576
221	0xbca240bd	-0.01980626
222	0xbc0c1175	-0.008549084
223	0x3d92329d	0.0713856
224	0x3d9292c7	0.07156902
225	0x3d804330	0.06262815
226	0xbc305545	-0.010762517
227	0x3c86f401	0.016473772
228	0xbc28487d	-0.010271189
229	0x3d036b8b	0.032084983
230	0xbdb12ddc	-0.08651325
231	0xbd6611eb	-0.05616943
232	0x3c0c00db	0.008545126
233	0xbba07cd0	-0.0048976913
234	0xbd468d15	-0.04847439
235	0x3d59eb53	0.05320294
236	0x3c3a7fc1	0.011382998
237	0x3d3f3952	0.046685524
238	0xbcf5f537	-0.030024154
239	0x3d8a1ee5	0.06744174
240	0x3d0925c1	0.03348327
241	0xbd708cf5	-0.058728177
242	0xbcb3a38e	-0.021928575
243	0xbcb488f4	-0.02203796
244	0xbd59d8d8	-0.053185314
245	0xbd0a6738	-0.033789843
246	0xbc832307	-0.016007913
247	0x3d99a4f1	0.07502163
248	0x3d41ef45	0.047347326
249	0x3d7383e7	0.059451964
250	0x3b17aaff	0.0023142693
251	0x3d0661bd	0.032808054
252	0x3d46c9df	0.048532363
253	0x3d4f7683	0.05065013
254	0x3d465de5	0.04842939
255	0x3c8954fe	0.01676416

conv2.bias f4 [32]
0	0x3c0b7173	0.008510935
1	0x3d8d0fbb	0.06887766
2	0xbcfa6eb6	-0.03057037
3	0xbd97d391	-0.074134
4	0xbd5ccee3	-0.05390824
5	0xbce5a56f	-0.028032986
6	0x3ce7fdce	0.028319266
7	0x3cf3f2e1	0.0297789
8	0xbd8a60bc	-0.06756732
9	0x3c8d7459	0.017267393
10	0x3d561dff	0.0522747
11	0x3d0230b2	0.03178472
12	0xbd7fd7bf	-0.06246161
13	0x3d2d400c	0.042297408
14	0x3d8a7f8f	0.06762611
15	0xbd950bfa	-0.07277675
16	0x3cda3a08	0.026639
17	0xbd800324	-0.06250599
18	0xbd837c38	-0.06420177
19	0x3cd5d02e	0.026100244
20	0xbc98397e	-0.018582102
21	0xbd4953ae	-0.04915207
22	0xbc05c268	-0.008164026
23	0x3da0fa57	0.078602485
24	0xbc424c5c	-0.011859026
25	0xbd22ea1f	-0.039774057
26	0x3d6a6b1e	0.05723106
27	0xbd7a261f	-0.06107151
28	0x3d4568cd	0.04819565
29	0xbc8a5a6a	-0.016888816
30	0xbcc9a46e	-0.024614539
31	0xbc0ee980	-0.008722663

fc1.weight f4 [128, 800]
0	0x3bf0d3ab	0.0073494515
1	0x3d02bfcc	0.031921193
2	0x3cce1feb	0.025161704
3	0xbc8b50b6	-0.01700626
4	0xbbded5a0	-0.0068003684
5	0x3c23474b	0.009965728
6	0x3ccde48e	0.025133397
7	0xbc821987	-0.015881313
8	0xbbeeaad2	-0.007283547
9	0x3cdfda01	0.027325632
10	0x3abea2d6	0.0014544379
11	0x3cb860bc	0.022507064
12	0xbbc156c4	-0.005900236
13	0x3cc077c0	0.023494601
14	0x3d21883d	0.039436568
15	0x3cb7076b	0.022342404
16	0x3d0eb9c9	0.034845147
17	0x3ca2d54f	0.019877104
18	0xbc9b96f2	-0.018992875
19	0x3c52b3db	0.012860264
20	0x3ce9f5bd	0.02855956
21	0xbb5f16a9	-0.0034040606
22	0xbbbdb1ac	-0.0057890024
23	0xbcb2b888	-0.021816507
24	0x3a9ea7ad	0.0012104415
25	0x3cd8901b	0.026435902
26	0x3cde425e	0.027131256
27	0xbc91868b	-0.01776435
28	0xbb872bf5	-0.004125113
29	0x3c9cd234	0.019143201
30	0x3c2f7ccc	0.010710906
31	0xbcad26a8	-0.021136597
32	0x3c1fe31d	0.009758738
33	0x3d08c2aa	0.03338877
34	0x3c994e9e	0.018714245
35	0xbcd60813	-0.026126897
36	0xba10de92	-0.00055263296
37	0x3c5d5252	0.013508396
38	0xbcf02859	-0.029316114
39	0xbca161ac	-0.019699894
40	0x3ca53255	0.020165602
41	0xbcc34e9b	-0.023841193
42	0x3d1c49ed	0.03815644
43	0x3b273258	0.0025512185
44	0x3ce67614	0.028132476
45	0x3d269390	0.04066807
46	0xbc66085d	-0.01404008
47	0xbbd579f9	-0.0065147844
48	0x3ca44b46	0.020055424
49	0xbc29e7ce	-0.010370208
50	0x3cb9e14c	0.022690438
51	0x3caebbfb	0.02132987
52	0x3d13adf7	0.036054578
53	0x3cf37f74	0.02972386
54	0x3d1a1ef1	0.037627164
55	0xbc9cb9f2	-0.019131634
56	0x3c520f5f	0.012821048
57	0x3b6d3fe3	0.003620141
58	0xbcbfb1f7	-0.02340029
59	0x3c9380ad	0.018005693
60	0x3c783ba0	0.015150934
61	0x3d0863c5	0.033298273
62	0xbc540b74	-0.012942184
63	0xbce98608	-0.028506294
64	0xbc6a84b7	-0.014313868
65	0x3c2305ce	0.009950114
66	0x3c858ba5	0.01630194
67	0x3c0a573c	0.00844365
68	0xbc98ba5a	-0.018643547
69	0xbc297006	-0.01034165
70	0xbcbf1144	-0.023323663
71	0x3c4fe7f3	0.012689578
72	0x3c4f29d2	0.012644248
73	0xbb8d0251	-0.0043032547
74	0xbc070d2e	-0.008242888
75	0x3c5b67b2	0.013391422
76	0xbc1a80fc	-0.009430166
77	0xba8dc5d1	-0.00108164
78	0x3ceb6aa5	0.028737376
79	0x3c5bb23d	0.013409195
80	0x3d1009ff	0.035165783
81	0x3cbeac16	0.023275416
82	0x3c8290af	0.015938131
83	0xbc92480b	-0.017856618
84	0x3c31658d	0.010827434
85	0x3acfdc7a	0.0015858554
86	0x3c00568b	0.007833133
87	0xbc36ee49	-0.01116521
88	0x3cc1d42f	0.023660747
89	0xbcd11ced	-0.025526488
90	0x3c6a9476	0.014317622
91	0x3ca743a2	0.020417992
92	0xbb5002ba	-0.0031739906
93	0x3cf8138b	0.030282756
94	0x3c7d4965	0.015459393
95	0x3b28e780	0.002577275
96	0x3b8424d1	0.004032709
97	0x3bbbe2dc	0.005733831
98	0x3ccbfa75	0.0248997
99	0xba4838df	-0.0007637869
100	0x3d05cbbc	0.032665
101	0xba13c726	-0.00056372804
102	0x3ccf08bf	0.025272725
103	0xbca392c3	-0.019967442
104	0xbc203025	-0.009777104
105	0xbc9b1743	-0.01893199
106	0x39c71e4a	0.00037978805
107	0x3c196347	0.0093620485
108	0xbcb81050	-0.022468716
109	0xbccb69dc	-0.024830751
110	0xb9638095	-0.00021696308
111	0xbc61f467	-0.01379118
112	0xbc6327c0	-0.013864458
113	0x3c22dcb4	0.009940315
114	0x3caa2db2	0.020773742
115	0xbbc34f9a	-0.005960417
116	0x3bb648bd	0.0055628703
117	0xbc022271	-0.007942782
118	0xbc920ed3	-0.017829334
119	0xbc3789be	-0.011202274
120	0x3c79d478	0.01524841
121	0xbc40fa29	-0.011778393
122	0x3c93ec1e	0.018056925
123	0xbc8c6bcd	-0.017141247
124	0xbcc419dc	-0.023938112
125	0xbc92fabe	-0.017941829
126	0xbb66400b	-0.0035133387
127	0x3cb258ae	0.021770801
128	0x3b57bcba	0.0032918886
129	0x3cce9d31	0.02522144
130	0x3d02cb07	0.031931903
131	0xbb10b66b	-0.0022081386
132	0xbaa45525	-0.0012537582
133	0x3a1df276	0.0006025204
134	0x3ba58142	0.005050809
135	0x3c9a7ca8	0.018858269
136	0x3cf40d05	0.029791364
137	0x3ceefa5a	0.029172111
138	0x3a62315a	0.000862857
139	0xbca703d0	-0.02038756
140	0xbccb4034	-0.024810888
141	0x3d04c217	0.03241166
142	0xbbda91a9	-0.006670196
143	0xbc721865	-0.014776324
144	0x3cbe8c53	0.023260271
145	0x3ca18e2a	0.01972111
146	0xbc1c43b7	-0.009537629
147	0xbcb41286	-0.021981489
148	0x3d19acf0	0.03751844
149	0x3d0926a7	0.033484127
150	0x3d24691f	0.040139314
151	0xbc5315be	-0.012883602
152	0xbcb4ddbc	-0.022078387
153	0xbc1d91bf	-0.009617268
154	0xb987d4c9	-0.00025907744
155	0x3c800d86	0.015631448
156	0xbc1d94b1	-0.00961797
157	0x3c8e6859	0.017383741
158	0xbc95e932	-0.018299673
159	0xbc3c75c8	-0.011502691
160	0x3d08b2bb	0.033373576
161	0x3c82064c	0.015872143
162	0x3c6277d2	0.013822513
163	0xbc032453	-0.008004266
164	0x3c77dea7	0.015128768
165	0x3d1ca5ad	0.03824394
166	0x3ca97b12	0.020688567
167	0xbbe52216	-0.0069925888
168	0xbb8d13c2	-0.004305334
169	0xbccf7b77	-0.025327427
170	0xbceeb141	-0.029137256
171	0x3cf13cee	0.029447999
172	0xbb789b20	-0.0037934259
173	0x3c0393b3	0.00803082
174	0xbca7e28d	-0.02049377
175	0xbccdcad7	-0.025121136
176	0xbc9a7d68	-0.018858626
177	0x3ba6ccb1	0.005090319
178	0xbceb89f1	-0.028752299
179	0x3c4fa271	0.012673006
180	0xbc5621f2	-0.013069617
181	0x3bf29472	0.00740295
182	0x3d151c71	0.036404077
183	0xba9d7cd1	-0.0012015348
184	0x3ca6d015	0.020362893
185	0xbb46fa07	-0.003036143
186	0x3d0a02b5	0.033693988
187	0x3cb1fd24	0.021727152
188	0xbb575748	-0.003285842
189	0xbb367859	-0.002784273
190	0xbc8b24e4	-0.016985364
191	0x3d070c2a	0.032970585
192	0x3c5a1c36	0.01331239
193	0x3c127e70	0.008941278
194	0xbc85e5a6	-0.016344856
195	0x3bae6288	0.0053218044
196	0x3d0d5d5e	0.03451287
197	0xbc2d22c2	-0.010567369
198	0x3908c000	0.00013041496
199	0x3cf4ea7b	0.029896965
200	0x3c85a7b5	0.01631532
201	0x3c8c3eaa	0.017119724
202	0xbafcb62c	-0.0019280366
203	0x3d1df91d	0.03856765
204	0xbb9dc40a	-0.0048146294
205	0xbb27adec	-0.0025585843
206	0x3cc2f478	0.023798212
207	0x3c42d220	0.011890918
208	0xbcdc82cf	-0.026917843
209	0xbcb29a90	-0.021802217
210	0x3c1f7aa9	0.009733834
211	0x3c6f2ae8	0.014597632
212	0x3c70e6f4	0.014703501
213	0x3c31086e	0.010805232
214	0x3b92b19f	0.0044767405
215	0x3c4157bb	0.011800702
216	0x3cbbef3a	0.02294122
217	0xbcc3c4e5	-0.023897598
218	0x3c54dd5d	0.01299223
219	0x3c69eec0	0.014278114
220	0x3cf0622c	0.029343687
221	0xba8b40e1	-0.0010624194
222	0x3cf11905	0.029430876
223	0x3d0a5a52	0.033777542
224	0x3c5ad1b0	0.013355657
225	0xbc122109	-0.008919009
226	0xbcecb4b3	-0.028894758
227	0x3d14d0e9	0.036332045
228	0x3cadca24	0.021214552
229	0xbbad9c36	-0.005298163
230	0xbb090d3c	-0.002091243
231	0xbc3b5dfc	-0.011435982
232	0xbcee4b05	-0.029088506
233	0x3c8e0502	0.017336372
234	0x3d0a79eb	0.033807676
235	0xbc9afde6	-0.018919896
236	0x3d14df85	0.036345977
237	0x3cc91967	0.024548246
238	0x3c87d0c0	0.016579032
239	0x3c4a9580	0.012364745
240	0x3d176051	0.03695709
241	0x39b8850b	0.0003519434
242	0xbc925f2d	-0.017867649
243	0x3b2f0cab	0.0026710432
244	0x3cb4d4dc	0.022074156
245	0x3d1060ed	0.035248686
246	0x3cde8701	0.027163984
247	0x3c99723f	0.018731235
248	0x3c8eb932	0.017422292
249	0xbcb77d7a	-0.0223987
250	0xb9ce6ca7	-0.00039372334
251	0xbcd777cf	-0.026302246
252	0x3ca3d248	0.01999773
253	0x3cec1051	0.028816374
254	0x3c929968	0.017895415
255	0xbba5a225	-0.0050547295

fc1.bias f4 [128]
0	0xbce260e8	-0.0276341
1	0x3cca04e8	0.024660543
2	0xbc21895c	-0.009859409
3	0x3b53f2f1	0.003234085
4	0x3ce69b67	0.028150273
5	0x3c2250e1	0.009906978
6	0xbd20294f	-0.039101895
7	0xbb69a100	-0.0035648942
8	0xbcd079fa	-0.025448788
9	0x3c933609	0.017970102
10	0x3cefda1d	0.02927881
11	0xbd256fb8	-0.040389746
12	0x3c008d75	0.007846226
13	0x3ac24309	0.0014821003
14	0x3c8d9084	0.017280824
15	0xb9c4d509	-0.00037542757
16	0xbb3f6420	-0.0029203966
17	0xbcbef353	-0.023309385
18	0x3c13c1e4	0.009018395
19	0xbc36bf56	-0.0111540165
20	0x3ba07a89	0.00489742
21	0x3cd8e0b7	0.02647434
22	0xbca3315d	-0.019921
23	0x3d0372d9	0.03209195
24	0x3bc48063	0.00599675
25	0x3be335a9	0.006933887
26	0x3d066e0f	0.032819804
27	0xbc9b2120	-0.018936694
28	0x3c9727c8	0.018451586
29	0x3ccaf600	0.024775505
30	0xbcb05538	-0.02152501
31	0xbc94fef9	-0.018187987
32	0xbbc898ea	-0.0061217444
33	0xbd02f2b1	-0.03196973
34	0x3cdad426	0.026712488
35	0x3c10761a	0.00881722
36	0xbc3b0593	-0.011414903
37	0xba7297c9	-0.0009254185
38	0x3ce952ce	0.028481867
39	0xbba87570	-0.0051409528
40	0x3d28f944	0.041253343
41	0x3c230b26	0.009951388
42	0x3c993517	0.018702073
43	0xbbbd7cda	-0.0057827057
44	0x3cd2d5fa	0.025736798
45	0xbc268fcf	-0.010166123
46	0x3c59df05	0.013297801
47	0xbcf5943b	-0.029977908
48	0x3bf5490c	0.0074855145
49	0xbc886e42	-0.016654138
50	0xbcd51cb6	-0.026014667
51	0x3cf3b895	0.029751102
52	0xbd032b1b	-0.03202353
53	0x3ccc3efd	0.024932379
54	0x3c98cf37	0.018653495
55	0xbc645b11	-0.013937728
56	0x3c2f0120	0.010681421
57	0xbd0f04a2	-0.034916528
58	0x3cc9cde4	0.02463431
59	0x3cabf182	0.020989183
60	0xbc946ee4	-0.018119283
61	0xbc3b4341	-0.011429609
62	0xbd0797b2	-0.033103652
63	0xbccbc27f	-0.024873016
64	0x3c1bbd82	0.009505631
65	0xbd2016b9	-0.03908417
66	0x3b5125d8	0.0031913426
67	0xbc42bd06	-0.011885887
68	0x3cc96f1e	0.024589118
69	0xbbbb8a81	-0.005723298
70	0x3cd917f7	0.026500685
71	0xba2418b9	-0.00062597875
72	0x3c4d7352	0.012539702
73	0xbc95c684	-0.018283136
74	0xbc40b27e	-0.011761306
75	0xbc12b477	-0.008954159
76	0xbca290b6	-0.019844394
77	0xbb928ddd	-0.004472478
78	0x3c896abc	0.016774528
79	0x3d02b189	0.031907592
80	0x3d07d9ca	0.033166684
81	0x3caa675f	0.020801244
82	0xbc671e5c	-0.014106359
83	0x3c77f7d7	0.015134773
84	0x3b1ec59a	0.0024226666
85	0x3ca3a796	0.019977372
86	0x3a0930d7	0.0005233413
87	0x3c7945c5	0.015214388
88	0x3bb6f138	0.0055829547
89	0xbca1504f	-0.019691614
90	0xbd02bb4f	-0.031916913
91	0xbc79e144	-0.015251461
92	0xbcb15687	-0.021647705
93	0x3d090397	0.03345069
94	0xbd044fa1	-0.032302503
95	0x3c7a465e	0.015275566
96	0xbc9f9d12	-0.019484077
97	0x3cec93f3	0.028879141
98	0x3c538677	0.012910477
99	0xbca28af9	-0.019841658
100	0x3bd01809	0.0063505215
101	0x3be9ae67	0.007131386
102	0xbce29a55	-0.027661482
103	0x3c100229	0.0087895775
104	0x3cbcb247	0.023034228
105	0xba655900	-0.0008748919
106	0xbbdd10c4	-0.0067463834
107	0x3beb5019	0.0071811792
108	0xbc0bc83c	-0.008531626
109	0xbc4984d1	-0.012299732
110	0x3c81917b	0.01581644
111	0x3c8c4088	0.017120615
112	0xbb410789	-0.0029453954
113	0xbc4af6c2	-0.012387933
114	0x3c98d530	0.018656343
115	0x3c399f60	0.011329502
116	0x3cfde494	0.030992784
117	0x3c649c5f	0.013953297
118	0xbc64ab98	-0.013956927
119	0x3bb14ea1	0.0054109846
120	0xbc4e63aa	-0.012597004
121	0x3bcce29d	0.0062526003
122	0x399ce37a	0.00029924122
123	0x3c8f6ff2	0.017509434
124	0x3cbb789e	0.022884663
125	0xbc805f2f	-0.015670387
126	0x3c28f9f4	0.0103135
127	0xbcc7b44a	-0.02437796

fc2.weight f4 [60, 128]
0	0x3d7a56b4	0.061117843
1	0x3d157e4a	0.03649739
2	0xbd1d2c9b	-0.038372617
3	0x3d5fdd50	0.05465442
4	0x3d69bfc5	0.05706765
5	0x3d9c84fe	0.07642554
6	0xbc262886	-0.0101414975
7	0x3d4f4536	0.050603114
8	0xbcd4b3e5	-0.025964687
9	0x3d8403c4	0.06446031
10	0x3c5ec766	0.013597345
11	0xbd4a64f6	-0.04941269
12	0xbd32f94a	-0.04369477
13	0xbda6fa00	-0.081531525
14	0x3d848d59	0.064722724
15	0xbcb3bc6b	-0.02194043
16	0x3d418ee2	0.047255404
17	0xbd4d8c3f	-0.050182577
18	0x3d8014cf	0.06253969
19	0xbb6c4460	-0.0036051497
20	0xbd0794a8	-0.033100754
21	0xbda51530	-0.08060682
22	0xbd80c70f	-0.062879674
23	0xbc4d9138	-0.01254683
24	0xbd493735	-0.049124915
25	0xbc7463ed	-0.014916402
26	0x3c211158	0.009830795
27	0xbb7aa108	-0.0038242955
28	0x3db4d082	0.08828832
29	0x3cce251a	0.025164176
30	0x3b97ce20	0.0046327263
31	0xbd7b7e7d	-0.061399926
32	0xbb7f8419	-0.0038988648
33	0xbd8867b6	-0.06660406
34	0xbda51ec9	-0.080625124
35	0xbd852a3c	-0.06502196
36	0x3d9decfa	0.07711215
37	0x3d1b7be3	0.037959944
38	0xbbc518a4	-0.0060149003
39	0x3d7f53b0	0.06233567
40	0xbd57456e	-0.052556448
41	0x3c1f5fdb	0.009727444
42	0xbd9edecb	-0.07757338
43	0x3d11190c	0.035424277
44	0x3d36cac6	0.044626974
45	0x3d89630d	0.067083456
46	0xbdab0ff7	-0.083526544
47	0x3c001bf8	0.007819168
48	0xbbf06fd5	-0.00733755
49	0x3d8fa872	0.0701455
50	0xbd279a3d	-0.040918577
51	0xbdb12771	-0.08650101
52	0xbd91a8ee	-0.07112299
53	0x3a88afcb	0.0010428367
54	0x3c6bfb84	0.014403228
55	0xbd3beefe	-0.045882218
56	0x3cf54d85	0.02994419
57	0x3d2dca70	0.042429388
58	0xbd8455d0	-0.0646168
59	0x3d3cb8c5	0.046074647
60	0xbd16fbc8	-0.03686121
61	0xbdaaf4e9	-0.08347494
62	0x3d708554	0.0587209
63	0xbda02560	-0.07819629
64	0xbd8e67fb	-0.069534265
65	0x3d67f6a1	0.056631688
66	0x3db22f83	0.087004684
67	0xb9d92f31	-0.00041424626
68	0xbd944a5c	-0.072407454
69	0xbbee7d53	-0.0072781234
70	0xbd93ac97	-0.07210653
71	0xbd0334dd	-0.032032836
72	0xbd442e4b	-0.04789571
73	0x3d9fb097	0.07797354
74	0x3cec66c5	0.028857598
75	0xbdbc567b	-0.09196182
76	0xbc006fa9	-0.007839122
77	0xbdb57ac7	-0.088613085
78	0xbd3e2c65	-0.046429057
79	0xbd2ac102	-0.041687973
80	0x3d64d6f5	0.05586906
81	0x3c6d6656	0.014489731
82	0x3d348cae	0.044079475
83	0x3d5dabe4	0.054119006
84	0xbc5fe9ca	-0.0136665795
85	0x3da2275a	0.07917662
86	0xbc594ffd	-0.0132637
87	0xbcb131bd	-0.021630162
88	0x3d8e6349	0.06952531
89	0x3d7e6a39	0.06211302
90	0x3b9d9c50	0.0048098937
91	0x3c2738c8	0.010206409
92	0xbdb1f063	-0.08688428
93	0xbd023dff	-0.031797405
94	0xbdb023b2	-0.08600558
95	0x3d426c3b	0.047466498
96	0xbd4fae88	-0.050703555
97	0xbc93e2b1	-0.01805243
98	0xbd5bc093	-0.05365045
99	0xbd680c03	-0.05665208
100	0x3c4e3786	0.01258648
101	0xbd215771	-0.03939003
102	0xbd00265c	-0.031286582
103	0x3d49ae69	0.049238596
104	0x3b889f17	0.0041693556
105	0xbd9f2b85	-0.077719726
106	0x3d6e59da	0.058191158
107	0xbd8f6c32	-0.070030585
108	0xbc5432d9	-0.012951576
109	0x3d9a9a1e	0.07548927
110	0x3d82f486	0.063942954
111	0xb92ad22f	-0.00016290763
112	0x3caebf94	0.021331586
113	0x3d4ad29b	0.049517255
114	0x3bb7a75a	0.0056046667
115	0x3d86bb75	0.06578723
116	0xbcf4e112	-0.029892478
117	0x3d960263	0.07324674
118	0xbca8488c	-0.020542406
119	0x3d613260	0.054979682
120	0xbd994e85	-0.074856795
121	0xbd20a0e1	-0.039215926
122	0x3b89ab13	0.004201302
123	0xbd7f84c8	-0.06238249
124	0x3c99214f	0.01869264
125	0x3d5a2cef	0.05326551
126	0x3c271ec0	0.010200202
127	0x3d60d9d8	0.054895252
128	0x3d0ee543	0.03488661
129	0x3c9dc488	0.019258752
130	0x3da61809	0.08110053
131	0x3da428d6	0.08015601
132	0x3d9e0edb	0.07717677
133	0xbb9f703f	-0.0048656757
134	0x3d4726d0	0.048621
135	0xbca31a1c	-0.01990991
136	0xbd5164f5	-0.05112167
137	0xbcfdb8cd	-0.030971909
138	0x3dbacc26	0.091209695
139	0xbd85669c	-0.06513712
140	0xbd0e9ed8	-0.034819454
141	0xbd9200d4	-0.07129064
142	0x3d70527e	0.05867242
143	0xbd44268c	-0.047888324
144	0xbd705ce5	-0.05868234
145	0x3c39a397	0.011330507
146	0xbd3c4718	-0.045966238
147	0x3d1813ae	0.037128143
148	0x3da8363a	0.08213468
149	0xbd801be8	-0.06255323
150	0x3c7faf25	0.015605723
151	0x3da7d0ed	0.08194146
152	0xbbfd0b89	-0.0077223224
153	0x3dbaddd3	0.09124341
154	0xbc994950	-0.018711716
155	0xbd800c85	-0.06252388
156	0x3d321c3a	0.04348395
157	0x3c3342ec	0.010941248
158	0xbc59f214	-0.013302345
159	0xbd8c814d	-0.068606
160	0x3d08b940	0.033379793
161	0x3c04f11b	0.008114125
162	0x3dbd0fcd	0.092315294
163	0xbb02ca9e	-0.0019957195
164	0x3cac81dd	0.021058017
165	0x3d41742a	0.047229923
166	0xbd3cba14	-0.046075895
167	0x3d400e40	0.04688859
168	0x3d07c9f8	0.033151597
169	0xbccec281	-0.025239231
170	0x3c3f4ce0	0.011676043
171	0x3db74e36	0.089504644
172	0x3d95012f	0.072756164
173	0x3dba5af3	0.090993784
174	0xbd4f88f4	-0.050667718
175	0xbd9da3cc	-0.076972574
176	0xbd973e30	-0.07384908
177	0xbd67356c	-0.05644743
178	0x3d8ed91f	0.06975006
179	0x3b5d88fe	0.0033803578
180	0xbd273b59	-0.040828083
181	0x3da8fe9d	0.08251689
182	0xbd6ff35b	-0.05858169
183	0x3c7a5868	0.015279867
184	0x3d7085de	0.058721416
185	0xbd7ddd2e	-0.06197851
186	0xbd978e3f	-0.07400178
187	0x3d2d6dc6	0.042341016
188	0x3d5a19d8	0.053247303
189	0xbd099863	-0.033592593
190	0xbce821b6	-0.028336387
191	0x3c2fb8d7	0.010725222
192	0xbce66040	-0.028122067
193	0xbcfd5ac3	-0.030927068
194	0xbc8b6f60	-0.017020881
195	0xbd8125d3	-0.063060425
196	0x3daada30	0.08342397
197	0x3cf9cf31	0.030494304
198	0x3cc107be	0.023563262
199	0xbd252621	-0.040319566
200	0x3d858712	0.06519903
201	0x3d40b036	0.047043048
202	0xbd0c3db9	-0.03423855
203	0xbcc38459	-0.02386682
204	0xbce4dbbe	-0.027936812
205	0x3b919ded	0.004443875
206	0x3dab217a	0.083559945
207	0x3dbdc1e2	0.09265496
208	0x3db84685	0.089978255
209	0x3ce36613	0.027758634
210	0xbd6b6b32	-0.057475276
211	0x3d1196dc	0.03554426
212	0xbce955da	-0.02848332
213	0x3d8e1028	0.06936675
214	0xbd5ba31c	-0.05362235
215	0xbd55e602	-0.052221306
216	0x3c9ab758	0.018886253
217	0x3d29fe49	0.04150227
218	0x3d270a42	0.040781267
219	0x3cd49b38	0.02595292
220	0xbc55b2b3	-0.0130430935
221	0x3cb1fb18	0.021726176
222	0xba7bbe33	-0.0009603232
223	0xbd651927	-0.05593219
224	0xbd058f08	-0.03260711
225	0x3cd70a3c	0.026249997
226	0x3d809a89	0.06279475
227	0x3cb21fc4	0.021743663
228	0xbcf29009	-0.029609697
229	0xbd8ed2fd	-0.069738366
230	0xbd8373f6	-0.06418602
231	0x3d71d0ac	0.059036896
232	0xbd4f8e8c	-0.050673053
233	0xbdb2d9d8	-0.08732957
234	0x3d52849a	0.05139599
235	0x3db45763	0.0880573
236	0xbd9d2986	-0.076739356
237	0x3ccdd7a8	0.025127247
238	0xbd51ea15	-0.05124863
239	0xbd484df5	-0.04890247
240	0x3d82f339	0.06394047
241	0x3d73538a	0.05940584
242	0xbd9333c7	-0.0718761
243	0x3dbf5657	0.0934264
244	0x3d7b025f	0.061281558
245	0xbc103898	-0.0088025555
246	0x3d1e6591	0.03867108
247	0xba261bc7	-0.00063365366
248	0xbd136000	-0.035980225
249	0x3c5ef858	0.013609014
250	0x3d42e5b4	0.047582343
251	0xbd8b3e0a	-0.067989424
252	0xbd35ba0d	-0.044366885
253	0xbda5c340	-0.080938816
254	0xbd185178	-0.03718707
255	0x3bca07c8	0.0061654784

fc2.bias f4 [60]
0	0xbd7f4297	-0.062319364
1	0xbda5a034	-0.08087197
2	0x3d061086	0.0327306
3	0xbdaa6029	-0.08319122
4	0xbcbebc2e	-0.02328309
5	0x3d3ba09f	0.045807477
6	0xbc9b0016	-0.01892094
7	0x3d4d1381	0.05006743
8	0xbccb82f4	-0.024842717
9	0xbdbcdf1c	-0.09222242
10	0xbcf38289	-0.02972533
11	0xbda6cda3	-0.08144691
12	0x3d6b6ae2	0.05747498
13	0xbbd19ccd	-0.006396866
14	0x3a71a5b8	0.00092181144
15	0xbd3a9125	-0.045548577
16	0x3d8178ee	0.06321894
17	0xbd1285e0	-0.035772204
18	0x3d00c2fc	0.03143595
19	0x3d1982d3	0.03747828
20	0x3d3515c9	0.04421023
21	0xbd5defd6	-0.054183803
22	0x3c3309fa	0.010927672
23	0x3ccba5cf	0.024859337
24	0xbd2fd4bb	-0.042927485
25	0x3d622e9a	0.055220224
26	0x3d7e5bd4	0.062099293
27	0xbd3dfb5f	-0.046382304
28	0x3d0b704f	0.034042653
29	0xbbe218e6	-0.006899941
30	0x3d36a2e6	0.044588946
31	0xbcd6ad00	-0.02620554
32	0xbd280af5	-0.041026074
33	0x3a068553	0.0005131561
34	0x3dace003	0.08441164
35	0xbc9c6ec8	-0.019095793
36	0xbd44313b	-0.047898512
37	0xbc7e953e	-0.015538512
38	0x3c8048b0	0.01565966
39	0x3d01ab86	0.031657718
40	0x3d764b19	0.060130212
41	0xbdc13584	-0.094340354
42	0xbda62e6c	-0.08114323
43	0x3d4da79e	0.05020868
44	0x3d7d708e	0.06187492
45	0xbd2e5cae	-0.042568855
46	0x3d6b5e8e	0.05746322
47	0xbcdf2b59	-0.02724235
48	0x3caa008e	0.020752218
49	0xbd24a384	-0.040195003
50	0x3c32abcc	0.010905217
51	0xbd9ba78b	-0.07600316
52	0x3d90b1c1	0.07065154
53	0x3c36966e	0.011144264
54	0xbd844e82	-0.06460287
55	0x3ca5b246	0.020226609
56	0x3d0cf073	0.034408998
57	0x3c7e49db	0.015520538
58	0xbdb1a5c5	-0.08674196
59	0xbd14a864	-0.036293402
