model/全角色/CharacterClassify_100.pth (torch, 463040 bytes, 8 tensors)

conv1.weight f4 [16, 1, 3, 3]
000000 72 54 5f be 6f 43 54 be 31 aa 23 3d bd c7 ee bd
       -0.21809557 -0.20728849 0.03995723 -0.11659191
000010 03 c2 29 bc 34 c1 22 3d cb 12 63 3d 28 23 9f 3e
       -0.010361197 0.039735034 0.055437844 0.3108151
000020 cb d2 85 be 1d 19 76 3d c1 66 53 be e7 06 3d be
       -0.26137385 0.060082544 -0.20644666 -0.18459664
000030 d6 8e 73 3e c1 79 79 be 5e 4f c9 bd 7f 01 6f 3e
       0.23784956 -0.24362852 -0.09829591 0.23340414
000040 ae e0 39 3e ca e9 35 3e c5 87 a6 3e 1e e6 14 be
       0.18152115 0.17764965 0.3252546 -0.14540908
000050 3d 5c 35 bd 0d 3b a1 3e 94 71 98 3e 9c 2d 99 be
       -0.04427742 0.31490365 0.29774153 -0.2991761
000060 f8 aa 2d be 26 f1 59 bc 78 ba 8c be 42 5e 96 be
       -0.1695975 -0.013302123 -0.27486014 -0.29368788
000070 b4 7a a2 bd a3 e4 9b be ce ad 93 3e 26 46 6f be
       -0.0793356 -0.30447873 0.2884354 -0.23366603
000080 c1 6e 37 3e a0 77 54 be df 6b 93 3e c5 c5 18 be
       0.17913343 -0.20748758 0.28793237 -0.14919193
000090 15 65 1f 3e 9f 4f 56 3e c3 5a 93 3e ba 7f 9e 3e
       0.15565903 0.2092881 0.28780183 0.30956823
0000a0 a5 34 96 be f7 72 a2 be 67 94 50 be 50 7e a9 3e
       -0.2933704 -0.31728336 -0.20369111 0.3310418
0000b0 91 f6 8c be d6 e4 83 3e 1d aa d2 bd 3e ca e9 3d
       -0.27531865 0.25760525 -0.10286353 0.11415528
0000c0 a9 98 0f be 6e 7e 1f 3e f8 b3 23 be b9 49 3a bd
       -0.14023079 0.15575573 -0.15986621 -0.045480464
0000d0 45 9f 0a be b4 15 84 be 8b bd 1a be 95 dd 29 3d
       -0.13537319 -0.25797808 -0.15111367 0.041471083
0000e0 ac 72 a7 3e 33 01 99 3e 34 59 59 bc 83 64 cb bd
       0.32704675 0.29883727 -0.013265897 -0.099312805
0000f0 3b 77 3f 3d c4 d4 27 be 49 98 d1 3b fe e2 3d 3e
       0.046744566 -0.16389757 0.0063963276 0.18543622
000100 dc 45 78 3e 25 c4 81 be b5 a3 86 3e 91 eb 94 be
       0.24245399 -0.2534496 0.26296774 -0.29085973
000110 c6 ad 82 3e 05 13 5f be 55 79 9f be 3c c2 c3 3d
       0.25523204 -0.21784599 -0.31147256 0.09558532
000120 4c d4 04 3e 25 a2 3a 3d 46 a3 5c bd fc 39 1a 3c
       0.1297161 0.04556479 -0.053866647 0.009413239
000130 c6 d0 3e be 9a 62 02 be e2 dd 2d bb 01 e7 45 3d
       -0.18634328 -0.12732926 -0.0026529958 0.048316006
000140 97 0a a5 3e 0f ed d8 bd cf e1 90 be 29 3c 1e 3d
       0.32234642 -0.1059209 -0.28297278 0.038631592
000150 9b 7a 51 3e ab 79 06 be ee ed e1 bd 77 7e 07 3e
       0.20456927 -0.1313235 -0.110317096 0.13231836
000160 9d 9e 18 3e e8 95 4c be 16 e9 b3 bc b2 60 fc bd
       0.14904256 -0.1997906 -0.02196173 -0.12323131
000170 93 83 98 3e 20 95 11 be a7 fb 80 be c4 0d 86 3e
       0.29787883 -0.14217043 -0.25191996 0.26182377
000180 16 12 5b bd 45 e0 f5 3c 06 f2 b8 bc cc bc 84 3c
       -0.053484045 0.030014167 -0.022576343 0.016203307
000190 a6 74 8c be ad e9 4c be 5a 43 c3 3d 27 82 e7 bd
       -0.27432746 -0.20011015 0.09534331 -0.113041215
0001a0 e4 af 68 3e ea 85 5d be 29 b7 37 be 76 52 83 be
       0.22723347 -0.21633115 -0.17940964 -0.2564885
0001b0 96 41 98 3e 79 5c 94 be dc 28 40 3b 44 8a 32 be
       0.29737538 -0.289768 0.002932123 -0.17435557
0001c0 06 8a a4 be e0 81 12 be f7 c6 9c 3d c2 80 ff bd
       -0.32136554 -0.14307356 0.07655137 -0.124757305
0001d0 39 d2 8b be 4b 1a 9f 3e 97 a9 37 3e ba af 51 3e
       -0.27308825 0.31074747 0.17935787 0.2047719
0001e0 26 bd 21 be 13 ad 52 be c3 74 40 bd de bc 00 3e
       -0.1579481 -0.20573835 -0.046986353 0.12572047
0001f0 4f a7 79 3e 97 e4 b0 3d 9f 43 f4 bd 0f 02 80 bd
       0.2438023 0.0863735 -0.1192696 -0.06250393
000200 93 7b 8c be f7 66 e1 3c 93 a9 34 be 66 17 77 3e
       -0.2743803 0.027514918 -0.17642812 0.2413002
000210 5b 7e 99 3e 52 3d 88 3d 03 98 a1 3e 26 b4 c1 3d
       0.29979214 0.06652321 0.31561288 0.09458189
000220 9d e1 73 be 27 c9 1a be 9d e0 96 3e 8b b9 99 be
       -0.23816533 -0.15115796 0.2946824 -0.3002437
000230 48 0d ad 3c bb d5 2d 3e 8b fd 29 3c 8d f6 f7 3d
       0.021124497 0.16976063 0.010375391 0.12107573

conv1.bias f4 [16]
000000 56 6a 80 3e 7c e8 60 3e 46 69 9a be 00 8e 17 3e
       0.25081128 0.21963686 -0.30158442 0.14800262
000010 ed fd 6f be 88 83 ef 3d 4d e8 6c 3e 4f 00 2c 3e
       -0.23436709 0.116950095 0.2313549 0.16796993
000020 2f e9 55 be e2 64 49 3e 5c d4 48 be 51 46 4a be
       -0.20889734 0.1966739 -0.19612259 -0.19753386
000030 7b f3 f9 bc ca d3 d1 bd e2 c3 d9 bd 45 31 27 be
       -0.030511608 -0.10245474 -0.10633065 -0.16327389

conv2.weight f4 [32, 16, 3, 3]
000000 da 82 17 3d 60 46 99 3c 9d 20 18 bc 26 11 8b 3d
       0.036990024 0.018710315 -0.009285119 0.0679038
000010 d8 a5 b8 bc 8e 3d a6 bd 5f 66 b6 3c 08 3f 80 3d
       -0.022540018 -0.081172094 0.022265611 0.06262022
000020 c0 a9 99 3d 82 ed 65 bd b3 25 8e 3d 2e e1 26 bd
       0.0750308 -0.05613471 0.06940784 -0.04074209
000030 a5 9b 9c bd f4 35 75 3d df ff 37 bd 1f 1a 81 3d
       -0.07646874 0.059865907 -0.044921752 0.0630381
000040 a3 8e 82 bd 6c e4 d7 bc 05 62 9c bd 26 2d 2c 3d
       -0.06374862 -0.026354037 -0.07635883 0.042035244
000050 4b ee fa bb e6 c1 1b bd 58 71 70 3d e6 2a 8c bd
       -0.0076578013 -0.038026713 0.058701843 -0.0684412
000060 e3 56 1c 3d bf b0 34 3d 52 27 7e bd 98 d2 22 bc
       0.0381688 0.04411387 -0.062049218 -0.009937905
000070 00 4f 8d bd 49 8f 03 bd 78 87 9f 3d 33 4b 83 bc
       -0.06899834 -0.03211907 0.077895105 -0.016027069
000080 51 97 47 3d 78 dd 0b bc 92 cb b4 bc 0c e3 8d 3d
       0.04872829 -0.008536689 -0.022069726 0.069280714
000090 3a e2 4e 3d 30 3b 96 3c 87 ae a0 3d 88 8a 9c 3c
       0.050508715 0.01833877 0.078457884 0.019109026
0000a0 d9 c1 05 3c 96 fb 88 3c 44 46 63 bd f9 28 cf bc
       0.008163893 0.016721528 -0.055486932 -0.025288092
0000b0 da 25 fe 3c 3c b9 9a bd a1 c1 94 3d 17 76 98 3d
       0.031023908 -0.07554862 0.07263494 0.07444399
0000c0 d5 d6 9a 3c 81 9d 9c bd 88 4b 61 3d 7d 71 11 3d
       0.018901268 -0.07647229 0.055003673 0.03550862
0000d0 af 06 ef 3b 66 6e 2a bd 9c 5d de 3a 95 3c 7b 3a
       0.007294498 -0.04160919 0.0016965154 0.00095839176
0000e0 32 50 28 3d 57 4a 0b bd f6 af d7 3c e9 df a8 bd
       0.041092105 -0.034006443 0.026329022 -0.082458325
0000f0 64 0a 06 3c 91 2c 13 3d 35 10 28 3d 05 e1 b6 3c
       0.008181188 0.035931174 0.04103108 0.022324095
000100 8d d9 9b 3d 1e ab a0 bd e9 8f 96 3d fb 23 9f bc
       0.07609854 -0.07845138 0.073516674 -0.019426337
000110 14 7c 8a 3c 1a 40 a8 3d f5 bf ba 3b 77 b4 64 3d
       0.016904868 0.082153514 0.0056991526 0.055836167
000120 ac 06 2d 3c ac bd 12 3d 5b 19 97 bd 1a 9a fe bc
       0.010560673 0.035825416 -0.07377883 -0.03107934
000130 9e 32 a1 3d e6 da 72 bd 78 7c 25 3d b5 bd 8c bd
       0.078709826 -0.05929079 0.040401906 -0.06872121
000140 d6 61 81 bd b4 7c 86 3d 36 7b 22 3d 14 31 ed bb
       -0.06317489 0.06566754 0.039668284 -0.0072385166
000150 b4 78 0b bd fa 40 ab bc 09 59 e7 3c 5b 2a 8c bd
       -0.03405066 -0.020905007 0.028240697 -0.06844016
000160 d6 c3 9f bc 33 48 29 3d c9 32 4a 3d 5f 81 49 bd
       -0.019502562 0.04132862 0.04936484 -0.049195644
000170 3f 40 21 3d 51 57 a1 3d 74 9b 54 bd 10 a0 85 bc
       0.03936791 0.078779824 -0.051906064 -0.016311675
000180 f0 f7 a1 bb 2f 66 f3 3c a0 2d 88 3d 1f 28 20 bc
       -0.0049428865 0.02971181 0.06649327 -0.009775191
000190 33 e2 80 bd 6a e3 f3 3c c1 3d 37 bd ba f0 b2 3c
       -0.06293144 0.029771525 -0.044736627 0.021843303
0001a0 3c 60 96 3d b7 65 ad bc 6e ee df 3c ae e3 f6 3c
       0.07342574 -0.021166665 0.027335372 0.030137863
0001b0 c4 16 91 3d 3e 98 e6 3c 6f 4f 17 bd 25 78 5e ba
       0.0708442 0.028148767 -0.03694099 -0.0008486531
0001c0 e3 e6 51 bd 6c d6 72 3d db 58 c8 bc d2 b6 ee bc
       -0.05124558 0.05928652 -0.024456432 -0.02913991
0001d0 91 ef a3 bc 2e b9 0a bd 5c 15 b9 bc d8 f9 46 bb
       -0.020011695 -0.033868007 -0.022593193 -0.003036132
0001e0 45 10 c5 3c d2 02 89 bb 19 1d ca bc 20 bc bd bc
       0.02405561 -0.0041812444 -0.024672078 -0.023160994
0001f0 ae 50 2f 3d 00 e6 83 bd 04 55 0a bd 4a a7 31 3c
       0.04280155 -0.064403534 -0.033772483 0.0108431075
000200 1f 19 d3 bc a6 f6 87 bc f2 eb 4f bb 7e 4f ee bb
       -0.025768815 -0.016597103 -0.0031726328 -0.00727266
000210 33 f2 9b 3d 28 b0 9a bd 6c 9b 3c 3d 86 6c 10 bd
       0.07614555 -0.075531304 0.04604666 -0.035259746
000220 fb d6 a6 bc 0a c0 78 3d 52 d6 ba 3c 18 c2 20 bd
       -0.020366183 0.060730018 0.022807274 -0.039247602
000230 c0 3b b1 3b e1 ad 5c 3d 8f 81 cd 3c 77 68 51 3d
       0.005408734 0.05387676 0.025086192 0.051125016
000240 e3 6c 14 3d 78 34 3a 3d 51 f3 33 3d 2f 73 4e bd
       0.036236655 0.045460194 0.043933216 -0.050402816
000250 52 b3 15 bc 62 ec 9e 3c ee 8f eb 3b d0 c6 1e bd
       -0.009136992 0.019399825 0.0071887886 -0.03876382
000260 e3 32 9d bd 78 e3 27 3d 59 99 f4 bc 20 33 3e bd
       -0.076757215 0.040988415 -0.029858278 -0.046435475
000270 a8 2b cc 3c c7 2f cc b9 52 3b 4f bd bc 5b 74 3d
       0.02492316 -0.0003894551 -0.05059368 0.059657797
000280 ed 8c 91 3d 57 8d 02 3c 48 ee a0 3c 51 b9 88 3d
       0.071069576 0.007968268 0.019644871 0.06675971
000290 44 5f a7 3d dd 7d cb 3b 0d 74 7c bd be a8 7f bb
       0.08172467 0.0062100724 -0.061634112 -0.003901049
0002a0 b4 79 00 bd d1 2a 7d bd d5 27 29 3d 0a 79 97 3c
       -0.031366065 -0.06180841 0.041297752 0.018490333
0002b0 ba 79 95 bd a4 7d 88 3d 1e 1c 2c 3d 2c e4 3f 3c
       -0.07298608 0.06664589 0.042019002 0.011712115
0002c0 2e 7c 93 bd 16 95 a2 3d 04 19 a6 3b 3f f1 6b 3d
       -0.0720142 0.07938592 0.0050689 0.057603117
0002d0 cd 49 1b 3b ca 00 94 bc 23 df 55 3d 69 99 5e bd
       0.0023695112 -0.018066783 0.052214753 -0.054345522
0002e0 82 d6 4c 3c cd e3 3c bd 62 26 1b 3c f4 26 e6 3c
       0.0125023145 -0.046115685 0.0094696 0.028094746
0002f0 73 7e 65 bd 67 b0 06 bd 93 62 40 3b 46 3f 2d bc
       -0.056028794 -0.032883074 0.002935563 -0.010574168
000300 8f 5b 0f bd f4 b5 77 3d 4d a6 25 bd 0b 03 fa 3c
       -0.034999426 0.06047626 -0.0404418 0.03051903
000310 96 42 a8 bd 8c 80 5d 3c 53 2c 98 3d de e8 6a 3c
       -0.08215825 0.0135194175 0.07430329 0.014337746
000320 83 fb 72 3d c7 7c 9d 3b 60 4b 4c bd 62 7a 86 3d
       0.05932189 0.0048061344 -0.04987657 0.065663114
000330 a0 ef 16 bd fe ff 9b 3d b9 fd 5d bd 53 75 8b bb
       -0.036849618 0.07617186 -0.054197047 -0.0042559295
000340 86 bf ab bc 50 a3 3c bd e6 be 9b bd af b3 5f 3d
       -0.020965349 -0.046054184 -0.0760477 0.05461472
000350 52 ec 7c bc 19 fa a1 3d ae 67 34 3d cd 79 e7 3c
       -0.0154372025 0.079090305 0.04404419 0.028256321
000360 63 51 10 bd bc ca 8f bd 71 50 d3 bc 42 ec 28 3d
       -0.035233866 -0.070210904 -0.025795193 0.041240938
000370 09 4d 90 bd 3f 18 22 bc d3 df 0e bd 3b 64 37 bd
       -0.07045943 -0.009893476 -0.034881424 -0.04477332
000380 a5 f4 81 bd b8 e6 50 bb df 89 70 3d 35 6c a4 3d
       -0.0634549 -0.00318758 0.058725234 0.08028451
000390 6c 8d a8 3d 37 6f 6f 3d 97 a4 a4 bd 32 3b a5 3d
       0.08230099 0.058455672 -0.080392055 0.08067931
0003a0 d0 aa 8f bc 77 bb 4a 3d 3f 2b 91 3c f6 c2 fb bc
       -0.017537504 0.049495187 0.017720817 -0.030732613
0003b0 c6 b8 89 3d 3e fa 07 3d 4f d8 11 bc 6a 42 a8 3c
       0.06724696 0.033197634 -0.00890167 0.020539481
0003c0 a5 72 5b bd 31 7b 92 bc d9 82 f3 3b a4 fa 9d 3c
       -0.05357613 -0.017881008 0.0074313697 0.019284554
0003d0 c8 6a 08 bb 76 2a 78 bd f6 d0 dd 3c 93 a4 30 bc
       -0.00208156 -0.06058737 0.02707718 -0.010781425
0003e0 92 db 48 bd 6b 9c 9f bd ab 58 7a 3c 72 b4 47 bd
       -0.049037524 -0.07793506 0.015279929 -0.04875607
0003f0 ea 5e aa 3d 9a bb 9b bd 57 c3 1e 3c 99 aa 87 3d
       0.08318885 -0.076041415 0.009690127 0.06624336

conv2.bias f4 [32]
000000 65 7d 67 bd fc dc 9a bd 1f a5 63 3c f3 13 6d bd
       -0.05651607 -0.07561681 0.013894348 -0.057880353
000010 96 4e d5 bc 69 1e 94 3d 9d d1 5f bd 0c fa 93 3d
       -0.02603845 0.07232363 -0.054643262 0.07225427
000020 8a 92 73 3d b8 a7 2f bd 93 3e a0 3c 6a 9e f6 3c
       0.059465922 -0.04288456 0.019561088 0.030104835
000030 58 36 dc 3c 4e 28 6c 3d 11 d4 ad bc f4 2a 9a 3d
       0.026881382 0.057655625 -0.021219285 0.07527724
000040 9d 76 88 3d f7 03 8a bd 89 88 98 bd b3 c4 52 3d
       0.06663249 -0.067390375 -0.07447917 0.05145712
000050 52 77 75 3c 1c 1b a0 bd 1e 63 3f 3d ba b4 23 3d
       0.014982061 -0.07817671 0.046725385 0.039967276
000060 d7 55 8a 3d 60 b1 82 bd 95 63 3f bc f9 ed a5 bd
       0.06754654 -0.06381488 -0.011681457 -0.0810203
000070 84 fe 32 3d 19 da 82 3d 87 f0 0f 3d 37 19 31 bd
       0.043699756 0.06389255 0.035141494 -0.043236937

fc1.weight f4 [128, 800]
000000 b9 2d 11 bc a8 24 ac 3c 2b d5 f6 bc d7 8d aa bb
       -0.008860999 0.021013573 -0.030130943 -0.005204897
000010 af 1b 8e 3b 85 eb 5a 3c 82 ea 25 bc a8 23 e4 3c
       0.0043367962 0.013361816 -0.010126712 0.027849033
000020 b2 05 eb 3b a1 77 f6 3a 56 2b 08 3b 0d 0f bb ba
       0.00717231 0.0018803963 0.0020777783 -0.0014271453
000030 4b 1e 01 bc 44 c0 d8 bc 90 de 8e bb 0a c8 06 bd
       -0.007880758 -0.026458867 -0.0043600276 -0.032905616
000040 d2 b2 85 bc b7 20 19 3c f2 77 00 3d f6 d2 07 bd
       -0.01632062 0.009346179 0.03136439 -0.033160172
000050 d8 4c 23 3c 28 18 ae b7 39 0a 9a 3c d4 c5 97 bb
       0.009967051 -2.0753665e-05 0.018803703 -0.0046317372
000060 de 5d f8 bc 42 6c d3 bb 1b 86 0a bd 56 5d d3 3b
       -0.030318197 -0.0064521143 -0.0338193 0.0064503355
000070 bc 44 da bb 50 6a 0a bd de 89 23 3c ef e7 24 3c
       -0.006661026 -0.033792794 0.009981601 0.010065063
000080 19 4f 89 3c 98 53 30 3c 32 96 b0 3b fe 13 b8 bb
       0.01676135 0.010762118 0.0053889984 -0.0056176176
000090 c1 d8 32 3b 79 db 41 bb 6f c3 16 3b 35 d4 d0 bc
       0.002728984 -0.0029580279 0.002300467 -0.025491813
0000a0 3f f4 12 bc 11 39 a8 3c 03 74 0f bb 61 db cb 3c
       -0.008969366 0.020535024 -0.0021889217 0.024884881
0000b0 6a d0 7e 3c c2 b9 0b bb 46 e7 80 bc 02 0c a0 3c
       0.0155526195 -0.0021320437 -0.01573528 0.019536976
0000c0 2a 3e 04 3c 4f 1a d7 bb 66 07 46 bc bc 63 0b bd
       0.008071462 -0.0065644155 -0.012086725 -0.03403066
0000d0 78 a8 0a bd f6 3f f0 bc 05 4d 57 bb 32 36 cc 3c
       -0.03385207 -0.029327374 -0.0032852304 0.024928186
0000e0 99 c6 c1 37 bb 01 9e bc 7e 5b e1 bc 9c 09 bc 3c
       2.3099872e-05 -0.019287935 -0.027509447 0.0229538
0000f0 70 59 08 3d 37 25 62 bc 69 61 75 bc 18 b7 4e 3c
       0.03328842 -0.013802818 -0.014976838 0.012616895
000100 65 6d 75 3b 85 ae a5 3c 0a b7 46 3c d4 bc 8a 3c
       0.0037449237 0.020224819 0.012128601 0.016935743
000110 6e f0 bd bc f1 ed 8a bb bd 9e d4 3c de 4a c5 bc
       -0.023185935 -0.0042397906 0.025954599 -0.024083551
000120 72 cc 4c 3c 98 29 f5 3c 06 fa e8 bc 2c 17 3d 3c
       0.012499915 0.02992706 -0.028439533 0.011541169
000130 8e ac 1b ba 02 24 cb 3c 8d 6c 09 3d 7f 8f a4 3c
       -0.00059384934 0.024797443 0.033550788 0.020087956
000140 14 e5 3e 3c 89 90 43 bc 8a 7d 0c 3d eb 00 de 3b
       0.011651296 -0.011936315 0.03429941 0.006775012
000150 18 d9 f6 3c 86 15 81 bc d6 a0 8f bb 15 b4 4e 3c
       0.030132815 -0.015757333 -0.004383187 0.012616177
000160 23 9e 47 bc 29 64 c4 3c 80 9b 52 bc 1f 37 d6 b9
       -0.012183699 0.023973541 -0.012854457 -0.0004085833
000170 e5 95 fc bc c6 e7 0f bc f0 83 02 bd 3d 7e 34 bc
       -0.030833194 -0.008783286 -0.031864107 -0.011016426
000180 2b 43 9b 3c 10 e1 69 3c 08 ab 05 bc f3 a9 01 bd
       0.018952927 0.0142748505 -0.008158453 -0.031656217
000190 d2 69 4d bc ab 7f ae bc d5 df af bb c5 af 8f ba
       -0.012537437 -0.021301111 -0.005367259 -0.0010962418
0001a0 c8 35 4a bc 5c 62 18 3c 53 6e 54 bc ad 1f 9b 3c
       -0.012341924 0.009300794 -0.0129657565 0.018936003
0001b0 21 24 b5 bc 4e 02 09 3d b1 d1 5b bc 1d c3 1b b9
       -0.022111954 0.033449464 -0.013416694 -0.00014854637
0001c0 ae 0f 35 3c 8a 19 be 3c b7 18 aa 3c ef 96 c1 bc
       0.011051102 0.023205537 0.020763738 -0.023631541
0001d0 52 7a c2 3c 62 e6 91 b9 92 a3 cc 3c 57 f5 f9 3c
       0.023739967 -0.00027828204 0.02498034 0.030512495
0001e0 19 60 2d 3c 2e e4 f7 3b 73 ad f8 bc a3 1b d0 3c
       0.0105819935 0.007565043 -0.030356145 0.025403803
0001f0 ca 5d a0 3c 07 cc 49 3c 99 a0 8e bc 1e 9f e6 bc
       0.019575972 0.01231671 -0.017410563 -0.028152045
000200 c3 81 f5 bc 42 2d 18 3c 78 f7 06 3d c2 5c 09 3d
       -0.029969102 0.009288134 0.03295085 0.033535726
000210 10 7e 63 3c a3 d8 c2 bc 44 15 c0 bc 2c 8e da 3b
       0.013885036 -0.023784941 -0.02344764 0.0066697802
000220 28 0c 0e 3b 24 ba 09 bd db 34 c9 bc 2d 3a 00 bc
       0.0021674726 -0.033624783 -0.024561336 -0.00782637
000230 d1 0b 59 bb 48 58 09 3d f1 42 d0 3b 49 9e c3 bc
       -0.0033118615 0.033531457 0.0063556363 -0.023879187
000240 45 0d 06 3d 12 ba 5d ba ce e4 2e bb f6 ae cd 3c
       0.0327275 -0.00084582076 -0.0026686671 0.025107842
000250 5d ae a4 3c 38 c0 cc 3c 4b be fe 39 4d 53 86 3c
       0.020102674 0.024994 0.00048588435 0.016397143
000260 95 ec bd bc 1a 2c 67 bb c1 3b e2 bc 28 86 f8 3c
       -0.0231841 -0.003527409 -0.027616384 0.030337408
000270 0f 8d 5c bc 94 55 21 3c 81 72 18 3c 05 26 e1 bb
       -0.013461365 0.009847064 0.009304644 -0.0068709874
000280 2c ea 0b bd f0 c5 07 3d 4f a2 5d 3c 68 ea 63 3b
       -0.03415887 0.033147752 0.013527467 0.0034777168
000290 e4 31 d4 3c 39 d2 b8 3c 1e 8d b7 b9 cb 9b 04 3d
       0.025902696 0.02256118 -0.0003500962 0.03237514
0002a0 50 7d 05 3d 89 62 fd 3c 38 20 be bc 11 75 26 3c
       0.03259021 0.030930774 -0.023208722 0.010159747
0002b0 c4 ce cd bb 44 8f 10 bd 45 30 c2 bc 41 95 0d bc
       -0.006280752 -0.03529288 -0.023704657 -0.008641542
0002c0 eb 70 fe 3c df 8e 0f bc 59 66 58 3b 45 ec ae bc
       0.031059703 -0.0087620905 0.0033019988 -0.021352896
0002d0 c8 86 90 ba 01 86 38 3c 33 fa 0f bd 98 52 06 3c
       -0.0011026496 0.011262418 -0.035150718 0.008198403
0002e0 6d a8 7b bc 47 6e a5 bc b3 b5 82 3c dd 57 f0 bc
       -0.01535998 -0.020194186 0.015955782 -0.029338771
0002f0 0f 1c a2 bc b0 09 ed bc 8b 53 84 bc 9f 74 55 3c
       -0.01978877 -0.028935283 -0.016153118 0.013028293
000300 6a fc 90 3c 3c 91 c5 bc 27 31 a6 37 53 c7 75 ba
       0.017698485 -0.024117105 1.981163e-05 -0.000937571
000310 bd 36 06 bd bc 58 0a bd fe 2b f2 3c 62 9a e9 3c
       -0.032767046 -0.03377603 0.029561993 0.028515998
000320 9e 2b 4e 3c 06 d8 bf 3c b6 e1 c6 3c 6e 18 73 3c
       0.012583641 0.023418438 0.02427755 0.014837367
000330 ce 70 ed bc 96 c8 e9 bc 11 60 99 3c 8e c5 14 3c
       -0.028984454 -0.02853803 0.018722566 0.009080304
000340 c2 8d a7 bc 24 5b ae bb 80 ba e5 3b ec fd d2 3b
       -0.020453338 -0.0053209234 0.007010758 0.0064389613
000350 79 cd 1e bb 35 41 cb 3a 59 40 fe 3c c1 f3 11 bd
       -0.0024231358 0.0015507104 0.031036543 -0.035632852
000360 24 dd f3 3b 19 1a ec 3b 4c ef 11 bd 2b ba c1 3c
       0.0074421335 0.0072052595 -0.035628602 0.023648342
000370 60 b0 f2 bc 1b ee 73 3c 19 db 79 bc e2 16 f7 bc
       -0.029625118 0.014888312 -0.015249991 -0.030162279
000380 3f 07 03 bc 4c b8 e8 bc 6a 5c d3 bc 31 8e 8f ba
       -0.007997333 -0.028408192 -0.025800902 -0.001095241
000390 94 74 f0 bc e5 d0 10 bd a7 4b 0e 3c f0 b1 d9 bc
       -0.029352464 -0.035355467 0.008685029 -0.026574105
0003a0 ae 84 01 bd 4b a3 7d bb 27 05 4a bc 63 7f 6d bc
       -0.031620674 -0.0038702067 -0.01233033 -0.014495703
0003b0 91 37 c6 3a d2 4b 92 ba 3a 27 ff 3c 46 e2 ef bb
       0.0015122761 -0.0011161512 0.031146634 -0.007320675
0003c0 45 45 4c 3c a2 82 87 bc 2f 4f dc bc 9c 2e a6 3c
       0.012467687 -0.016541783 -0.026893226 0.020285897
0003d0 4b 66 45 3c 43 42 60 bb 7a 26 63 bc 9e 2b b3 3c
       0.012048314 -0.0034219183 -0.013864154 0.021871384
0003e0 98 79 0a bd 60 4d 2f bc eb ec 1e 3c 8a 43 a4 3c
       -0.033807367 -0.0106996 0.00970004 0.020051736
0003f0 64 ba 03 3d e0 be 28 3b a1 a8 af 3b 04 60 9b bc
       0.032160178 0.0025748536 0.0053606783 -0.018966682

fc1.bias f4 [128]
000000 73 17 97 bc 11 a2 e8 bc 8b 03 56 bc e1 e4 ad 3c
       -0.018443799 -0.028397592 -0.013062368 0.021227302
000010 6f 2f f8 3b ab 15 6f bc bc 7a 8b 3c 0c 35 ef bc
       0.007574014 -0.014592568 0.017026298 -0.0292001
000020 f2 7e 6a 3c 6c ef e2 3b d7 a8 0b bd b4 95 c4 bb
       0.014312493 0.006925514 -0.034096565 -0.0059992913
000030 00 0f 61 ba 0f a5 92 bb 4c 7a f9 bb 5b 53 95 bc
       -0.0008585304 -0.004475243 -0.007613456 -0.018228224
000040 7f 57 2b 3c d4 fc b5 bc ee 34 cf 3c 98 48 8b bc
       0.010457872 -0.022215284 0.025293794 -0.017002389
000050 ba d0 59 bb b6 36 d0 bc 82 d1 f5 3c e8 8b 10 3c
       -0.0033235983 -0.025416713 0.030007128 0.008822419
000060 f3 d6 d3 3c 20 ff fb bc aa db ec bc f1 e1 b9 3b
       0.025859332 -0.030761302 -0.028913338 0.0056726863
000070 b8 01 cf 3c ce 60 e4 3c eb 8b ea bc dd 47 92 3c
       0.025269374 0.027878191 -0.028631171 0.017856533
000080 43 50 3b 3c 92 99 29 3a 6f 4f f9 bb e3 32 d2 38
       0.01143271 0.0006469722 -0.007608346 0.00010023059
000090 e5 7a 99 3c 32 be cc bb be cb ee 3a 8a c8 9a 3b
       0.018735358 -0.006248259 0.0018218679 0.004723613
0000a0 94 6b f4 3c e2 ed 98 3b 49 72 e2 bc bc fe 91 ba
       0.029836453 0.0046670297 -0.027642386 -0.0011138539
0000b0 d6 1f 77 bc 74 db 5d 3c 9e 27 6d bc 48 b6 91 bc
       -0.015083274 0.013541091 -0.0144747775 -0.017787114
0000c0 0a bf 00 3d 83 47 6a bc 30 39 b7 ba 64 7d d4 3b
       0.03143219 -0.014299276 -0.0013978835 0.0064846743
0000d0 bf 71 25 3c d1 34 b1 bb 50 a0 38 bc 6d 42 da 3c
       0.01009792 -0.0054079075 -0.01126869 0.026643002
0000e0 47 f0 8d 3c 7f 19 03 3d 68 20 7e bc 62 98 0a 3c
       0.017326487 0.032006737 -0.015510656 0.008459182
0000f0 11 9b 02 3d 83 43 63 3c ff 07 cb 3b f4 79 15 3c
       0.031886164 0.0138710765 0.0061960216 0.009123314
000100 47 a2 fd bb 18 cd d2 bc 5e 22 a1 3b e8 07 06 3d
       -0.007740292 -0.025732562 0.004917427 0.032722384
000110 5f 53 c2 3c 92 b1 c6 bb 9b e8 51 bb 3f bf ce ba
       0.023721395 -0.0060636485 -0.0032029513 -0.0015773549
000120 8d 7c 5b bc 1a ae a9 3c ad 83 cf 3c 78 88 38 bc
       -0.013396394 0.0207129 0.025331343 -0.011263005
000130 36 21 c2 3b 22 e4 59 3c 86 c9 96 bc bf 8f 5b 3c
       0.005924369 0.01329902 -0.01840664 0.013400971
000140 a2 11 fb bc b0 b9 70 3c e6 3f f4 3b 10 1d d6 3c
       -0.030648056 0.014692709 0.0074539063 0.026136905
000150 c6 1a d0 bc 6f bd 8c 3c 94 28 57 bc d4 37 35 3b
       -0.025403392 0.017180173 -0.013132233 0.0027651684
000160 ef ce c9 3b 67 dc 96 bc 8f 1e 09 3d 6b 13 89 39
       0.0061587016 -0.018415643 0.03347641 0.00026145144
000170 d3 66 58 3c ed b2 2f bc 36 00 ba bc 4b db 2d bc
       0.013208109 -0.010723812 -0.022705179 -0.010611366
000180 d1 de 47 3c 79 19 2d 3c 56 c7 d4 bc 92 82 99 3c
       0.01219912 0.010565155 -0.025973957 0.018739019
000190 57 90 85 bc b3 47 be 3c f2 f1 3a bb ff 6f 5c 3c
       -0.016304178 0.023227548 -0.0028525558 0.013454436
0001a0 b3 74 de 3c fb af 2e b9 e0 bc 2d bc d1 ec 15 bc
       0.027155256 -0.00016659491 -0.010604113 -0.0091507
0001b0 7b c5 f7 bc a5 5e 61 bb 30 3f 25 bc dd f6 ee 3c
       -0.030245533 -0.0034388688 -0.010085866 0.029170448
0001c0 ec 34 ad bc ab fa c7 bc c3 43 1d 3b 26 31 c6 bc
       -0.0211434 -0.02441152 0.0023996688 -0.024193358
0001d0 19 e1 ba bc 34 fe 35 bc 7c 44 0d 3d c2 4b a5 bb
       -0.022812413 -0.01110797 0.03448914 -0.0050444314
0001e0 0f 7e 9e 3b a8 dd 09 3d d4 80 7c bb 36 01 e2 3c
       0.0048368047 0.033658653 -0.0038528936 0.027588468
0001f0 da 41 4c bc 60 b1 49 bc c1 00 65 3c 79 4f 23 3c
       -0.012466872 -0.012310356 0.0139772305 0.009967678

fc2.weight f4 [60, 128]
000000 70 cf 36 3d 3b 2b e0 bc ae 83 b6 bd a3 4a 2b 3d
       0.04463142 -0.027364364 -0.08911835 0.041819226
000010 34 a7 40 3d ed 72 fb 3c 2c bc c7 bb 50 2e a0 3b
       0.047034457 0.03069445 -0.00609543 0.0048883334
000020 3d 39 9d 3d ce 49 9f bd 79 64 1a 3d a9 40 6a 3d
       0.07676933 -0.07777749 0.037693474 0.05719057
000030 85 a7 0b 3d d0 92 12 bd 00 2c 8d bd 43 d4 fd 3c
       0.034095306 -0.035784543 -0.06893158 0.030985003
000040 88 83 31 3d fd 42 c6 3c 22 9f 3b 3d 98 b4 5a bd
       0.04333833 0.024201864 0.045806058 -0.053394884
000050 bd 62 0d 3d 85 97 8e 3c b3 74 12 3d 9f a1 d7 3b
       0.034517992 0.017406235 0.035755824 0.006580546
000060 6a 1e da 3c ac b3 1b bd f3 1b 9a 3d 05 c0 a0 bd
       0.02662583 -0.038013145 0.07524862 -0.07849125
000070 96 6b 91 3d 58 bd 5d bd 45 7d d3 bc 4f 06 9b 3d
       0.071005985 -0.05413565 -0.02581657 0.07569563
000080 36 81 7e bd 1b b7 a4 3d b5 ee 60 bd 43 b5 2e 3d
       -0.062134944 0.08042737 -0.05491515 0.042653333
000090 60 9c 61 3d 9a 29 e6 bb 74 47 9d bd 69 50 8d bd
       0.05508077 -0.0070240023 -0.07679644 -0.06900103
0000a0 6d d5 ac bd b9 e7 82 bd 8b 41 4a bd e0 d9 1f 3b
       -0.08439145 -0.06391854 -0.049378913 0.0024391338
0000b0 2b cc a8 3d c8 01 72 bd ef 8c 39 bd 76 d3 6d bd
       0.08242067 -0.05908373 -0.04530042 -0.058062993
0000c0 18 6b 90 3d d5 ab 40 bc 03 50 82 3b 7e cd 8b 3d
       0.070516765 -0.011759718 0.0039768233 0.06826304
0000d0 6c f1 a0 bd 1b 1a a9 bd df ce 59 bd 9e ce c0 bc
       -0.078585476 -0.08256932 -0.053175803 -0.023536023
0000e0 44 b7 4d 3d 0a e1 92 3d db 38 30 bd 5a 6f 52 3d
       0.050223604 0.07171829 -0.04302297 0.051375724
0000f0 0a 26 3d 3c 8a b1 c0 3c 08 f9 82 3c f7 ab a1 bd
       0.011544714 0.023522157 0.015987888 -0.07894128
000100 95 74 93 3d 25 bd 97 bc e9 c4 54 3d e3 81 21 3d
       0.07199971 -0.018522808 0.0519456 0.03943051
000110 43 19 88 3d d8 2c 83 3d 01 f6 92 3d e2 dc 92 3d
       0.06645443 0.06405038 0.07175828 0.07171036
000120 0d 89 24 3d 17 4d 7c 3d f8 6c fe bc 16 89 93 3d
       0.040169764 0.061596956 -0.03105782 0.072038814
000130 96 10 99 3b 3d ab d8 bc e5 bb d6 3b 64 ea 65 3d
       0.0046711667 -0.02644884 0.0065531605 0.056131735
000140 21 56 4b 3d 17 62 8d 3d af 15 ad 3d bc 1d 5f 3c
       0.049642686 0.06903475 0.084514014 0.013617929
000150 cb 78 8b bd fa 2b 2b bb 12 8b 04 3c 89 b1 f6 bc
       -0.06810149 -0.0026118741 0.008089798 -0.030113952
000160 1c d3 a8 bd d2 3f 39 bd 38 70 a2 3d 05 46 ff ba
       -0.08243391 -0.04522688 0.0793156 -0.0019475824
000170 40 4d 8a bd ce 03 e9 3c f5 8e 96 bc d8 d7 7b 3d
       -0.067530155 0.028444197 -0.018378714 0.06148514
000180 e5 50 41 3d 00 b3 43 3b b6 35 28 bd 90 c4 5c bc
       0.047196288 0.002986133 -0.041066848 -0.0134745985
000190 2e 31 8d bd e4 4b 93 bd e0 89 7e 3d 3f c3 04 bd
       -0.06894146 -0.07192209 0.062143207 -0.032412764
0001a0 5b 1b 8f 3d d2 29 49 bd 43 76 82 bb 7b 32 9b 3c
       0.069876395 -0.04911215 -0.003981383 0.01894497
0001b0 fb c1 70 bd 68 49 11 bd 8b 46 87 3c c6 f6 93 3c
       -0.058778744 -0.035470396 0.01651313 0.018062007
0001c0 4b a8 d4 3c 1e ec a8 bc 87 66 7c 3d 52 63 7e 3d
       0.025959155 -0.020620402 0.061621215 0.062106438
0001d0 b1 71 56 bd 8f c3 88 3d 52 09 64 3b 0a e2 41 bd
       -0.05235452 0.06677925 0.0034795594 -0.04733471
0001e0 c9 c5 91 bc 49 ea 20 3d 68 2e 9e 3c f7 93 a8 3d
       -0.017794507 0.03928593 0.019309238 0.08231347
0001f0 10 ac 9c bd d7 57 a3 3d f3 de 8f bd 07 1d b3 bc
       -0.07650006 0.079757385 -0.07024946 -0.021864427
000200 84 e4 4e 3c 39 d6 b4 3d 3c 32 97 bc 98 97 b0 bc
       0.012627725 0.08829922 -0.01845657 -0.02155666
000210 f3 1e bf bc 9d e3 62 3d ac e6 43 3d 30 47 02 bd
       -0.023330187 0.05539285 0.047827408 -0.03180617
000220 7e b2 59 3d 01 80 ac bd 50 9b a9 bd 4c 80 4c bd
       0.05314874 -0.08422852 -0.08281577 -0.04992704
000230 ea 6b 9d bd 19 4d 8b 3d 46 44 42 3c 54 e2 15 3d
       -0.076865986 0.068018146 0.011857098 0.036592796
000240 f2 1d 67 bd ca ad a2 bd f7 8d 4d 3d 51 7e 2d bd
       -0.056425042 -0.07943304 0.050184216 -0.042356793
000250 40 e5 3f bd cb 1b bd 3c a8 11 38 3d 38 9b 2d 3d
       -0.04684949 0.023084542 0.044938713 0.042384356
000260 a3 57 48 bd 9e 19 0c 3d 31 c8 e3 ba 98 f5 d5 bc
       -0.048911702 0.034204118 -0.0017378387 -0.026118085
000270 3e 93 22 bc ce 1a 2b 3c 83 22 6d bc 1e fb 79 bc
       -0.009922801 0.010443402 -0.01447356 -0.015257625
000280 48 32 09 3d f9 46 c6 bc bf 53 0e bd f4 8c a1 3d
       0.033495218 -0.024203764 -0.034747835 0.07888213
000290 af 50 6d 3d cc c7 b2 bd 3e 27 3b 3d 9f cb f7 3b
       0.057938274 -0.087295145 0.04569172 0.0075621153
0002a0 b5 d4 f8 3b 06 9c 26 bd 27 5e b8 bc cc c9 ff bc
       0.007593716 -0.04067614 -0.022505833 -0.031224154
0002b0 8c 98 b9 bc aa 1a 95 bd e3 1a d2 3c 42 8e c9 bc
       -0.022655748 -0.072804764 0.025647586 -0.024603967
0002c0 4b e5 42 3d df 5d d8 bc e0 63 81 3d 78 bb 6e bd
       0.047581952 -0.026411949 0.06317878 -0.058284253
0002d0 78 47 66 bc ab fd 29 bd 1c cc b7 bc 25 2b 5a 3d
       -0.014055125 -0.041501682 -0.022436194 0.053263802
0002e0 d9 8f a4 bd 0d 36 a4 3d 52 ae d8 bc ce d1 b1 3d
       -0.08035249 0.08018122 -0.02645031 0.08682595
0002f0 17 4e af bc 9b c7 35 bd 75 60 67 3d ce 6e 74 bd
       -0.02139954 -0.04437981 0.056488473 -0.059675984
000300 cd ad 1b 3d a3 2a ad bd 8a c5 96 bd 98 21 86 bb
       0.038007546 -0.08455398 -0.07361896 -0.00409336
000310 9c 39 11 bd 13 a9 42 3c af 55 78 bc 1b 4c 20 bd
       -0.03545533 0.011881131 -0.015157147 -0.03913508
000320 3a f8 b0 bd 39 2d 82 3c 82 d3 78 3d 2e 1e 3a bd
       -0.086410955 0.015890704 0.060748585 -0.045438938
000330 b2 bc 01 bc 16 0b af bd 10 eb 25 3c 10 da 0d 3d
       -0.007918524 -0.08547036 0.010126844 0.03463179
000340 18 8c 5b 3d 3c 8d 55 bd 7f dd 81 3d 36 76 62 3d
       0.0536004 -0.052136645 0.06341075 0.055288516
000350 c9 5c 7e bc 2f 40 94 bd 51 9c 85 3d a3 ed 01 3d
       -0.015525051 -0.072388045 0.065239556 0.03172077
000360 ab 0a a8 bd dd 9b b6 3b 3c d7 a3 3d 43 77 13 3c
       -0.0820516 0.0055727796 0.08000037 0.009000602
000370 77 db 80 3d 8b a1 ad 3d 65 b5 84 3d f8 99 96 bd
       0.062918596 0.084780775 0.06479911 -0.07353586
000380 36 c9 16 3d b6 70 b1 3d b9 2c c6 3c db 9a 40 bd
       0.036812983 0.08664076 0.024191247 -0.04702268
000390 24 6c 8d 3d 04 c7 92 bc 64 97 b0 bd d9 b1 89 3d
       0.06905392 -0.017917164 -0.086226255 0.06723375
0003a0 19 87 98 bd c1 27 9b 3d b0 1c 07 3d a7 f3 d3 3c
       -0.07447643 0.07575942 0.032986343 0.025873018
0003b0 b4 e9 2b 3c f6 37 0f 3d 81 1a 80 bd 3b 29 26 3d
       0.010492731 0.034965478 -0.06255055 0.040566664
0003c0 b8 93 81 3d fb e4 12 3a 2b d0 54 bc 92 61 3c 3d
       0.06327003 0.0005603579 -0.012989084 0.045991488
0003d0 04 28 13 bd ec ac a4 bd 63 7e 65 3d 28 bb ca bc
       -0.035926834 -0.08040795 0.056028735 -0.024747446
0003e0 b3 ee b9 3c c9 23 83 bc 29 58 85 bd d5 a4 a2 bd
       0.022696828 -0.016008275 -0.06510956 -0.079415955
0003f0 6e 2f 84 bd 6a a1 77 3c 55 ce 0e 3d 32 a0 8b bd
       -0.06454359 0.015114168 0.034864742 -0.06817664

fc2.bias f4 [60]
000000 13 3d 4a bd 5c 54 98 3d db da 6b 3d e3 fe a7 3d
       -0.04937465 0.07437965 0.057581764 0.08202913
000010 db 57 9f bc 09 7c 3e 3d 68 98 cb bc a6 f5 2f 3c
       -0.019451072 0.046505008 -0.024852946 0.0107397195
000020 f1 05 8d 3d 89 cc a0 bd cb 2d 0d bc 91 1e d1 bc
       0.06885899 -0.07851512 -0.008616875 -0.02552727
000030 68 1c ab bd 08 a2 a4 bc 01 c5 2b 3c 46 cf 30 bd
       -0.083550274 -0.020096794 0.010483981 -0.04316642
000040 43 01 f5 bb 86 ed ac bd cf 68 98 3d 41 d6 9b 3d
       -0.007476957 -0.084437415 0.07441866 0.07609225
000050 b2 d3 87 3d bf 3e ca 3c 24 41 ab bc b0 1c 3f bc
       0.066321746 0.024688123 -0.020905085 -0.0116645545
000060 6f 34 9e bd 45 70 b6 bc 73 18 44 3d 55 b0 84 bd
       -0.07724845 -0.022270331 0.04787488 -0.06478945
000070 aa 85 78 bd 50 d2 a5 bd d2 b9 91 bd e5 5f 92 bc
       -0.060674347 -0.080967546 -0.071155205 -0.017867992
000080 4e 91 6e bd 68 32 d8 bc 8d 6a 87 bd 36 c0 b2 3c
       -0.058244042 -0.026391223 -0.0661212 0.021820169
000090 2d 95 39 bd 95 f4 3d bd 8f 00 3e 3b 1a fb 19 bd
       -0.04530828 -0.04637583 0.0028992032 -0.037592985
0000a0 a4 d3 7c bd 7c ac 8a bd f0 a6 6d bd ef 97 a4 3c
       -0.061725274 -0.0677118 -0.058020532 0.020091979
0000b0 36 6a 14 3d f2 35 53 3d 2a 22 37 bc 28 79 91 3d
       0.036234103 0.051565118 -0.011177579 0.07103187
0000c0 2c 15 b2 bd ca 3b a5 3d 5c 20 98 3d 47 02 a5 3b
       -0.086954445 0.080680445 0.07428047 0.005035672
0000d0 0f fa 0d 3c db c0 90 3c 4b 7c 9b bd bc 70 1b 3d
       0.008665576 0.017670086 -0.075920664 0.03794931
0000e0 37 56 aa 3d 3e e2 ae bd 5c 84 81 bd f4 b6 2b 3d
       0.083172254 -0.08539246 -0.06324074 0.041922525
