model/全角色/CharacterClassify_200.pth (torch, 463040 bytes, 8 tensors)

conv1.weight f4 [16, 1, 3, 3]
00000000: 61f7 5ebe ecdf 53be 0768 253d 360c eebd
00000010: 600a 23bc 2893 243d cf36 653d 3d65 9f3e
00000020: cb93 85be cb7e 733d 8a10 54be 4ba8 3dbe
00000030: 8350 733e 40b2 79be 49b6 c9bd 6243 6e3e
00000040: c025 393e 3832 353e 891c a63e 92bb 15be
00000050: 5996 38bd a94f a13e 3a7d 983e 1733 99be
00000060: 7b4a 2ebe ddf7 63bc 540f 8dbe b634 96be
00000070: c2d5 a1bd d7bd 9bbe d9c9 933e 150c 6fbe
00000080: 72a0 373e 4ec0 53be 8fc2 933e cd17 18be
00000090: 1550 203e 1439 573e c0ce 933e 66b6 9e3e
000000a0: 0dfe 95be 013f a2be 226e 4fbe 1911 aa3e
000000b0: eb5f 8cbe 56ef 833e 9876 d2bd ccfa e93d
000000c0: 4c14 10be 1407 1f3e 7122 24be 6643 3abd
000000d0: 06a4 0abe c017 84be 4540 1abe d04c 2b3d
000000e0: 0f95 a73e b83e 993e 7209 50bc 891c cabd
000000f0: 0ff4 423d 37e4 26be ba1b f03b e820 3d3e
00000100: 0d89 773e 1721 82be b256 863e f235 95be
00000110: 2b65 823e 19b7 5fbe d9c8 9fbe a076 c23d
00000120: 98ad 043e c119 3a3d ac4a 5dbd 0006 223c
00000130: 776d 3ebe f10e 02be c4fc 0bbb e8bb 473d
00000140: 3938 a53e d846 d9bd fefb 90be 7b64 1d3d
00000150: d650 513e ecb5 06be 2489 e2bd c60a 073e
00000160: 8e1f 183e 7217 4dbe 896a afbc 2a3d fbbd
00000170: 5fcc 983e 0ada 10be d695 80be 3e80 863e
00000180: 7801 57bd 972f fe3c bab4 b0bc bfbf 863c
00000190: 6155 8cbe e0a4 4cbe 04fc c23d 43a9 e7bd
000001a0: c6a1 683e 4a1b 5ebe 2845 38be 9495 83be
000001b0: 563e 983e f760 94be 259f 413b 7a27 33be
000001c0: efd5 a4be d11f 13be 435d 9b3d ae7b 00be
000001d0: c832 8cbe ec78 9f3e 4d62 383e 785f 523e
000001e0: 955b 21be 4f3b 52be 02c6 3ebd 50de 013e
000001f0: 09c9 7a3e d82a b33d 4feb f3bd 4e57 7fbd
00000200: 0b68 8cbe d8f3 e33c 1d5a 34be c75d 773e
00000210: 3f3c 993e 111f 873d da4c a13e 0b3f c13d
00000220: 6117 74be 40f8 1abe 4317 973e c582 99be
00000230: 76b7 af3c d98e 2d3e e38f 253c d639 f73d
-0.21774055 -0.20690888 0.04038241 -0.11623423 -0.009951204 0.0401794 0.055960473 0.31131926
-0.2608932 0.05944709 -0.20709434 -0.1852123 0.23761182 -0.24384403 -0.09849221 0.23267892
0.18080807 0.17694938 0.32443646 -0.14622334 -0.045065258 0.31506088 0.2978304 -0.2992179
-0.170206 -0.013914076 -0.27550757 -0.2933709 -0.07902099 -0.30418274 0.28864935 -0.23344453
0.17932299 -0.20678827 0.28859374 -0.1485283 0.15655549 0.21017867 0.28868675 0.30998534
-0.29295388 -0.31688693 -0.20256856 0.3321617 -0.2741693 0.25768536 -0.10276526 0.11424789
-0.14070243 0.15530044 -0.16028763 -0.045474432 -0.13539132 -0.2579937 -0.1506358 0.0418213
0.3273091 0.29930663 -0.012697564 -0.09868724 0.047596034 -0.16297995 0.007327524 0.18469584
0.24173374 -0.2541587 0.26238018 -0.2914272 0.2546781 -0.2184719 -0.31207922 0.09495282
0.12956846 0.045434717 -0.05402629 0.009889126 -0.18596445 -0.12701012 -0.0021360377 0.048763186
0.32269457 -0.106092155 -0.28317255 0.038425904 0.20440993 -0.13155335 -0.11061314 0.13187703
0.14855787 -0.20028475 -0.021413105 -0.122675255 0.29843423 -0.14145675 -0.25114316 0.26269716
-0.052491635 0.031028552 -0.021570552 0.016448854 -0.2740889 -0.1998477 0.095207244 -0.11311581
0.22717962 -0.21690097 -0.17995131 -0.25700057 0.2973506 -0.28980228 0.002954432 -0.17495528
-0.32194468 -0.14367606 0.07586148 -0.1254718 -0.27382493 0.31146944 0.18006249 0.20544231
-0.15757592 -0.20530437 -0.046575554 0.12682462 0.24490751 0.08748406 -0.11910116 -0.06233912
-0.27423128 0.027826235 -0.176125 0.24156867 0.29928777 0.06597722 0.31503946 0.094358526
-0.23837043 -0.15133762 0.29509935 -0.29982582 0.021449786 0.16949023 0.010105106 0.12071578

conv1.bias f4 [16]
00000000: e7e6 7f3e c872 603e d3df 99be 46ae 163e
00000010: 17f9 6ebe cbfc ee3d 902d 6c3e 3d5d 2b3e
00000020: f2fc 54be c176 493e dded 47be 56a0 49be
00000030: eb05 f4bc c102 d0bd 1630 dabd 5bce 26be
0.24990426 0.21918786 -0.30053577 0.14714918 -0.23337208 0.1166931 0.23064256 0.16734786
-0.20799616 0.19674207 -0.19524331 -0.1969007 -0.029787978 -0.10156775 -0.10653703 -0.16289656

conv2.weight f4 [32, 16, 3, 3]
00000000: 4009 173d e84d 993c 5b2c 19bc b188 8a3d
00000010: a610 babc 6588 a6bd eed6 b73c 2d6e 803d
00000020: 74b8 993d f779 65bd 2048 8e3d f6c2 26bd
00000030: 63bb 9cbd 850e 753d 8ad9 37bd f3c0 813d
00000040: 5be0 81bd af55 d5bc 357a 9cbd af10 2c3d
00000050: c542 f9bb ed47 1bbd c4f5 703d a0e3 8bbd
00000060: 5aad 1b3d 778c 343d a57d 7ebd b74d 22bc
00000070: 0721 8dbd 5744 03bd 232f 9f3d ada3 84bc
00000080: 4b0d 473d f6c1 0bbc 98f9 b4bc 00d7 8d3d
00000090: fb01 4f3d 0f64 973c d8fd a03d 988c 9d3c
000000a0: 7141 073c aef7 893c 3128 64bd bb61 d0bc
000000b0: 559e fc3c 05fa 9abd 9695 943d 6f58 983d
000000c0: 6386 9c3c ca35 9cbd 8afd 613d 2554 103d
000000d0: fb25 e73b 068b 2bbd 725f d63a d2de 963a
000000e0: b3e1 283d d84e 0abd b32f d93c 29c8 a8bd
000000f0: 0ad9 063c 9dd5 133d 1104 293d 8844 b63c
00000100: baad 9b3d b0a5 a0bd 64e1 963d 9f6d 9dbc
00000110: 3c87 8b3c 9dd8 a73d ce0c b83b 7aaa 643d
00000120: 4a6f 2c3c dca3 123d 3301 97bd 8167 fdbc
00000130: 8f45 a13d 0e94 72bd 859c 253d e374 8cbd
00000140: abd6 80bd ef38 863d 398c 223d 6d3b edbb
00000150: 8f55 0cbd 24d9 acbc 6914 e63c 60e9 8bbd
00000160: a3ec 9ebc e820 293d 3358 4a3d bd4c 49bd
00000170: 384d 213d 135c a13d c03e 54bd 1064 85bc
00000180: da9d aabb 88d4 f03c 380c 883d 5ccf 20bc
00000190: c0e1 80bd e6eb f33c ee8e 37bd 9136 b23c
000001a0: b831 963d dea6 aebc 4bd7 de3c 5cd7 f53c
000001b0: 74b0 903d b7c6 e43c 91eb 17bd c2d0 71ba
000001c0: 6215 52bd 6e81 723d 460d cbbc 2787 f0bc
000001d0: 7798 a5bc c249 0abd 01cd b7bc 13d9 3abb
000001e0: abec c63c e4c5 83bb bdef c8bc f05c bebc
000001f0: c76e 2f3d 849d 83bd 12e1 09bd fac9 343c
00000200: 7937 d2bc 16a4 88bc 1266 50bb cc8d edbb
00000210: b0a0 9c3d 9718 9abd 44cc 3d3d 4c4b 10bd
00000220: a144 a6bc adcb 783d b60b b93c 3e18 21bd
00000230: d1e8 b03b 7895 5d3d 142c cf3c b1fc 513d
00000240: bf3e 143d 98f8 393d 4896 333d 5af9 4bbd
00000250: f076 0cbc 7c2b a33c a990 fd3b 6288 1cbd
00000260: 5f05 9cbd db5e 273d 7ef0 f5bc 18da 3ebd
00000270: dd3e ce3c 0368 31b9 5b68 4ebd af04 763d
00000280: 5d6e 923d e8d3 093c dba9 a43c e0a1 893d
00000290: 0f52 a83d dd36 e43b dc3b 79bd 1a8f 4cbb
000002a0: 253c fcbc 739b 7abd 7172 2b3d 0cfc 973c
000002b0: 5361 95bd e08f 883d 736a 2f3d b72c 4d3c
000002c0: 5ed5 91bd 424f a33d 3c39 b33b 3d76 6d3d
000002d0: afb6 433b 04f7 8ebc 0e62 583d 0720 5bbd
000002e0: 4c10 5b3c c960 39bd 2f15 233c 5479 ea3c
000002f0: 763d 63bd 2b23 05bd ebd2 583b c639 27bc
00000300: 8ceb 0cbd 814e 7a3d 4809 23bd 8b14 003d
00000310: 26b3 a6bd f182 6a3c 2e0b 993d 91a8 713c
00000320: e566 743d b3e4 b73b b4ef 48bd e22b 883d
00000330: 9fd2 14bd 6d23 9d3d b496 5bbd 7bfc 80bb
00000340: 5d97 a9bc 166a 3bbd b537 9abd d7b1 623d
00000350: 226b 70bc 2f4c a33d b2f0 363d 69a1 ec3c
00000360: 82b6 0cbd a6f8 8dbd 6b35 ccbc 698c 2a3d
00000370: c272 8fbd 5d82 1bbc 73d4 0dbd 0a1d 36bd
00000380: a835 81bd 0bdf 51bb 3d5a 703d c34b a43d
00000390: 09dc a93d c5f7 713d 6f7a a3bd 5743 a63d
000003a0: e729 8bbc c2f0 4c3d 5eb0 963c 9b4e f6bc
000003b0: 2506 8b3d d636 0b3d 89af 04bc 2ff6 ae3c
000003c0: 47ed 58bd cb9e 8dbc 766b 033c 9c38 9f3c
000003d0: 588b 00bb d7ba 77bd f048 e33c 7072 25bc
000003e0: bf39 46bd 229f 9ebd 0c43 813c 7db8 45bd
000003f0: 0fe1 ab3d 9a37 9abd c941 2a3c 6fd5 883d
0.036874056 0.018713906 -0.009348954 0.06764353 -0.022713017 -0.08131484 0.022441354 0.06271014
0.07505885 -0.056024518 0.069473505 -0.040713273 -0.07652929 0.0598283 -0.044885196 0.0633563
-0.063416205 -0.026041834 -0.07640497 0.0420081 -0.0076068365 -0.03791039 0.05882813 -0.068305254
0.038007118 0.04407927 -0.062131543 -0.009906224 -0.06891065 -0.032047596 0.077726625 -0.016191328
0.04859666 -0.008530131 -0.022091672 0.069257736 0.050538998 0.018480329 0.07860917 0.01923208
0.008255349 0.016841736 -0.055702392 -0.025437227 0.030837217 -0.07567219 0.07255094 0.07438742
0.01910705 -0.07627447 0.055173434 0.035236496 0.007054088 -0.04188063 0.0016355349 0.0011510497
0.04123087 -0.033766598 0.026512003 -0.082413025 0.008230457 0.03609239 0.041263644 0.022249475
0.07601495 -0.078441024 0.073672086 -0.01921731 0.017032258 0.081956126 0.005616761 0.05582664
0.01052458 0.0358008 -0.073732756 -0.030933144 0.078745954 -0.059223227 0.04043247 -0.06858232
-0.06290945 0.06553828 0.039684508 -0.00723975 -0.034261283 -0.021099634 0.028085904 -0.06831622
-0.019399947 0.041291147 0.04940052 -0.04914545 0.039380282 0.0787889 -0.051817656 -0.016283065
-0.0052068057 0.029398218 0.066429555 -0.009815063 -0.062930584 0.029775571 -0.044814043 0.021754535
0.07333702 -0.021319803 0.027202269 0.030009918 0.07064906 0.027926786 -0.037089888 -0.0009224528
-0.051289923 0.059205465 -0.024786603 -0.02936132 -0.020214302 -0.033761747 -0.02243662 -0.0028510734
0.024282774 -0.004021393 -0.024528379 -0.023237675 0.042830255 -0.06426528 -0.03366191 0.011034483
-0.025661217 -0.016679805 -0.003179912 -0.0072495695 0.07647836 -0.075242214 0.04633738 -0.03522806
-0.020296397 0.060741115 0.022588592 -0.03932976 0.0053988476 0.054097623 0.025289573 0.051266376
0.03619265 0.045403093 0.04384449 -0.049798347 -0.008573279 0.019918196 0.007738192 -0.038216002
-0.07618212 0.040861946 -0.030021902 -0.04659471 0.02517646 -0.00016918783 -0.05039249 0.06006306
0.071499564 0.008412339 0.020100525 0.06720328 0.082187764 0.006964548 -0.060848102 -0.0031213225
-0.030790398 -0.061183404 0.041857187 0.018552803 -0.07293954 0.06668067 0.042826127 0.012522868
-0.07120775 0.079741016 0.0054694694 0.05797409 0.0029863527 -0.01745177 0.052827887 -0.05349734
0.013370585 -0.045258317 0.009953781 0.028622307 -0.055478536 -0.032504242 0.0033084701 -0.010206645
-0.034404323 0.061110023 -0.039803773 0.03126959 -0.081396386 0.014313445 0.074728355 0.014749662
0.05966844 0.00561198 -0.049056724 0.06648995 -0.036333676 0.076727726 -0.05361052 -0.003936348
-0.020702058 -0.04575547 -0.075301565 0.055345383 -0.01467398 0.07973515 0.04466314 0.02888556
-0.03435374 -0.069321916 -0.024927815 0.04163781 -0.0700431 -0.00949153 -0.034626435 -0.044461288
-0.06309062 -0.0032023813 0.058679808 0.08022263 0.082939215 0.059074182 -0.07982337 0.08118313
-0.016987754 0.050034292 0.018394645 -0.030066779 0.06788281 0.033987843 -0.0080984915 0.021357624
-0.05296066 -0.017287632 0.008021226 0.019436173 -0.0019614305 -0.06048092 0.02774474 -0.010098085
-0.048394915 -0.07745196 0.01577904 -0.048271645 0.08392536 -0.075301364 0.010391661 0.06681334

conv2.bias f4 [32]
00000000: d2b8 65bd ec7e 99bd 162b 5b3c f858 6cbd
00000010: 6c21 ccbc ccc4 933d c65e 5dbd 31a9 933d
00000020: b06c 733d 6c01 2fbd a26a 9e3c 7bba f63c
00000030: c7f1 db3c 407d 6b3d 3f77 acbc 814b 9a3d
00000040: 7ece 893d 4b99 88bd 701a 97bd 2f7c 523d
00000050: 052c 763c 5ac2 9ebd ba3f 403d 9d00 233d
00000060: 5159 893d b623 81bd 3ea1 35bc d5dc a4bd
00000070: 71dc 313d de24 823d f218 103d 5868 2ebd
-0.05608446 -0.074949116 0.013376972 -0.057702035 -0.02491828 0.072152704 -0.05404546 0.07210005
0.059429824 -0.042725965 0.019337956 0.030118218 0.026848687 0.057492495 -0.021052955 0.075339325
0.067288384 -0.06669863 -0.073780894 0.051387962 0.0150251435 -0.07751913 0.046935774 0.039795507
0.06706489 -0.063056394 -0.011085806 -0.08049933 0.04342312 0.06354688 0.03518004 -0.04257998

fc1.weight f4 [128, 800]
00000000: 9576 15bc 469b a93c 8b7c f9bc 5429 b3bb
00000010: ae3f 843b 2996 563c 58ee 2abc 736f e13c
00000020: 044b e23b 4312 cf3a 0fe0 ed3a 824f e3ba
00000030: 2977 06bc c8d9 dabc d2b0 98bb f4d6 07bd
00000040: 1f33 88bc 40c0 133c 0ab2 fe3c 4209 09bd
00000050: 76f9 1e3c d5fa abb9 f457 973c ea62 a0bb
00000060: f7ca fabc cf77 dcbb 05b0 0bbd 16c7 c93b
00000070: 791e e3bb f267 0bbd 0401 1f3c e73b 203c
00000080: 4be9 863c d9e5 2b3c c9a2 a83b 5920 c1bb
00000090: 7a2b 203b ed05 55bb 060e 053b c3cf d2bc
000000a0: 0e7a 17bc 76e2 a53c aa9e 22bb 29a4 c93c
000000b0: d4d5 7a3c 39d5 1dbb f83b 83bc 24a6 9d3c
000000c0: 16a1 ff3b b40b dfbb 7f10 2ebc ef4a 05bd
000000d0: 5b29 05bd 7108 e5bc 38ed 0abb ff0e c03c
000000e0: 4887 6125 a7e7 94bc 294d d6bc 650b b03c
000000f0: bd40 023d 311c 4abc be7c 65bc efdf 3c3c
00000100: 0ba6 283b c590 993c 5fbc 2e3c df1a 823c
00000110: f168 b3bc af36 43bb dc75 c83c f125 b9bc
00000120: 45ec 3d3c 7817 ea3c d2c5 dcbc df77 383c
00000130: 6a95 63ba 28d4 c83c 504e 083d f5a5 a23c
00000140: c445 3a3c 210e 48bc 8555 0b3d 9311 d53b
00000150: 3aef f43c d663 83bc 3f9d 98bb f614 4a3c
00000160: 0915 4cbc 7a7a c23c ac38 57bc af04 33ba
00000170: 58e4 febc c65e 14bc db77 03bd 8b1b 39bc
00000180: 1d03 993c d641 653c 0c22 0abc e09d 02bd
00000190: b66c 35bc 6285 a2bc 06d6 b7bb ad8d 8eba
000001a0: abd7 48bc 969f 003c d1ff 3cbc 037d 983c
000001b0: 57d2 b2bc d8de 063d bcc9 43bc ec1b 37b8
000001c0: 7a33 303c 1f99 bb3c 3a07 a73c f071 b5bc
000001d0: 6a4e b63c db0f 0dba 98f6 c93c 2ef2 f53c
000001e0: d381 153c 5ce8 c93b 20f8 f9bc 2e64 cd3c
000001f0: 6d6b 9d3c 1b48 453c bd23 91bc dd57 e9bc
00000200: 0789 f7bc 6b53 133c 46d4 053d 8816 083d
00000210: 55fd 5d3c 07e3 c4bc 777c c2bc 8a8a d13b
00000220: 94ae f33a a315 0bbd f93e cbbc b50d 05bc
00000230: ea02 6bbb 0e12 083d f546 c53b a2a8 c5bc
00000240: aad4 043d d4d3 92ba 4e13 43bb 8fec ca3c
00000250: 1a8f a23c cd50 ca3c 43c5 5739 0a13 843c
00000260: 441c c0bc 6a7f 79bb 9960 e4bc 9836 f63c
00000270: 6904 61bc d0ed 1c3c bbdb 133c aec3 e9bb
00000280: 1e0d 0dbd 67a4 063d ed39 593c a491 513b
00000290: 6906 d23c 7783 b63c 6d77 23ba c980 033d
000002a0: db56 043d 9c36 fb3c 2968 c0bc c7f6 213c
000002b0: 3f96 d6bb 68b3 11bd 7555 c4bc 36ed 11bc
000002c0: 840e fc3c bf5e 13bc 00f5 483b 50f4 b0bc
000002d0: 3c8e b3ba 54d8 333c 57e5 10bd 0566 023c
000002e0: 1dc1 7fbc c893 a7bc 3b5c 803c bb31 f2bc
000002f0: 62e3 a3bc a40c efbc 4a7b 86bc 6dc4 503c
00000300: e002 8f3c 5251 c7bc 78c4 76b9 67ec 9dba
00000310: 8855 07bd 4a44 0bbd 2812 f03c 8d6f e73c
00000320: 5ca9 493c 982e bd3c cc11 c43c d90e 6f3c
00000330: 90c2 efbc d6fe ebbc 62b7 963c 162c 0f3c
00000340: e57a a9bc 65bb b7bb 38bc dc3b 9f65 c83b
00000350: bf1d 35bb 5781 ab3a 82de fb3c 2f0e 13bd
00000360: 8e43 e93b b2e8 e03b fde0 12bd cb59 bf3c
00000370: 61e6 f4bc 019e 6e3c f368 7fbc 9afd f8bc
00000380: 41b6 07bc 3ef1 eabc faab d5bc eefd b6ba
00000390: 5cb1 f2bc eba5 11bd e8cf 093c 6a01 dcbc
000003a0: 88bf 02bd 0fc8 87bb 9b5a 4dbc d7f4 71bc
000003b0: 3f0a a13a 8cbb b9ba 74e8 fc3c 258f f6bb
000003c0: d8c8 473c 83d3 89bc 2ec5 debc 32f0 a33c
000003d0: 700c 423c 6623 72bb 8cc8 67bc bcb3 b03c
000003e0: ea97 0bbd b8a3 32bc c420 073c 8924 983c
000003f0: 8240 fb3c 9c12 263b e18f 813b 9b45 8fbc
-0.00912251 0.020703923 -0.030454895 -0.005467573 0.0040359115 0.013097324 -0.010432802 0.027518963
0.006905915 0.0015798289 0.001814844 -0.0017342421 -0.008207121 -0.026715174 -0.0046597505 -0.03316398
-0.016625939 0.009018004 0.031090755 -0.033456095 0.009703031 -0.00032802546 0.018474557 -0.004894604
-0.03061436 -0.0067281495 -0.034103412 0.006157766 -0.006931123 -0.034034677 0.009704832 0.009779907
0.016468665 0.010491812 0.0051463586 -0.0058937487 0.0024439977 -0.0032504753 0.0020302548 -0.025733834
-0.009245409 0.020249587 -0.002481381 0.02461441 0.01530977 -0.002408339 -0.016019806 0.019244261
0.0078011854 -0.006806815 -0.01062405 -0.032542165 -0.032510143 -0.027958127 -0.0021198522 0.02344465
1.9561474e-16 -0.018176867 -0.02615984 0.021489808 0.03180002 -0.012335823 -0.014006792 0.011527999
0.0025733735 0.01874579 0.010665028 0.015881954 -0.021900626 -0.0029787233 0.024470262 -0.0226011
0.011591976 0.028575644 -0.026949797 0.011259048 -0.0008681627 0.024515226 0.03327781 0.019854525
0.0113691725 -0.0122104 0.034017105 0.006502339 0.029899228 -0.016038816 -0.004657417 0.012334099
-0.012456187 0.023740042 -0.01313607 -0.0006829006 -0.031114742 -0.009055799 -0.032096725 -0.011298071
0.018678242 0.013992747 -0.008430969 -0.031888843 -0.011073282 -0.019838993 -0.0056102304 -0.0010875963
-0.0122584505 0.007850548 -0.011535601 0.018614298 -0.021828813 0.032927364 -0.011949953 -4.3656604e-05
0.0107544605 0.022900162 0.020389188 -0.022149056 0.022254188 -0.0005381086 0.024653718 0.030022707
0.009125191 0.0061617326 -0.030513823 0.025072183 0.019216264 0.012041117 -0.017717237 -0.02848428
-0.030216707 0.008992056 0.032673143 0.033224612 0.013549169 -0.024034036 -0.02374099 0.006394689
0.0018591457 -0.03395618 -0.024810301 -0.008120944 -0.0035859891 0.033220343 0.0060204216 -0.024128262
0.032429375 -0.0011202046 -0.0029766145 0.024771003 0.019843627 0.024696732 0.00020577484 0.01612236
-0.023450978 -0.003807033 -0.027878093 0.03005533 -0.013733962 0.009578183 0.009024556 -0.0071339225
-0.034436338 0.03287163 0.0132584395 0.0031977678 0.025637822 0.022279484 -0.00062357524 0.03210524
0.032309394 0.030665688 -0.023487167 0.009885496 -0.0065486724 -0.035571486 -0.02396653 -0.008906653
0.03076864 -0.008994757 0.003066361 -0.021600872 -0.0013699005 0.01097687 -0.035374966 0.007958894
-0.015610007 -0.02045621 0.015668979 -0.029564729 -0.020005886 -0.029180832 -0.01641621 0.012742144
0.017457426 -0.024330769 -0.00023533578 -0.0012048603 -0.033040553 -0.034000672 0.029305533 0.028251434
0.012308445 0.023093507 0.023934267 0.014590942 -0.02926758 -0.028808039 0.01839799 0.008738538
-0.020688483 -0.005607056 0.0067363046 0.00611563 -0.0027636138 0.0013084811 0.030745748 -0.0359022
0.007118649 0.006863677 -0.035859097 0.023358246 -0.02989501 0.014564038 -0.015588987 -0.030394364
-0.008283199 -0.028679486 -0.026082981 -0.0013961175 -0.029625587 -0.035558622 0.008411385 -0.026856143
-0.03192094 -0.004143722 -0.012533809 -0.014767847 0.0012286379 -0.0014170273 0.030872561 -0.0075243884
0.012193881 -0.01682449 -0.027193632 0.020011995 0.011843786 -0.0036947369 -0.014146935 0.021570079
-0.034080423 -0.010903291 0.008247558 0.018572109 0.030670408 0.0025340682 0.0039539193 -0.017489245

fc1.bias f4 [128]
00000000: 43d5 94bc f2d4 e4bc f304 5abc 0375 ac3c
00000010: fec1 f93b 1ef5 56bc 32e5 8b3c e0f5 edbc
00000020: 194b 6c3c 2eeb b33b 2e57 0bbd 0c47 c5bb
00000030: d1c1 93ba 6244 93bb b6a4 e8bb a23a 94bc
00000040: a68d 2a3c 961a b7bc c875 ce3c 295b 8abc
00000050: beda 63bb ae00 d1bc d0a3 f03c b88f f13b
00000060: 7b60 d23c 63ec f1bc 935f e7bc c9cf b43b
00000070: 98d0 cd3c 5fee de3c 4c6c e7bc ba54 903c
00000080: a958 3e3c 8f22 c336 2085 fabb 23e1 413a
00000090: d9ac 983c 7721 d0bb 3c06 063b c466 943b
000000a0: e8db f23c 1bb8 8a3b 46ab dfbc 52ab 6cba
000000b0: bffa 5ebc 057b 583c b851 6abc 65e1 8cbc
000000c0: 8888 003d e743 6abc 47f7 9fb9 2887 d03b
000000d0: 993c 1e3c 20e1 82bb f7bc 28bc c5c6 d83c
000000e0: 9423 893c 2d15 043d 781a 74bc 3a94 063c
000000f0: 92ed ff3c ba5e 5e3c 8b1d d53b 0d0f 0e3c
00000100: 5cad f6bb 0af4 d1bc 2476 9c3b 1349 043d
00000110: 189a be3c f6b0 c6bb 423a 53bb 1ba3 bfba
00000120: 1e39 51bc b964 aa3c d2e0 cf3c 72cd 3abc
00000130: b0e8 bc3b a11a 533c eaaa 8abc 0945 593c
00000140: 73dd eebc b875 6a3c d80f c53b 9a7c d53c
00000150: 41a1 ccbc 73f2 883c 62a9 51bc 613b 283b
00000160: 79c9 c93b b2df 98bc e054 093d 0913 9a39
00000170: 38f5 5e3c 5f90 2abc 14df b4bc 7b0a 2dbc
00000180: 0769 463c ab96 293c 865d d1bc f98f 953c
00000190: b826 84bc 0bc8 bb3c b182 48bb 0384 683c
000001a0: 13bc dd3c 8797 8492 46e6 27bc 7740 fcbb
000001b0: c862 f3bc 1244 58bb 795d 0dbc c3bc ea3c
000001c0: 3a0f a1bc 2b3b c4bc 59b1 263b 7282 c4bc
000001d0: 002f b5bc 042d 37bc 9e83 0d3d b997 9dbb
000001e0: f1c4 ae3b dbbb 083d bcb5 8fbb 98d0 d53c
000001f0: c161 4dbc 8fec 4bbc d01a 593c 3a54 0c3c
-0.018168097 -0.027933571 -0.013306844 0.02105189 0.0076220026 -0.013119964 0.017077062 -0.029047906
0.014422202 0.005490682 -0.034018688 -0.0060204323 -0.0011272972 -0.004494236 -0.007099713 -0.018094365
0.010409748 -0.022351544 0.025202647 -0.016889172 -0.0034767832 -0.02551302 0.029374987 0.007371869
0.025680771 -0.029531663 -0.028243816 0.005517934 0.02512388 0.027213274 -0.028249882 0.017618526
0.011617818 5.815476e-06 -0.0076452643 0.00073959137 0.018637108 -0.0063516456 0.0020450493 0.004528852
0.029645875 0.004233373 -0.02730335 -0.0009028214 -0.013609587 0.013212924 -0.01430171 -0.01719732
0.031380206 -0.014298416 -0.0003051108 0.006363768 0.009658002 -0.003994122 -0.010298959 0.026461968
0.016740598 0.032246757 -0.014898889 0.008214051 0.031241212 0.013572389 0.006503766 0.008670581
-0.0075279903 -0.025629062 0.0047748256 0.03229625 0.023266837 -0.006063576 -0.003223077 -0.0014620753
-0.012769965 0.020799981 0.025375757 -0.011401521 0.005765043 0.012884767 -0.016927201 0.013261088
-0.02915833 0.014310293 0.0060138516 0.026060391 -0.024979236 0.016717171 -0.012796732 0.0025670158
0.0061580506 -0.018661354 0.03352821 0.0002938735 0.013608269 -0.010410397 -0.022079028 -0.010561581
0.012110001 0.010350863 -0.02555729 0.018257128 -0.016131744 0.022922536 -0.0030595476 0.01419163
0.02706722 -8.367726e-28 -0.010247773 -0.0076981145 -0.029710189 -0.0032999557 -0.008628243 0.028654462
-0.01966058 -0.023953995 0.0025435297 -0.023987982 -0.022117138 -0.011180166 0.034549348 -0.0048093465
0.005333536 0.033382278 -0.004385678 0.026100442 -0.012535513 -0.012446537 0.0132510215 0.008565003

fc2.weight f4 [60, 128]
00000000: a6cc 303d 272a e5bc 0bb6 b7bd 496d 273d
00000010: 7651 3c3d 6643 ef3c e77d e7bb 660f 803b
00000020: 16e1 9a3d a638 9cbd 8533 163d 3597 653d
00000030: 9e46 073d 7d67 0cbd 391d 8fbd 9812 f83c
00000040: 8c92 2d3d 61a7 be3c 7d1d 383d 8de7 54bd
00000050: 60a3 073d 4272 863c b786 0c3d 41d6 a83b
00000060: 1dbf d13c e595 15bd 7a0d 973d d6ad a1bd
00000070: 174c 8f3d 410f 61bd 11c1 dabc 1ad0 983d
00000080: 193f 81bd f3a5 a13d 8ca3 5ebd c095 2a3d
00000090: 6d29 5d3d e549 febb dc3b 9fbd 9530 8fbd
000000a0: df42 aebd 72ad 7fbd d4dd 4dbd 9f5a bd3a
000000b0: 03bb a53d 48c2 70bd bac9 37bd 59f4 67bd
000000c0: 4170 8e3d 3e61 4dbc 5f8a 2a3b 7be9 883d
000000d0: 9c1e 9ebd f308 a6bd 6caf 53bd 367b c8bc
000000e0: e6d3 493d 48d9 903d 7e1b 2abd 947c 4e3d
000000f0: 66f5 2d3c a2da b83c 136c 743c 6854 a2bd
00000100: 4a8d 913d ce14 9ebc 93a8 4e3d f908 1e3d
00000110: a344 853d 4b34 813d 8822 903d e0dd 8f3d
00000120: 666d 1e3d 88e7 773d eb6a 01bd a678 913d
00000130: 385a 823b 718a ccbc 48f3 a73b 55c4 613d
00000140: 5638 453d 76a4 8b3d 8704 aa3d 6481 4e3c
00000150: 076a 8cbd 048b 6abb f1a6 e73b 2208 fbbc
00000160: 1cb6 a5bd a965 3bbd 5f7e a03d ccfc 3abb
00000170: f754 8cbd c796 e03c d043 9ebc 9652 773d
00000180: f97f 3d3d 12c5 1f3b 3b3f 2cbd a195 57bc
00000190: de6b 8cbd 5abe 93bd 9386 783d 5d50 09bd
000001a0: b61e 8d3d 2c0c 43bd f914 a3bb 4f17 8f3c
000001b0: 1943 74bd 4527 0fbd 7f66 763c ab8c 8c3c
000001c0: bd7e c83c 201e b1bc 8dd8 773d e10b 793d
000001d0: ed95 50bd 27cf 863d 750f 223b 00f0 44bd
000001e0: 1b4b 9bbc dab6 1c3d d47e 963c cf82 a53d
000001f0: 884b 9abd bc3d a13d 81ca 8cbd acfa a6bc
00000200: db4c 4b3c 6969 b53d b749 97bc 1a76 b1bc
00000210: 09ee c3bc a1c4 5c3d 270e 463d 82d7 00bd
00000220: 8bdf 583d d96e a9bd cf99 a8bd 1f69 4abd
00000230: bdd9 9cbd 275e 8c3d 00a6 463c dfe2 153d
00000240: be00 65bd 005f a2bd e858 4e3d f7ea 2abd
00000250: a5c7 3dbd 3dce bc3c c3eb 393d 207f 273d
00000260: 0972 47bd 0dda 0d3d e7c7 fdba b9a2 d1bc
00000270: fd53 1ebc 79ad 2b3c 2821 6abc 3060 74bc
00000280: 3c3c 093d 3c20 babc 7d10 0dbd dd54 a23d
00000290: 4fa5 6d3d 34fc b2bd bde7 3b3d c2d4 f43b
000002a0: 316b 063c 8735 27bd 19bd b7bc 11de fcbc
000002b0: a774 adbc fa37 95bd e60c d73c f12f c8bc
000002c0: 93af 423d cf64 d7bc 14a8 7c3d 776a 70bd
000002d0: 56ad 60bc c2e1 23bd c3b1 b4bc f1ba 5a3d
000002e0: af30 a4bd 1e28 a53d 4629 dfbc 2718 b23d
000002f0: 2fb2 abbc 8d12 35bd 3d9b 683d 2843 72bd
00000300: 5cf6 1b3d 0370 acbd 03b7 97bd 9b06 72bb
00000310: 2324 11bd c3c6 473c 25a7 6ebc ede0 22bd
00000320: da32 b2bd 2334 843c 07a7 7a3d ce76 38bd
00000330: 823c f8bb 8a2d afbd 9113 0e3c e267 0e3d
00000340: 3e6d 553d 5061 53bd fa9a 7d3d 741c 633d
00000350: e68d 74bc 8172 93bd 6c9b 863d 3990 033d
00000360: 91a8 a7bd ecb6 bc3b 3c22 a53d e57a 123c
00000370: af85 813d 9285 ae3d 4759 853d 0517 96bd
00000380: 826f 163d e62c b03d 910c c73c a568 3fbd
00000390: a5a7 8d3d 0d32 8ebc 5748 b0bd d617 8a3d
000003a0: a663 97bd 9916 983d 7406 083d 38ca c73c
000003b0: b732 323c 642e 113d 6615 7abd 5e29 273d
000003c0: c207 7d3d 8fe1 543a a693 52bc d0a0 3a3d
000003d0: eb9b 16bd 8fd8 a3bd b4bf 653d fec8 c6bc
000003e0: 2065 bb3c ae3b 80bc bb18 85bd ad93 9fbd
000003f0: 55a2 83bd d934 803c ccfe 0f3d 6892 88bd
0.043163918 -0.027974201 -0.08970269 0.040875707 0.045976125 0.029206943 -0.0070645693 0.0039080856
0.07562463 -0.07627992 0.036670227 0.056052405 0.03302633 -0.03427838 -0.06987996 0.030282304
0.042376086 0.023273172 0.044949997 -0.051978637 0.03311479 0.016411904 0.03430816 0.005152494
0.025603825 -0.036519904 0.07375617 -0.07894485 0.06996935 -0.054946188 -0.02670339 0.07461567
-0.06310863 0.078929804 -0.05435519 0.04164672 0.053994585 -0.0077602738 -0.07775089 -0.06991688
-0.085088484 -0.06242127 -0.05026038 0.0014446563 0.0809231 -0.05877903 -0.044870116 -0.056629512
0.069550045 -0.012535391 0.0026022417 0.06685158 -0.07720682 -0.08107176 -0.051680967 -0.024472814
0.049274348 0.07072693 -0.041530125 0.050411776 0.01061759 0.02256519 0.014918345 -0.079262555
0.07107027 -0.01929703 0.050453734 0.038582776 0.06507232 0.06308802 0.07037836 0.07024741
0.03867855 0.06052354 -0.031596106 0.0710309 0.00397804 -0.024968358 0.005125437 0.055118877
0.04814943 0.06818478 0.08301645 0.012604091 -0.068561606 -0.0035788426 0.0070694615 -0.030643526
-0.08091375 -0.045751248 0.078366034 -0.0028532026 -0.06852143 0.027415646 -0.019319445 0.060381494
0.046264622 0.0024378938 -0.04205249 -0.013158233 -0.068565115 -0.07214041 0.060675215 -0.033523906
0.06890623 -0.04761903 -0.0049768654 0.01746717 -0.0596343 -0.03494956 0.015039085 0.01715692
0.024474496 -0.02162081 0.060509253 0.060802344 -0.05092423 0.0658248 0.0024728451 -0.048080444
-0.018956712 0.03826032 0.018371023 0.080815904 -0.07533938 0.07873103 -0.06874562 -0.020383202
0.0124084605 0.08857996 -0.018467767 -0.02166276 -0.023917215 0.053898457 0.04835334 -0.031455524
0.052947562 -0.08273096 -0.08232462 -0.049416658 -0.07658718 0.06853896 0.012124538 0.036593314
-0.05590891 -0.07928276 0.050377756 -0.041727986 -0.046332974 0.02304756 0.045390856 0.04089272
-0.048692737 0.034631778 -0.0019361944 -0.025590288 -0.009663579 0.010478371 -0.014290132 -0.014915511
0.03350471 -0.022720449 -0.034439553 0.07926343 0.05801898 -0.0873951 0.0458753 0.007471652
0.008204267 -0.040822532 -0.022429036 -0.030867608 -0.021173788 -0.07286067 0.026251268 -0.024436923
0.047530722 -0.026293186 0.06168373 -0.058695283 -0.0137132015 -0.04001022 -0.02205742 0.053400937
-0.08017098 0.08064292 -0.02724136 0.08696013 -0.020958988 -0.044207145 0.05678867 -0.059146076
0.038076743 -0.08419802 -0.074079536 -0.0036930207 -0.035434853 0.012193385 -0.014566218 -0.039765287
-0.087011054 0.016138142 0.061194446 -0.045035176 -0.0075755725 -0.08553608 0.008671657 0.03476704
0.052106135 -0.051606476 0.061915375 0.055447057 -0.014926409 -0.07199574 0.06572613 0.032119963
-0.08186448 0.0057591107 0.0806317 0.008940433 0.06324326 0.0852157 0.06511169 -0.073286094
0.036727436 0.08602314 0.024297984 -0.046730656 0.06916741 -0.01735785 -0.08607548 0.067428276
-0.07392053 0.07426185 0.03320928 0.024388418 0.010876349 0.035444632 -0.061055563 0.040810935
0.061774977 0.0008120769 -0.012852585 0.04556352 -0.03676979 -0.0800029 0.056091025 -0.024265762
0.022875369 -0.015653457 -0.064988576 -0.07791839 -0.06427447 0.0156502 0.035155103 -0.0666855

fc2.bias f4 [60]
00000000: bee4 45bd 023e 993d 2944 6b3d 3651 a83d
00000010: 848a 9cbc 216c 3e3d 3d40 c4bc e554 1f3c
00000020: 9808 8a3d dfd6 9dbd fb41 14bc 833e cfbc
00000030: 680a a8bd 4a18 a7bc 5557 163c b5fb 30bd
00000040: 0a2a 08bc 24dd a9bd 99bb 953d 8bc7 983d
00000050: 23ad 853d f8f5 c23c b127 9fbc 679d 3abc
00000060: 2523 9bbd 67ed abbc a79c 3e3d 6717 83bd
00000070: 9e66 72bd 19c1 a2bd 1e18 93bd 944b 86bc
00000080: 1c06 71bd dc28 ccbc 76c8 84bd cf8a a73c
00000090: a662 3bbd 7bd2 37bd a62b f03a 9bfe 13bd
000000a0: 5f40 7abd f84b 8bbd 44d7 6fbd 2204 9a3c
000000b0: 27ce 0f3d 7266 4f3d 909e 45bc a985 8e3d
000000c0: 02e5 aebd 7a79 a23d 0213 953d 0f01 823b
000000d0: 09c0 f43b 13d8 843c 6d70 98bd 2792 153d
000000e0: ebdf a73d 10cb abbd 84a1 81bd 689c 273d
-0.04831385 0.0748253 0.05743805 0.08218615 -0.019109018 0.04648984 -0.023956412 0.00972483
0.067399204 -0.07706999 -0.009048934 -0.025298363 -0.0820511 -0.020397324 0.009176095 -0.043208797
-0.008310804 -0.08294132 0.07311172 0.07459935 0.06527164 0.023798928 -0.019428106 -0.011390067
-0.07575063 -0.020987226 0.046536114 -0.06400948 -0.059179895 -0.07946987 -0.07182334 -0.01639346
-0.058843717 -0.024921827 -0.064835474 0.020451931 -0.045748375 -0.044878464 0.0018323555 -0.036131483
-0.061096545 -0.06801599 -0.058554903 0.018800799 0.03510871 0.05063481 -0.01206173 0.069590874
-0.085397735 0.07933326 0.07279016 0.0039674114 0.0074691814 0.016216313 -0.074433185 0.036516335
0.08197006 -0.083883405 -0.06329635 0.040920645
