model/全角色/CharacterClassify_400.pth (torch, 463040 bytes, 8 tensors)

conv1.weight f4 [16, 1, 3, 3]
-0.21742125 -0.20655136 0.04083407 -0.11553127 -0.0091603035 0.041045345 0.05656799 0.31188095
-0.26037335 0.058819395 -0.20774063 -0.18575248 0.23668753 -0.24474038 -0.09936152 0.23147872
0.17966628 0.175875 0.32344225 -0.14720495 -0.045980606 0.31412888 0.29676265 -0.30051905
-0.1708437 -0.014592159 -0.27630958 -0.29366133 -0.07932951 -0.30455744 0.2890276 -0.2330052
0.17971498 -0.205969 0.28935206 -0.14775638 0.15830088 0.21189912 0.29040366 0.3110083
-0.29192492 -0.31587833 -0.200339 0.33436736 -0.27189574 0.25804368 -0.10235944 0.11463111
-0.14149311 0.1545484 -0.16098163 -0.04519407 -0.13512188 -0.2576934 -0.14954649 0.04267917
0.32797825 0.3007726 -0.011072608 -0.09701535 0.049098574 -0.16137432 0.008917662 0.18357918
0.24067017 -0.2552143 0.26122677 -0.29253688 0.25359598 -0.21958676 -0.3131556 0.09383605
0.12965773 0.0456026 -0.053812318 0.010510263 -0.18545918 -0.12652765 -0.0004754595 0.050343763
0.32409653 -0.10642298 -0.28353065 0.038043387 0.20391823 -0.13209188 -0.11120329 0.13114566
0.14783023 -0.20096749 -0.020811163 -0.12203428 0.2990882 -0.14026482 -0.24986956 0.26405156
-0.050991364 0.032603204 -0.019990744 0.01652157 -0.2740121 -0.19970606 0.09469105 -0.11358117
0.2267098 -0.21798322 -0.18102622 -0.2580609 0.2965772 -0.29062492 0.0022270957 -0.17659375
-0.32359883 -0.14537068 0.074337274 -0.1270518 -0.27543625 0.3126395 0.18119015 0.206531
-0.15662768 -0.20425738 -0.045586895 0.12923454 0.24733499 0.08992857 -0.11913777 -0.062381472
-0.274298 0.028480653 -0.1755071 0.24209921 0.29886755 0.065503664 0.31446633 0.093850374
-0.23883738 -0.15177318 0.29565394 -0.29925022 0.021856887 0.16906527 0.009592799 0.1199888
00000000: ada3 5ebe 3382 53be a041 273d a99b ecbd
00000010: 1915 16bc 2a1f 283d d6b3 673d dcae 9f3e
00000020: a84f 85be 9bec 703d f6b9 54be e635 3ebe
00000030: 375e 723e 399d 7abe 0d7e cbbd c208 6d3e
00000040: 70fa 373e 9318 343e 399a a53e e5bc 16be
00000050: 2956 3cbd 80d5 a03e 46f1 973e a2dd 99be
00000060: a7f1 2ebe f313 6fbc 7378 8dbe c75a 96be
00000070: 8377 a2bd f4ee 9bbe 6dfb 933e ea98 6ebe
00000080: 3407 383e 8ae9 52be f425 943e 734d 17be
00000090: a019 223e 15fc 583e caaf 943e 7b3c 9f3e
000000a0: 2f77 95be ceba a1be ab25 4dbe 3332 ab3e
000000b0: eb35 8bbe 4d1e 843e d3a1 d1bd b7c3 ea3d
000000c0: 92e3 10be f041 1e3e 5ed8 24be 6b1d 39bd
000000d0: 645d 0abe 64f0 83be b722 19be 5ad0 2e3d
000000e0: c4ec a73e defe 993e e269 35bc fcaf c6bd
000000f0: 961b 493d 4f3f 25be 631b 123c 2efc 3b3e
00000100: 3e72 763e 73ab 82be 84bf 853e 65c7 95be
00000110: 55d7 813e 5adb 60be ee55 a0be 1d2d c03d
00000120: ffc4 043e cbc9 3a3d 4e6a 5cbd 3d33 2c3c
00000130: 03e9 3dbe 7790 01be 1847 f9b9 4335 4e3d
00000140: fbef a53e 4bf4 d9bd ee2a 91be 62d3 1b3d
00000150: f1cf 503e 1843 07be 8dbe e3bd 0c4b 063e
00000160: cf60 173e 6cca 4dbe 2c7c aabc 1ced f9bd
00000170: 1722 993e 95a1 0fbe cedd 7fbe c431 873e
00000180: 52dc 50bd f08a 053d a1c3 a3bc 3e58 873c
00000190: 504b 8cbe bf7f 4cbe 62ed c13d 3f9d e8bd
000001a0: 9d26 683e fe36 5fbe f05e 39be 8f20 84be
000001b0: f7d8 973e cacc 94be 77f4 113b fed4 34be
000001c0: bfae a5be 0ddc 14be 243e 983d de19 02be
000001d0: fb05 8dbe 4912 a03e e989 393e dd7c 533e
000001e0: 0263 20be d928 51be 53b9 3abd 0f56 043e
000001f0: 6245 7d3e 782c b83d 81fe f3bd b783 7fbd
00000200: ca70 8cbe 4250 e93c 22b8 33be dbe8 773e
00000210: 2b05 993e c926 863d bb01 a13e a034 c03d
00000220: c991 74be 6e6a 1bbe f45f 973e 5337 99be
00000230: 370d b33c 721f 2d3e 1d2b 1d3c b0bc f53d

conv1.bias f4 [16]
0.24806769 0.2179699 -0.29842055 0.14564428 -0.23147246 0.11600179 0.22911043 0.16580619
-0.20624986 0.19643001 -0.19339284 -0.1954001 -0.028052028 -0.09994456 -0.10637766 -0.16200607
00000000: 7505 7e3e 8033 5f3e 94ca 98be c623 153e
00000010: 1e07 6dbe 5992 ed3d ed9b 6a3e 19c9 293e
00000020: 2a33 53be f324 493e c608 46be f716 48be
00000030: 5ecd e5bc bcaf ccbd 88dc d9bd ebe4 25be

conv2.weight f4 [32, 16, 3, 3]
0.03733237 0.01944716 -0.008742456 0.06811607 -0.022053156 -0.08058139 0.023472315 0.06360825
0.07582147 -0.05592331 0.069437645 -0.040623005 -0.075778894 0.06058321 -0.043986354 0.064437166
-0.06233526 -0.024983354 -0.07570099 0.042610507 -0.006838102 -0.037845213 0.058853474 -0.068106316
0.03772794 0.043921158 -0.062437944 -0.008964823 -0.06785906 -0.03108445 0.07816249 -0.015789168
0.04908557 -0.007724395 -0.021331431 0.06999752 0.051436864 0.019487852 0.0796182 0.018903695
0.007902305 0.016513117 -0.055964407 -0.025576418 0.030580983 -0.07466275 0.07350505 0.07535437
0.019848628 -0.0754988 0.0559284 0.03479209 0.00660605 -0.042387754 0.0015215134 0.0015773418
0.041620966 -0.034234077 0.025943354 -0.08332265 0.008049116 0.0360862 0.04150471 0.022738352
0.07642063 -0.0778534 0.07379289 -0.018966567 0.017271202 0.081612885 0.005342568 0.055634484
0.010729712 0.036046773 -0.07335495 -0.030369952 0.079111606 -0.058746077 0.040944636 -0.06785007
-0.06202067 0.065986134 0.040500097 -0.0064687966 -0.033703696 -0.020598207 0.028685838 -0.06737099
-0.018483328 0.04191304 0.05029762 -0.04818629 0.040058374 0.07847591 -0.05180114 -0.016420783
-0.005468223 0.02903161 0.06656511 -0.008850716 -0.061931208 0.03071028 -0.044088744 0.02243616
0.07399972 -0.020819558 0.027700359 0.03046182 0.071384735 0.028602535 -0.036296424 -0.0001424196
-0.050536416 0.059861053 -0.02494367 -0.029355282 -0.020190954 -0.0330596 -0.021666516 -0.002075652
0.024216194 -0.0041530035 -0.024648441 -0.022902692 0.043378856 -0.06355971 -0.033158172 0.0115909865
-0.025213137 -0.016216151 -0.0025847428 -0.0065599508 0.077551655 -0.07424936 0.04736792 -0.03471448
-0.019754326 0.061227757 0.022963792 -0.038791366 0.0061566713 0.055092543 0.026203264 0.052084778
0.036314823 0.045508035 0.043911617 -0.049154315 -0.008023814 0.020365532 0.008326237 -0.037637312
-0.075562954 0.04089425 -0.030042116 -0.046592418 0.025091238 -0.00031406913 -0.050591514 0.060379148
0.071805425 0.008783703 0.02032518 0.06737551 0.08236516 0.007880069 -0.05985426 -0.002179614
-0.030491432 -0.060811345 0.04204562 0.018748019 -0.07276418 0.06684462 0.04383782 0.013537455
-0.07021271 0.07985398 0.0056566405 0.058084145 0.003497888 -0.016976165 0.053271923 -0.052359536
0.014559126 -0.044109423 0.010077005 0.028773611 -0.05530938 -0.03233391 0.003441172 -0.010123939
-0.03368989 0.061890516 -0.039019525 0.032133576 -0.08054021 0.015222598 0.0749436 0.014898904
0.059677057 0.006680824 -0.047967765 0.06757032 -0.03595816 0.077110685 -0.053192858 -0.0038697585
-0.020750087 -0.04575947 -0.07437569 0.056226674 -0.013741241 0.08022162 0.04509256 0.029278168
-0.033265967 -0.068231456 -0.023906134 0.041677356 -0.0699697 -0.009481479 -0.035050936 -0.044849057
-0.06335312 -0.003048605 0.05878209 0.0803063 0.083612174 0.059705652 -0.079300694 0.0816803
-0.016433096 0.050583433 0.019014418 -0.029501926 0.06837092 0.035018016 -0.007092522 0.022405874
-0.052563995 -0.01693986 0.008313264 0.019718366 -0.001719375 -0.060254354 0.02846631 -0.009359181
-0.047746938 -0.07723677 0.016020268 -0.04809041 0.08489897 -0.07430723 0.011290815 0.0674775
00000000: d4e9 183d a74f 9f3c 853c 0fbc 7080 8b3d
00000010: d2a8 b4bc db07 a5bd 0349 c03c 0b45 823d
00000020: 4948 9b3d d70f 65bd 5335 8e3d 4f64 26bd
00000030: f731 9bbd 1a26 783d 092b 34bd a2f7 833d
00000040: 4253 7fbd e4a9 ccbc 1f09 9bbd 5b88 2e3d
00000050: 2812 e0bb 9503 1bbd 5710 713d 537b 8bbd
00000060: 9d88 1a3d ace6 333d eebe 7fbd 31e1 12bc
00000070: b1f9 8abd d1a4 febc a813 a03d 4958 81bc
00000080: f30d 493d ec1c fdbb 41bf aebc dc5a 8f3d
00000090: 76af 523d fda4 9f3c de0e a33d ecdb 9a3c
000000a0: ab78 013c 8446 873c ef3a 65bd a385 d1bc
000000b0: f884 fa3c c9e8 98bd d189 963d 6453 9a3d
000000c0: 9799 a23c 1d9f 9abd 2e15 653d 2782 0e3d
000000d0: 9077 d83b c89e 2dbd 856d c73a cfbe ce3a
000000e0: bf7a 2a3d 0839 0cbd 2887 d43c 11a5 aabd
000000f0: 70e0 033c 20cf 133d d800 2a3d c845 ba3c
00000100: 6b82 9c3d 9a71 9fbd ba20 973d c65f 9bbc
00000110: 567c 8d3c a824 a73d b510 af3b fce0 633d
00000120: adcb 2f3c c8a5 133d 1f3b 96bd 68ca f8bc
00000130: 4405 a23d ba9f 70bd 90b5 273d faf4 8abd
00000140: 6309 7ebd bd23 873d 6ee3 253d 33f8 d3bb
00000150: e30c 0abd 92bd a8bc 90fe ea3c cdf9 89bd
00000160: 596a 97bc 02ad 2b3d e104 4e3d fd5e 45bd
00000170: 4014 243d fab7 a03d 6f2d 54bd e184 86bc
00000180: c72e b3bb b3d3 ed3c 4a53 883d 9802 11bc
00000190: 94ab 7dbd 2094 fb3c 6696 34bd 0acc b73c
000001a0: 2a8d 973d c78d aabc ddeb e23c 118b f93c
000001b0: 2932 923d dd4f ea3c 8fab 14bd 7856 15b9
000001c0: 46ff 4ebd dd30 753d ab56 ccbc 7d7a f0bc
000001d0: 8067 a5bc 8169 07bd fa7d b1bc a907 08bb
000001e0: 0a61 c63c eb15 88bb 87eb c9bc 6d9e bbbc
000001f0: 07ae 313d 982b 82bd ddd0 07bd 1fe8 3d3c
00000200: c88b cebc bcd7 84bc ca64 29bb dbf4 d6bb
00000210: 67d3 9e3d 0c10 98bd dd04 423d c530 0ebd
00000220: d3d3 a1bc f5c9 7a3d 901e bc3c b2e3 1ebd
00000230: e7bd c93b b8a8 613d 3aa8 d63c d956 553d
00000240: dabe 143d a266 3a3d abdc 333d 0956 49bd
00000250: 5176 03bc 9ed5 a63c c56a 083c 9529 1abd
00000260: c0c0 9abd bb80 273d e21a f6bc b1d7 3ebd
00000270: 248c cd3c a5a9 a4b9 0c39 4fbd 2050 773d
00000280: b90e 933d 85e9 0f3c fe80 a63c 2cfc 893d
00000290: 11af a83d 681b 013c be29 75bd dbd7 0ebb
000002a0: 2bc9 f9bc 5115 79bd 0738 2c3d 7295 993c
000002b0: 6305 95bd d5e5 883d 498f 333d 34cc 5d3c
000002c0: aecb 8fbd 7c8a a33d 575b b93b a4e9 6d3d
000002d0: d33c 653b 9911 8bbc a933 5a3d f476 56bd
000002e0: 6789 6e3c 15ac 34bd 061a 253c a3b6 eb3c
000002f0: 178c 62bd 9070 04bd 4985 613b e1de 25bc
00000300: 69fe 09bd e980 7d3d f0d2 1fbd 7f9e 033d
00000310: 44f2 a4bd 3468 793c 087c 993d 881a 743c
00000320: ee6f 743d d0ea da3b d979 44bd 4f62 8a3d
00000330: dd48 13bd 35ec 9d3d c1e0 59bd c69b 7dbb
00000340: 16fc a9bc 486e 3bbd 4852 98bd f14d 663d
00000350: f122 61bc 3c4b a43d fab2 383d c5d8 ef3c
00000360: e541 08bd efbc 8bbd ccd6 c3bc e0b5 2a3d
00000370: 464c 8fbd 3558 1bbc 9291 0fbd a5b3 37bd
00000380: 48bf 81bd 1bcb 47bb 7dc5 703d a177 a43d
00000390: dc3c ab3d ea8d 743d 6768 a2bd 0048 a73d
000003a0: b39e 86bc 9330 4f3d 20c4 9b3c 06ae f1bc
000003b0: 0e06 8c3d 0d6f 0f3d 6368 e8bb 868c b73c
000003c0: 584d 57bd 76c5 8abc 5b34 083c 6988 a13c
000003d0: a75c e1ba 45cd 76bd 2e32 e93c 4057 19bc
000003e0: 4b92 43bd 502e 9ebd f03c 833c 73fa 44bd
000003f0: 83df ad3d 642e 98bd 1cfd 383c a531 8a3d

conv2.bias f4 [32]
-0.05480014 -0.07384455 0.012603682 -0.05725234 -0.023033392 0.07167567 -0.05313035 0.07158542
0.059248228 -0.041791033 0.019335428 0.029963585 0.026683588 0.05696894 -0.020569425 0.07520435
0.068006754 -0.06543953 -0.072427705 0.05076045 0.014831712 -0.07639269 0.047403794 0.03968883
0.066967286 -0.061755802 -0.010223261 -0.078951605 0.043374576 0.06262551 0.035129674 -0.041608594
00000000: 1d76 60bd d03b 97bd ac7f 4e3c 6e81 6abd
00000010: 86b0 bcbc b2ca 923d 369f 59bd 609b 923d
00000020: 45ae 723d 132d 2bbd 5565 9e3c 3176 f53c
00000030: 8a97 da3c 4358 693d 3681 a8bc bd04 9a3d
00000040: 2047 8b3d 2905 86bd fa54 94bd 31ea 4f3d
00000050: b500 733c c573 9cbd 7b2a 423d c190 223d
00000060: 2526 893d a7f3 7cbd 777f 27bc 61b1 a1bd
00000070: 8aa9 313d ce41 803d 22e4 0f3d c66d 2abd

fc1.weight f4 [128, 800]
-0.009111408 0.020683201 -0.030429037 -0.005453913 0.004031221 0.013081517 -0.010422351 0.02749556
0.006888676 0.001577996 0.0018126481 -0.001732516 -0.0082001975 -0.026648315 -0.0046542906 -0.033123687
-0.016609415 0.009010422 0.031013297 -0.03341703 0.00969128 -0.000327697 0.018459026 -0.004882367
-0.030578641 -0.0067259287 -0.0340937 0.0061568785 -0.0069302046 -0.034027237 0.009701564 0.00977701
0.016466523 0.0104904575 0.005145146 -0.0058917655 0.0024432738 -0.0032500084 0.0020300301 -0.025727464
-0.009242303 0.02024356 -0.0024810308 0.024611147 0.015305974 -0.002407528 -0.016015384 0.019241568
0.007800122 -0.006805129 -0.007849685 -0.029606361 -0.029590387 -0.025025329 -0.0003361424 0.020538617
-2.0900432e-37 -0.015370639 -0.02323658 0.01859524 0.02886587 -0.009527711 -0.011290815 0.009067642
0.0005974128 0.015866704 0.007889646 0.013175608 -0.019009346 -0.0008576005 0.021559773 -0.01969915
0.009029346 0.025759162 -0.024029344 0.011256156 -0.0008679519 0.024512066 0.033275854 0.019851146
0.011366247 -0.012207457 0.034013364 0.0065016947 0.029893558 -0.016035138 -0.004656412 0.012332507
-0.012454974 0.023735965 -0.013132661 -0.0006827404 -0.031110687 -0.009055156 -0.032091446 -0.011295166
0.018674206 0.01399094 -0.008430456 -0.031883612 -0.008289 -0.016954035 -0.0054502618 -0.0009621639
-0.010978191 0.0051633175 -0.008745022 0.018105576 -0.020014964 0.030735321 -0.009148521 -1.5246914e-09
0.010453958 0.021049818 0.018645661 -0.019249221 0.019353366 -0.0005227985 0.022730019 0.027911173
0.0063911527 0.0035686232 -0.029677676 0.023131907 0.017531652 0.012030691 -0.017704988 -0.028462576
-0.030156868 0.008985916 0.03264517 0.03320151 0.013538877 -0.02398643 -0.023724686 0.006389139
0.0018578433 -0.03393077 -0.024761144 -0.008115343 -0.0035828948 0.03319724 0.0060158833 -0.024080468
0.032407027 -0.0011192482 -0.0029745458 0.024752295 0.01980442 0.024679758 0.00020565563 0.01611284
-0.023439879 -0.0038056534 -0.027864296 0.030037794 -0.013725978 0.009573565 0.009021123 -0.007130392
-0.03441619 0.03285232 0.013252241 0.0031965931 0.025625221 0.022266587 -0.00062321156 0.032089308
0.03229714 0.030650564 -0.02347351 0.009879729 -0.006545605 -0.03555794 -0.023954652 -0.008885613
0.030698877 -0.008968888 0.0030458418 -0.021540968 -0.0013666617 0.010951907 -0.03527303 0.007905696
-0.015566728 -0.020407798 0.01563333 -0.029479675 -0.019871669 -0.029099837 -0.016377378 0.01271322
0.017407324 -0.024167534 -0.0002346839 -0.0012020146 -0.03296522 -0.033902775 0.029111024 0.028173367
0.012294686 0.023074001 0.023912333 0.014549929 -0.029235011 -0.02877577 0.01838265 0.008730639
-0.020630207 -0.0056008124 0.006728772 0.0061104516 -0.002761086 0.0013048003 0.030711534 -0.035861757
0.0071126493 0.0068574245 -0.03575781 0.023332294 -0.029861461 0.01455176 -0.0155748045 -0.030308679
-0.008274005 -0.028664576 -0.026071059 -0.0013958362 -0.02962031 -0.035546076 0.008406865 -0.026843911
-0.03191485 -0.004143077 -0.01252945 -0.014760188 0.0012280619 -0.0014167397 0.030867007 -0.007521861
0.012187572 -0.016816387 -0.027187781 0.020008758 0.01183963 -0.0036928211 -0.014140502 0.021565823
-0.034075066 -0.010899434 0.005544157 0.015693964 0.02773828 0.0024081755 0.0016034208 -0.014619914
00000000: 0448 15bc d16f a93c 5146 f9bc bdb6 b2bb
00000010: 5518 843b dc53 563c 82c2 2abc 5e3e e13c
00000020: 67ba e13b c2d4 ce3a 6196 ed3a 9715 e3ba
00000030: 1f5a 06bc 914d dabc 0583 98bb b4ac 07bd
00000040: 7810 88bc 73a0 133c 990f fe3c 4ce0 08bd
00000050: 2dc8 1e3c bfce abb9 6237 973c 43fc 9fbb
00000060: 0f80 fabc 2e65 dcbb d6a5 0bbd a4bf c93b
00000070: c516 e3bb 2560 0bbd 4ff3 1e3c c12f 203c
00000080: cde4 863c 2be0 2b3c 9d98 a83b b60f c1bb
00000090: 551f 203b 18fe 54bb 410a 053b 67c2 d2bc
000000a0: 076d 17bc d3d5 a53c ca98 22bb 519d c93c
000000b0: e8c5 7a3c 9ec7 1dbb b232 83bc 7ea0 9d3c
000000c0: 2a98 ff3b 8ffd debb f79b 00bc 0a89 f2bc
000000d0: 8a67 f2bc eb01 cdbc 453c b0b9 9a40 a83c
000000e0: b03d 8e82 22d5 7bbc a45a bebc 0b55 983c
000000f0: 1e78 ec3c 1e1a 1cbc 1cfd 38bc 7290 143c
00000100: b29b 1c3a e4fa 813c 9343 013c 81de 573c
00000110: 7db9 9bbc 98d0 60ba 1f9e b03c 1d60 a1bc
00000120: d2ef 133c e104 d33c 30d9 c4bc bd6b 383c
00000130: 4487 63ba 87cd c83c 434c 083d df9e a23c
00000140: 7f39 3a3c c901 48bc 9951 0b3d 2b0c d53b
00000150: 56e3 f43c 1f5c 83bc d194 98bb 490e 4a3c
00000160: f30f 4cbc ed71 c23c 5f2a 57bc eff9 32ba
00000170: d7db febc 145c 14bc 5272 03bd 5c0f 39bc
00000180: a6fa 983c 413a 653c e51f 0abc 6498 02bd
00000190: 96ce 07bc 30e3 8abc 1c98 b2bb ba39 7cba
000001a0: dfdd 33bc 0c31 a93b 4847 0fbc 2552 943c
000001b0: 6cf6 a3bc a4c8 fb3c aee3 15bc 4f8d d1b0
000001c0: 1447 2b3c ab70 ac3c c9be 983c 8bb0 9dbc
000001d0: f38a 9e3c 6a0c 09ba 4e34 ba3c f9a5 e43c
000001e0: e06c d13b 90df 693b 991e f3bc 207f bd3c
000001f0: 8a9e 8f3c 601c 453c 0d0a 91bc 592a e9bc
00000200: 890b f7bc aa39 133c f1b6 053d 4efe 073d
00000210: 2ad2 5d3c 317f c4bc 465a c2bc fc5b d13b
00000220: e082 f33a fefa 0abd e2d7 cabc 37f6 04bc
00000230: 00cf 6abb d4f9 073d e320 c53b 6744 c5bc
00000240: 3bbd 043d bdb3 92ba 99f0 42bb 53c5 ca3c
00000250: e13c a23c 342d ca3c 43a5 5739 13ff 833c
00000260: fd04 c0bc 4568 79bb aa43 e4bc d211 f63c
00000270: ede2 60bc 71da 1c3c 55cd 133c 10a6 e9bb
00000280: fef7 0cbd 2790 063d ed1f 593c ef7d 513b
00000290: fceb d13c 6b68 b63c 055f 23ba 1470 033d
000002a0: 024a 043d e416 fb3c 854b c0bc 96de 213c
000002b0: 847c d6bb 34a5 11bd 8c3c c4bc f694 11bc
000002c0: 367c fb3c 3ef2 12bc bf9c 473b af76 b0bc
000002d0: 8f21 b3ba a16f 333c 747a 10bd e486 013c
000002e0: 970b 7fbc 412e a7bc 7811 803c 5c7f f1bc
000002f0: e9c9 a2bc c862 eebc da29 86bc 1c4b 503c
00000300: ce99 8e3c fefa c5bc 7b15 76b9 eb8c 9dba
00000310: 8a06 07bd a3dd 0abd 3e7a ee3c d5cb e63c
00000320: a76f 493c b005 bd3c cce3 c33c d362 6e3c
00000330: 437e efbc 2abb ebbc 3697 963c f40a 0f3c
00000340: ae00 a9bc 0587 b7bb 087d dc3b 2f3a c83b
00000350: 56f3 34bb d505 ab3a c196 fb3c c7e3 12bd
00000360: 3a11 e93b 3fb4 e03b c876 12bd 5e23 bf3c
00000370: 06a0 f4bc 816a 6e3c 772d 7fbc e849 f8bc
00000380: b18f 07bc f9d1 eabc f992 d5bc 7ef4 b6ba
00000390: 4ba6 f2bc c398 11bd f3bc 093c c3e7 dbbc
000003a0: 25b9 02bd a6c2 87bb 5248 4dbc b7d4 71bc
000003b0: ebf6 a03a e5b1 b9ba cedc fc3c f279 f6bb
000003c0: 62ae 473c 85c2 89bc e9b8 debc 68e9 a33c
000003d0: 02fb 413c 4203 72bb 90ad 67bc cfaa b03c
000003e0: 4c92 0bbd 8a93 32bc c2ab b53b a190 803c
000003f0: 643b e33c 7bd2 1d3b e029 d23a 5d88 6fbc

fc1.bias f4 [128]
-0.015774762 -0.027296856 -0.013562124 0.02067517 0.0076097203 -0.010282076 0.016809529 -0.02909268
0.0145605365 0.0029325187 -0.033563763 -0.0059802122 -0.0013023396 -0.004225932 -0.0062646675 -0.017322574
0.010076939 -0.02249146 0.0247815 -0.01632542 -0.0037684033 -0.02390127 0.028070888 0.0046892427
0.025346007 -0.02709621 -0.026015062 0.005111139 0.024827147 0.026130825 -0.027337207 0.017104171
0.011974955 6.215833e-28 -0.0075942865 0.0014333354 0.018527027 -0.0064973333 0.002180204 0.0042841947
0.029306982 0.0034497231 -0.02625684 -0.0005180047 -0.010764681 0.012711158 -0.013724114 -0.016078947
0.031215133 -0.014140661 -4.370408e-09 0.005977678 0.00884734 -0.0016210278 -0.008611829 0.02612291
0.01609108 0.032037847 -0.013579037 0.0074894032 0.030260893 0.012986337 0.0064974306 0.007953021
-0.0066998536 -0.025577985 0.00441793 0.031410415 0.022392228 -0.005846693 -0.0032697157 -0.0011610984
-0.01155155 0.021002192 0.025156988 -0.011118046 0.005792092 0.012423676 -0.014045582 0.012897082
-0.026214432 0.014023518 0.0034130316 0.025506103 -0.024509026 0.015962142 -0.012243725 0.0026717808
0.006093068 -0.018275337 0.033247344 0.000400289 0.013933339 -0.010005274 -0.020968484 -0.009481021
0.01189019 0.009874422 -0.02483779 0.017345032 -0.015585268 0.02231553 -0.0030470914 0.014884376
0.026785418 -6.93866e-40 -0.009737222 -0.005228841 -0.028352441 -0.0031672474 -0.0058934498 0.027614113
-0.016758198 -0.023388848 0.0026156646 -0.023538752 -0.02064825 -0.011150788 0.03452234 -0.0042287046
0.0055466513 0.032641813 -0.004933559 0.02316642 -0.012489178 -0.012173365 0.011680947 0.0058713485
00000000: 133a 81bc a89d dfbc ac33 5ebc f95e a93c
00000010: f65a f93b 2776 28bc 23b4 893c c653 eebc
00000020: 518f 6e3c 802f 403b 287a 09bd a8f5 c3bb
00000030: 44b3 aaba b079 8abb d747 cdbb 12e8 8dbc
00000040: bf19 253c 0340 b8bc 9302 cb3c e3bc 85bc
00000050: 51f7 76bb 99cc c3bc ebf4 e53c 38a8 993b
00000060: 6ea2 cf3c dff8 ddbc 8a1d d5bc 577b a73b
00000070: 4d62 cb3c 5010 d63c 47f2 dfbc 0c1e 8c3c
00000080: 9a32 443c d4fc 4412 7ed9 f8bb c1de bb3a
00000090: fec5 973c 95e7 d4bb c1e1 0e3b 6e62 8c3b
000000a0: 3215 f03c c014 623b 9618 d7bc b5ca 07ba
000000b0: 585e 30bc 7642 503c 1bdb 60bc ffb7 83bc
000000c0: e1b6 ff3c 3bae 67bc 842a 96b1 66e0 c33b
000000d0: 6ff4 103c ab78 d4ba a118 0dbc b7ff d53c
000000e0: 71d1 833c 1e3a 033d 9c7a 5ebc ab69 f53b
000000f0: b1e5 f73c a5c4 543c 66e8 d43b 634d 023c
00000100: 728a dbbb ec88 d1bc 48c4 903b 35a8 003d
00000110: e86f b73c 9e95 bfbb ba48 56bb ff2f 98ba
00000120: b642 3dbc ca0c ac3c 0716 ce3c 7728 36bc
00000130: 97cb bd3b ad8c 4b3c 711f 66bc 484e 533c
00000140: a6bf d6bc e6c2 653c 2bad 5f3b 2df2 d03c
00000150: 27c7 c8bc 0ac3 823c e899 48bc 0b19 2f3b
00000160: 5ca8 c73b 29b6 95bc 5e2e 083d e1dd d139
00000170: a948 643c 29ed 23bc 19c6 abbc 4956 1bbc
00000180: 12cf 423c 54c8 213c 9f78 cbbc 2b17 8e3c
00000190: 5a59 7fbc 0fcf b63c b6b1 47bb 99dd 733c
000001a0: 186d db3c 378e 0780 df88 1fbc b356 abbb
000001b0: 6143 e8bc 9891 4fbb d71d c1bb fe36 e23c
000001c0: 7d48 89bc f899 bfbc 926b 2b3b 57d4 c0bc
000001d0: 8526 a9bc cbb1 36bc 4c67 0d3d f290 8abb
000001e0: afc0 b53b 6cb3 053d b1a9 a1bb 81c7 bd3c
000001f0: 699f 4cbc cb72 47bc 7161 3f3c 7164 c03b

fc2.weight f4 [60, 128]
0.04020849 -0.027164811 -0.089230515 0.03927101 0.043878473 0.026274716 -0.008727839 0.0022700443
0.07332439 -0.073295824 0.03468612 0.053683687 0.030376643 -0.031266235 -0.07143966 0.028952897
0.040882234 0.021705532 0.043517135 -0.049038246 0.030201895 0.0137745 0.031400956 0.0026383987
0.023832852 -0.033567723 0.07077746 -0.079059385 0.06775734 -0.05618154 -0.028257942 0.072592735
-0.06474786 0.07593467 -0.052807618 0.039905064 0.051443726 -0.008531797 -0.07911448 -0.071345836
-0.086198494 -0.05944476 -0.05172945 -0.0003568753 0.07792797 -0.05573644 -0.041983787 -0.053664044
0.067970745 -0.013030532 0.00059318374 0.06395871 -0.07415718 -0.07807662 -0.04871149 -0.02591631
0.04705382 0.068991795 -0.038572233 0.048748672 0.008861708 0.0209518 0.013132144 -0.07924388
0.06929047 -0.020504087 0.047487307 0.037009254 0.062155016 0.061407667 0.06747768 0.06729757
0.035724957 0.0585814 -0.0302922 0.06903835 0.00290372 -0.022057595 0.0026141035 0.053408913
0.045183986 0.06658859 0.080021314 0.010896266 -0.06911229 -0.0052128336 0.0053996975 -0.031814903
-0.07817148 -0.04483877 0.07668728 -0.004174311 -0.070171095 0.025595637 -0.02092656 0.05786904
0.044735856 0.0014459864 -0.04368864 -0.011220391 -0.065472536 -0.07231957 0.05770444 -0.035423838
0.067142904 -0.04465389 -0.0066755386 0.014545757 -0.060920928 -0.031898096 0.012188318 0.015469641
0.021558724 -0.023278626 0.058401264 0.05804527 -0.047958065 0.06410689 0.0008420903 -0.049477402
-0.020915933 0.036458198 0.0167871 0.07782077 -0.07219107 0.07687604 -0.06576417 -0.017488189
0.012373034 0.08898423 -0.018521477 -0.02187805 -0.025153374 0.05092656 0.048847046 -0.03111001
0.052715108 -0.07973582 -0.081988774 -0.04884537 -0.07614602 0.069528595 0.012426903 0.036710236
-0.055297464 -0.07910833 0.050681926 -0.0408482 -0.045983683 0.023027798 0.046077896 0.03793637
-0.0485 0.03545658 -0.0026296643 -0.025082752 -0.009372059 0.010709517 -0.014221799 -0.01436533
0.033476178 -0.019812668 -0.03426958 0.07963607 0.05820868 -0.08786834 0.046032373 0.007207649
0.008962681 -0.041122556 -0.02235901 -0.030509606 -0.018274141 -0.073225155 0.027352031 -0.024464302
0.04735614 -0.026319718 0.058707647 -0.059285633 -0.013266267 -0.03705481 -0.021764385 0.053587683
-0.08062723 0.081433445 -0.028682457 0.08675206 -0.02049749 -0.04408557 0.057098113 -0.05841236
0.0385516 -0.08403479 -0.07467405 -0.0032707234 -0.035574835 0.012429113 -0.013882135 -0.040664513
-0.088388376 0.016069219 0.061875198 -0.044582423 -0.0070746974 -0.08642435 0.0059474306 0.034843974
0.049137402 -0.050759755 0.05893918 0.05562213 -0.013847398 -0.07157917 0.066332825 0.03278922
-0.08152249 0.005604088 0.08152082 0.008581125 0.063638195 0.085663356 0.06527419 -0.071214974
0.036654495 0.08566337 0.024396382 -0.046160918 0.06928917 -0.016675156 -0.08632704 0.06757819
-0.073190525 0.07128099 0.0334825 0.022585958 0.011342504 0.036123928 -0.058079787 0.04102054
0.058798853 0.0010605007 -0.012787083 0.045019258 -0.03796842 -0.07975903 0.056130275 -0.023553643
0.023022434 -0.015219344 -0.06501164 -0.074929796 -0.06412952 0.016208347 0.03608371 -0.063710555
00000000: a8b1 243d bd88 debc 7dbe b6bd a3da 203d
00000010: eab9 333d 133e d73c 36ff 0ebc 06c5 143b
00000020: 192b 963d 1f1c 96bd 0813 0e3d 6de3 5b3d
00000030: 70d8 f83c 0611 00bd f54e 92bd a02e ed3c
00000040: 2174 273d cdcf b13c 063f 323d 54dc 48bd
00000050: f769 f73c 71ae 613c 4a9e 003d fce8 2c3b
00000060: 1d3d c33c 4f7e 09bd c6f3 903d e3e9 a1bd
00000070: 5cc4 8a3d 9d1e 66bd 337d e7bc 80ab 943d
00000080: 879a 84bd a383 9b3d cd4c 58bd 7e73 233d
00000090: a8b6 523d f3c8 0bbc c606 a2bd c41d 92bd
000000a0: d688 b0bd 597c 73bd 42e2 53bd fe1a bbb9
000000b0: b398 9f3d e54b 64bd 31f7 2bbd d4ce 5bbd
000000c0: 3f34 8b3d 037e 55bc e37f 1b3a c9fc 823d
000000d0: b8df 97bd a3e6 9fbd b385 47bd 714e d4bc
000000e0: 82bb 403d 924b 8d3d ebfd 1dbd b0ac 473d
000000f0: b330 113c 1ca3 ab3c 3428 573c 9e4a a2bd
00000100: 29e8 8d3d 30f8 a7bc 0d82 423d 0497 173d
00000110: 4296 7e3d 9b86 7b3d bd31 8a3d 4fd3 893d
00000120: 5554 123d 0df3 6f3d 5927 f8bc fa63 8d3d
00000130: 564c 3e3b 21b2 b4bc 6151 2b3b 4ec3 5a3d
00000140: d812 393d 995f 883d 37e2 a33d 4186 323c
00000150: bf8a 8dbd 6bd0 aabb f2ef b03b 5850 02bd
00000160: 5e18 a0bd dca8 37bd 380e 9d3d a9c8 88bb
00000170: ddb5 8fbd f1ad d13c 2d6e abbc 1608 6d3d
00000180: f23c 373d 4187 bd3a dcf2 32bd bbd5 37bc
00000190: 7716 86bd 481c 94bd 7e5b 6c3d 9618 11bd
000001a0: 3882 893d ffe6 36bd 7abe dabb 5451 6e3c
000001b0: 3988 79bd 94a7 02bd 83b1 473c 6174 7d3c
000001c0: ec9b b03c d1b2 bebc 2a36 6f3d e1c0 6d3d
000001d0: ad6f 44bd 794a 833d b9bf 5c3a d1a8 4abd
000001e0: e457 abbc 3155 153d 1a85 893c 7f60 9f3d
000001f0: e9d8 93bd 2f71 9d3d 5daf 86bd 6443 8fbc
00000200: 44b8 4a3c 5d3d b63d 5aba 97bc 9939 b3bc
00000210: 730e cebc 5e98 503d d713 483d 6bda febc
00000220: cceb 573d 894c a3bd bbe9 a7bd 1512 48bd
00000230: 72f2 9bbd 0265 8e3d 359a 4b3c 795d 163d
00000240: 987f 62bd 8c03 a2bd da97 4f3d 7150 27bd
00000250: 6359 3cbd cba4 bc3c 2dbc 3c3d 2b63 1b3d
00000260: f0a7 46bd eb3a 113d 7256 2cbb 587a cdbc
00000270: 448d 19bc f876 2f3c 8c02 69bc 905c 6bbc
00000280: 511e 093d 2d4e a2bc 425e 0cbd 3c18 a33d
00000290: 3a6c 6e3d 51f4 b3bd 718c 3c3d 242e ec3b
000002a0: 35d8 123c 2070 28bd 3e2a b7bc 48ef f9bc
000002b0: a7b3 95bc 12f7 95bd 5e11 e03c 5c69 c8bc
000002c0: 83f8 413d 739c d7bc 6e77 703d 7ed5 72bd
000002d0: c25a 59bc c9c6 17bd 394b b2bc c27e 5b3d
000002e0: e41f a5bd 94c6 a63d 79f7 eabc 10ab b13d
000002f0: 5aea a7bc 1293 34bd b6df 693d cc41 6fbd
00000300: 48e8 1d3d 6f1a acbd b5ee 98bd a259 56bb
00000310: ebb6 11bd 7aa3 4b3c e571 63bc d58f 26bd
00000320: f704 b5bd 98a3 833c d970 7d3d 0f9c 36bd
00000330: ddd2 e7bb 40ff b0bd aae2 c23b 8eb8 0e3d
00000340: 4d44 493d 76e9 4fbd 366a 713d 08d4 633d
00000350: 32e0 62bc 1a98 92bd 81d9 873d fd4d 063d
00000360: 43f5 a6bd 7fa2 b73b 63f4 a63d d997 0c3c
00000370: be54 823d 4570 af3d 79ae 853d 28d9 91bd
00000380: 0623 163d 4770 af3d ecda c73c 3b13 3dbd
00000390: 7be7 8d3d 569a 88bc 3bcc b0bd 6f66 8a3d
000003a0: eae4 95bd c5fb 913d f224 093d 3006 b93c
000003b0: e9d5 393c aff6 133d 12e5 6dbd 2705 283d
000003c0: 11d7 703d 8000 8b3a ea80 51bc 1d66 383d
000003d0: c684 1bbd b458 a3bd dce8 653d 92f3 c0bc
000003e0: 8b99 bc3c 8e5a 79bc d324 85bd cb74 99bd
000003f0: 5656 83bd 5ec7 843c 83cc 133d ae7a 82bd

fc2.bias f4 [60]
-0.046129167 0.075350955 0.057032194 0.08217487 -0.018625574 0.04640716 -0.02139194 0.008077652
0.06450376 -0.07401136 -0.007894201 -0.022823539 -0.07905011 -0.019713666 0.0068029626 -0.040334366
-0.009134881 -0.07994448 0.0704822 0.07161283 0.06326043 0.02218283 -0.016558593 -0.009677582
-0.07272916 -0.018361436 0.043763842 -0.06088992 -0.056188494 -0.07646375 -0.07101698 -0.013577232
-0.05762982 -0.022053478 -0.06182486 0.017762957 -0.044039726 -0.041881315 0.00020192354 -0.033201214
-0.05806866 -0.06545209 -0.057118047 0.016257007 0.032742847 0.04868768 -0.0131498715 0.066673115
-0.082337126 0.076579005 0.06980742 0.0022424741 0.005205637 0.01338962 -0.07143816 0.033686917
0.07948452 -0.080871396 -0.061160985 0.03897668
00000000: f0f1 3cbd 9a51 9a3d 979a 693d 4c4b a83d
00000010: a994 98bc 6f15 3e3d 263e afbc 2158 043c
00000020: 8c1a 843d 4593 97bd ae56 01bc 6ef8 babc
00000030: 06e5 a1bd 8e7e a1bc 63eb de3b a635 25bd
00000040: 78aa 15bc eeb9 a3bd f958 903d bfa9 923d
00000050: af8e 813d c4b8 b53c e3a5 87bc b98e 1ebc
00000060: 07f3 94bd b96a 96bc b741 333d b567 79bd
00000070: e825 66bd 0799 9cbd 5a71 91bd 0a73 5ebc
00000080: 3f0d 6cbd 7fa9 b4bc 103c 7dbd 9f83 913c
00000090: 0063 34bd be8b 2bbd 70bb 5339 fffd 07bd
000000a0: 67d9 6dbd bf0b 86bd 9df4 69bd 6a2d 853c
000000b0: 5d1d 063d bc6c 473d 8f72 57bc ea8b 883d
000000c0: 5ea0 a8bd 74d5 9c3d 31f7 8e3d 79f6 123b
000000d0: 0c94 aa3b 2360 5b3c 2c4e 92bd 4bfb 093d
000000e0: c8c8 a23d e79f a5bd f183 7abd 03a6 1f3d
