model/全角色/CharacterClassify_300.pth (torch, 463040 bytes, 8 tensors)

conv1.weight f4 [16, 1, 3, 3]
000000 f2 c4 5e be b9 a7 53 be 5f 79 26 3d 89 43 ed bd
       -0.21754816 -0.2066945 0.040643092 -0.11585147
000010 99 fb 1b bc e3 7d 26 3d 16 aa 66 3d 57 91 9f 3e
       -0.009520435 0.0406474 0.05631455 0.31165573
000020 70 6a 85 be ef de 71 3d f3 7b 54 be a9 06 3e be
       -0.26057768 0.059050497 -0.20750408 -0.18557228
000030 a2 ec 72 3e c7 13 7a be 9e 71 ca bd ce 91 6d 3e
       0.23723081 -0.24421607 -0.09884952 0.23200151
000040 f7 7a 38 3e 60 8d 34 3e 08 d7 a5 3e 58 43 16 be
       0.18015657 0.17632055 0.32390618 -0.14674127
000050 02 8e 3a bd c9 1c a1 3e c5 40 98 3e 26 80 99 be
       -0.045545585 0.31467274 0.29736915 -0.29980582
000060 43 a4 2e be ec ec 69 bc 66 46 8d be d7 3c 96 be
       -0.17054848 -0.014277678 -0.27592772 -0.29343292
000070 95 f9 a1 bd 0a cb 9b be f8 d6 93 3e 2a eb 6e be
       -0.07908932 -0.30428344 0.28874946 -0.23331895
000080 ce ba 37 3e 27 41 53 be 96 fe 93 3e 32 9e 17 be
       0.17942354 -0.20630322 0.2890517 -0.1480644
000090 99 40 21 3e ab 25 58 3e dd 44 94 3e cd fe 9e 3e
       0.15747298 0.21108119 0.2895879 0.31053773
0000a0 94 b6 95 be 16 f9 a1 be 8b 46 4e be 8d a3 aa 3e
       -0.2924086 -0.3163535 -0.20144098 0.33327904
0000b0 8c c9 8b be 09 02 84 3e 9e 1e d2 bd 90 4e ea 3d
       -0.27302206 0.25782803 -0.10259746 0.11440766
0000c0 28 82 10 be b1 9e 1e 3e 23 83 24 be 56 b8 39 bd
       -0.1411215 0.15490223 -0.1606565 -0.045341812
0000d0 ec 83 0a be 8f 05 84 be 7c b7 19 be 96 f2 2c 3d
       -0.13526887 -0.2578549 -0.150114 0.042223535
0000e0 27 be a7 3e 65 99 99 3e 79 45 43 bc d3 73 c8 bd
       0.32762262 0.29999843 -0.011918419 -0.09787717
0000f0 d1 33 46 3d f5 05 26 be 06 f3 05 3c ed 79 3c 3e
       0.04838926 -0.1621321 0.008175617 0.18405886
000100 a6 e9 76 3e 6c 6e 82 be d7 0d 86 3e 0b 7c 95 be
       0.24112567 -0.2547487 0.26182434 -0.291962
000110 b2 21 82 3e 77 4b 60 be c3 10 a0 be 66 4c c1 3d
       0.25416332 -0.21903788 -0.31262788 0.094384
000120 f0 ae 04 3e d8 44 3a 3d 36 10 5d bd e0 d7 27 3c
       0.12957358 0.04547581 -0.053970538 0.01024434
000130 e3 20 3e be ca c6 01 be aa a6 b5 ba 56 9a 4a 3d
       -0.18567233 -0.12673488 -0.0013858874 0.049463592
000140 7f 87 a5 3e 71 a9 d9 bd b8 16 91 be 0f 82 1c 3d
       0.32329938 -0.106280215 -0.28337646 0.03820997
000150 61 10 51 3e 42 fe 06 be 6d 29 e3 bd e6 9e 06 3e
       0.20416404 -0.13182929 -0.11091886 0.13146552
000160 68 b2 17 3e 4f 7f 4d be 88 cd ac bc 6d 8c fa bd
       0.1481415 -0.20068096 -0.021094099 -0.12233815
000170 86 f9 98 3e a7 28 10 be e8 36 80 be 17 e6 86 3e
       0.2987787 -0.14078008 -0.2504189 0.2634742
000180 f9 cb 53 bd 2b 77 02 3d c9 f3 a9 bc 37 8e 87 3c
       -0.051708195 0.03185193 -0.020746129 0.016547306
000190 34 48 8c be d4 81 4c be 5c 67 c2 3d c3 2d e8 bd
       -0.27398837 -0.199714 0.094923705 -0.11336853
0001a0 b2 60 68 3e 7f b6 5e be 5b de 38 be ee e0 83 be
       0.22693136 -0.21749304 -0.18053572 -0.25757545
0001b0 8f 16 98 3e 9d 8c 94 be 5a 40 2f 3b c7 f2 33 be
       0.2970471 -0.2901353 0.0026741237 -0.17573081
0001c0 2d 3c a5 be a8 f0 13 be 55 d1 99 3d 4e 4a 01 be
       -0.32272473 -0.14447272 0.0751063 -0.12626001
0001d0 21 9c 8c be 87 c6 9f 3e df f8 38 3e 47 f0 52 3e
       -0.27462867 0.31206152 0.18063687 0.20599471
0001e0 a5 d4 20 be 71 a7 51 be 29 92 3c bd 43 13 03 3e
       -0.15706117 -0.2047403 -0.046037827 0.12800317
0001f0 84 00 7c 3e 5b 9f b5 3d d7 ea f3 bd e5 5a 7f bd
       0.24609572 0.08868285 -0.119100265 -0.062342543
000200 09 6a 8c be 35 95 e6 3c 44 0a 34 be e8 a2 77 3e
       -0.27424648 0.02814732 -0.17582041 0.24183238
000210 36 1a 99 3e f5 89 86 3d 47 21 a1 3e 8f c5 c0 3d
       0.2990281 0.06569282 0.314707 0.09412681
000220 8f 4f 74 be 2d 2c 1b be 90 3f 97 3e a2 58 99 be
       -0.23858474 -0.1515357 0.29540682 -0.29950434
000230 bf ac b1 3c 98 5b 2d 3e f8 a0 21 3c 26 81 f6 3d
       0.021688817 0.16929471 0.009865038 0.12036352

conv1.bias f4 [16]
000000 df fd 7e 3e bf d8 5f 3e e5 57 99 be 9d cf 15 3e
       0.24901532 0.21860026 -0.2994987 0.1462998
000010 8d fb 6d be f0 54 ee 3d 07 67 6b 3e 48 a8 2a 3e
       -0.2324049 0.11637294 0.2298852 0.16665757
000020 8c 17 54 be 45 57 49 3e a8 ff 46 be 5e d6 48 be
       -0.20712107 0.19662197 -0.19433463 -0.19613025
000030 72 18 ed bc d3 52 ce bd 98 27 da bd 6f 64 26 be
       -0.02894232 -0.10074391 -0.10652083 -0.1624925

conv2.weight f4 [32, 16, 3, 3]
000000 2b cb 17 3d e9 2d 9c 3c dd a5 14 bc a8 db 8a 3d
       0.03705899 0.01906486 -0.009072748 0.06780177
000010 76 eb b7 bc ad e7 a5 bd 7a 0d bc 3c 7f 52 81 3d
       -0.022451144 -0.08100829 0.022955645 0.06314563
000020 e3 72 9a 3d 88 0f 65 bd 18 65 8e 3d 94 84 26 bd
       0.07541444 -0.055923015 0.06952876 -0.04065378
000030 a9 14 9c bd 96 70 76 3d 0c 20 36 bd da e5 82 3d
       -0.07621128 0.060165964 -0.044464156 0.06391497
000040 df bc 80 bd 27 d7 d0 bc 94 d8 9b bd ac 28 2d 3d
       -0.06286024 -0.025493218 -0.076096684 0.042275116
000050 88 a4 ed bb 12 ff 1a bd 7c 2b 71 3d 4a 9e 8b bd
       -0.0072522797 -0.03784091 0.05887936 -0.068173006
000060 ba 28 1b 3d 81 5a 34 3d bf f2 7e bd 3d 43 1b bc
       0.037880637 0.044031624 -0.06224322 -0.00947648
000070 d9 1c 8c bd 8e 6e 01 bd 35 80 9f 3d 5c 7c 83 bc
       -0.0684144 -0.031599574 0.077881254 -0.01605051
000080 88 cd 47 3d 7a b3 05 bc 7e 31 b2 bc fb 85 8e 3d
       0.048779994 -0.008160466 -0.021752115 0.069591485
000090 35 b6 50 3d f9 5d 9b 3c 45 01 a2 3d 40 a3 9c 3c
       0.050955016 0.018965708 0.079103984 0.019120812
0000a0 05 2d 05 3c 8d 1a 89 3c 04 b8 64 bd 62 fe d0 bc
       0.008128409 0.016736293 -0.055839553 -0.025511924
0000b0 e6 7b fb 3c 2e 15 9a bd 13 73 95 3d 91 3d 99 3d
       0.030698728 -0.07523571 0.07297339 0.07482446
0000c0 54 a6 9f 3c fc 69 9b bd 7e 93 63 3d a1 70 0f 3d
       0.019488491 -0.07588574 0.05556058 0.03501952
0000d0 f0 4d e0 3b 7b 92 2c bd 98 2f d1 3a 43 20 b6 3a
       0.0068452284 -0.042131882 0.0015959619 0.0013895113
0000e0 e8 ce 29 3d 9a d8 0a bd d4 bc d7 3c dc 89 a9 bd
       0.041457087 -0.033897974 0.026335157 -0.08278248
0000f0 5d 3c 06 3c 2f 0b 14 3d 84 b5 29 3d 3c 07 b8 3c
       0.008193103 0.036143478 0.041432872 0.022464387
000100 90 0a 9c 3d fe 16 a0 bd 6b 17 97 3d ba 07 9c bc
       0.07619202 -0.078168854 0.073775135 -0.019046653
000110 6b a0 8c 3c 4b 85 a7 3d fa 01 b5 3b 18 7f 64 3d
       0.017166337 0.081797205 0.0055239173 0.05578527
000120 21 d6 2d 3c b7 11 13 3d 8e a8 96 bd 1e 14 fb bc
       0.010610134 0.035905566 -0.07356368 -0.030649241
000130 59 a4 a1 3d ac a3 71 bd 27 a5 26 3d 2c b4 8b bd
       0.07892675 -0.05899398 0.040684845 -0.068214744
000140 dc c5 7f bd c4 97 86 3d d1 20 24 3d a8 b1 e1 bb
       -0.062444553 0.06571916 0.04007036 -0.0068876334
000150 ce 87 0b bd 3e 5a ab bc 07 0f e8 3c 42 f8 8a bd
       -0.03406506 -0.020917054 0.028327478 -0.06785633
000160 84 5b 9b bc 29 46 2a 3d a0 08 4c 3d 77 79 47 bd
       -0.018964536 0.041570816 0.049812913 -0.048699822
000170 49 9a 22 3d 65 21 a1 3d e9 1c 54 bd f8 ed 85 bc
       0.03969792 0.078676976 -0.051785383 -0.016348824
000180 bc bb af bb fd 43 ef 3c aa 28 88 3d e9 ec 19 bc
       -0.005362956 0.029207224 0.06648381 -0.009394863
000190 b4 eb 7f bd 6b 5a f7 3c b1 4e 36 bd f0 82 b4 3c
       -0.062480643 0.030194482 -0.04450864 0.022035092
0001a0 06 c1 96 3d 9a 0d ad bc 85 76 e0 3c 90 4a f7 3c
       0.07361035 -0.02112465 0.027400265 0.030186921
0001b0 6f 47 91 3d da e9 e6 3c 75 95 16 bd 84 53 1a ba
       0.07093703 0.028187681 -0.036763627 -0.00058870786
0001c0 20 bc 50 bd 48 a9 73 3d dc f9 cb bc b0 b6 f0 bc
       -0.05096066 0.05948761 -0.024899416 -0.029383987
0001d0 e4 ce a5 bc 73 e9 08 bd 0f bd b4 bc db ab 21 bb
       -0.020240255 -0.03342576 -0.022062806 -0.0024669084
0001e0 6c 2d c7 3c ea 3e 84 bb db 16 c9 bc 14 33 bd bc
       0.024313651 -0.0040358203 -0.024547031 -0.023095645
0001f0 51 77 30 3d fd eb 82 bd e4 cd 08 bd a1 ec 39 3c
       0.04308254 -0.063926674 -0.033399478 0.011347921
000200 47 47 d0 bc 2f 10 87 bc 10 59 3e bb f7 3e e3 bb
       -0.025424613 -0.01648721 -0.0029044785 -0.006934996
000210 d4 c5 9d 3d 7b 0c 99 bd c9 f9 3f 3d 42 41 0f bd
       0.07703748 -0.074730836 0.046869073 -0.034974344
000220 5e ea a3 bc 8d b6 79 3d d7 07 ba 3c 2e 1f 20 bd
       -0.020009216 0.06096511 0.022708816 -0.039092235
000230 1f 2f bc 3b 28 a0 5f 3d 67 e8 d2 3c 2a ad 53 3d
       0.005742922 0.054596096 0.025745584 0.051678814
000240 b2 70 14 3d 11 20 3a 3d 55 a6 33 3d 0a 7c 4a bd
       0.036240287 0.045440737 0.0438598 -0.0494347
000250 0e 30 07 bc 8f 6a a5 3c ce 38 04 3c 8b 32 1b bd
       -0.008251203 0.020192413 0.008070184 -0.03789
000260 d5 4b 9b bd c8 5a 27 3d 4f 37 f6 bc 9b f3 3e bd
       -0.07582823 0.04085806 -0.03005567 -0.04661904
000270 4c 2c ce 3c 9b 3b 57 b9 d3 a5 4e bd d4 c6 76 3d
       0.025167607 -0.00020526203 -0.05045111 0.06024821
000280 4c cf 92 3d 1b 6d 0d 3c c2 f1 a5 3c 02 e8 89 3d
       0.07168445 0.00863197 0.02025688 0.06733705
000290 8b 99 a8 3d 52 dc f4 3b 37 01 77 bd 4d 0d 2a bb
       0.08232411 0.0074725533 -0.060303893 -0.002594787
0002a0 86 7e fa bc 51 8c 79 bd 2e 29 2c 3d 18 c1 98 3c
       -0.03057791 -0.06092483 0.04203146 0.018646762
0002b0 e3 35 95 bd 77 b7 88 3d b2 ae 31 3d f8 4c 56 3c
       -0.07285669 0.06675618 0.043379493 0.013079874
0002c0 ce b3 90 bd ae 82 a3 3d 12 cc b7 3b 4f e7 6d 3d
       -0.07065545 0.079839095 0.005609044 0.05808192
0002d0 8d 0b 58 3b c5 87 8c bc 61 8d 59 3d 24 9c 58 bd
       0.003296587 -0.017154584 0.053113345 -0.052883282
0002e0 1d 89 65 3c e8 d1 36 bd bb 36 25 3c 34 ba eb 3c
       0.014009741 -0.044633776 0.01008385 0.028775312
0002f0 f5 8b 62 bd 30 a2 04 bd d8 f7 5f 3b 56 c6 25 bc
       -0.055309255 -0.032381237 0.0034174826 -0.010118088
000300 b4 52 0b bd 02 0c 7c 3d 59 44 21 bd 90 0c 02 3d
       -0.03401442 0.06153489 -0.039371822 0.03175026
000310 01 b6 a5 bd 43 ee 72 3c 06 5b 99 3d 71 ab 73 3c
       -0.08091355 0.014827314 0.074880645 0.014872418
000320 30 9f 74 3d 70 e5 ca 3b 51 81 46 bd e3 62 89 3d
       0.059722126 0.006191902 -0.04846317 0.06708314
000330 91 d6 13 bd 4d aa 9d 3d 89 73 5a bd ec 4e 7d bb
       -0.0360933 0.07698498 -0.05333284 -0.0038651777
000340 4a 7d a9 bc 2d 42 3b bd 71 2c 99 bd 81 b0 64 3d
       -0.020689625 -0.045717407 -0.0747918 0.05583239
000350 86 ec 67 bc d1 eb a3 3d 97 1c 38 3d b0 d9 ee 3c
       -0.014155513 0.08003963 0.04494914 0.029156536
000360 db 43 0a bd 93 bb 8c bd 41 81 c7 bc 00 e1 2a 3d
       -0.03375612 -0.068717144 -0.024353625 0.041718483
000370 2f 3f 8f bd 74 4d 1a bc 51 7b 0e bd 38 a7 36 bd
       -0.06994473 -0.00941788 -0.034785572 -0.044593066
000380 d7 59 81 bd cb 99 4d bb ff 81 70 3d 5f 59 a4 3d
       -0.06315964 -0.0031372185 0.058717724 0.08024859
000390 e2 a4 aa 3d 51 78 73 3d e6 d5 a2 bd 87 d9 a6 3d
       0.0833223 0.059440915 -0.07950954 0.08146959
0003a0 70 92 88 bc 38 40 4e 3d 29 ae 99 3c 75 82 f3 bc
       -0.01667139 0.050354213 0.018759804 -0.029725293
0003b0 79 a6 8b 3d f5 7d 0d 3d 37 62 f7 bb 20 ac b3 3c
       0.068188615 0.03454395 -0.00754955 0.021932662
0003c0 e7 d7 57 bd 4b a1 8b bc bb 15 07 3c 08 68 a0 3c
       -0.052696135 -0.017044684 0.008244927 0.019580856
0003d0 4d 03 f1 ba 2d 44 77 bd ae a1 e6 3c 12 8e 1e bc
       -0.0018387825 -0.060367752 0.028153267 -0.009677427
0003e0 64 aa 44 bd 8e 4a 9e bd af b6 82 3c dd 18 45 bd
       -0.04801406 -0.07729064 0.015956251 -0.048119415
0003f0 4a f4 ac 3d 5e 1c 99 bd 5a 6f 32 3c ca 95 89 3d
       0.08445032 -0.07476114 0.010890806 0.06718023

conv2.bias f4 [32]
000000 ec 21 63 bd d5 60 98 bd 7f b1 53 3c bc 9a 6b bd
       -0.055452272 -0.07440344 0.012920736 -0.057520613
000010 b1 04 c3 bc 5a 4f 93 3d 5c 95 5b bd c8 35 93 3d
       -0.023805948 0.071928695 -0.053609237 0.07187992
000020 2f 1e 73 3d 0f 5d 2d bd 73 04 9e 3c f2 30 f6 3c
       0.059354957 -0.042325076 0.01928923 0.030052636
000030 44 63 db 3c 68 92 6a 3d c3 ee aa bc f8 3a 9a 3d
       0.026780732 0.05726853 -0.020865804 0.07530779
000040 62 a4 8a 3d cd 49 87 bd 8c b1 95 bd 9c 77 51 3d
       0.06769635 -0.06605873 -0.07309255 0.05113946
000050 91 61 75 3c 2c a0 9d bd 10 6d 41 3d 11 a9 22 3d
       0.014976875 -0.07696566 0.04722315 0.039712016
000060 90 16 89 3d cd 92 7f bd 86 91 2e bc a6 55 a3 bd
       0.066937566 -0.06239586 -0.010654813 -0.079753205
000070 d7 c6 31 3d 93 48 81 3d b8 3e 10 3d 7c 4e 2c bd
       0.04340252 0.063126706 0.035216063 -0.042067036

fc1.weight f4 [128, 800]
000000 0c 68 15 bc b8 8d a9 3c c1 6b f9 bc ca 05 b3 bb
       -0.009119045 0.02069746 -0.030446889 -0.0054633366
000010 63 33 84 3b a0 81 56 3c ac e0 2a bc 1c 60 e1 3c
       0.004034446 0.013092428 -0.0104295425 0.027511649
000020 31 1e e2 3b 40 ff ce 3a 23 c9 ed 3a c6 3d e3 ba
       0.0069005718 0.0015792623 0.0018141608 -0.0017337136
000030 54 6e 06 bc 3e ae da bc 89 a2 98 bb c4 c9 07 bd
       -0.008205015 -0.026694413 -0.0046580476 -0.033151403
000040 88 28 88 bc c6 b6 13 3c a8 7f fe 3c 77 fc 08 bd
       -0.01662089 0.009015745 0.03106673 -0.033443894
000050 0f ea 1e 3c 16 ed ab b9 28 4e 97 3c 03 43 a0 bb
       0.009699359 -0.00032792304 0.018469885 -0.004890801
000060 9b b3 fa bc f3 71 dc bb be ac 0b bd 80 c5 c9 3b
       -0.03060322 -0.006727451 -0.034100287 0.006157577
000070 a1 1c e3 bb 01 66 0b bd 19 fc 1e 3c b4 37 20 3c
       -0.006930903 -0.034032825 0.009703659 0.009778906
000080 4b e9 86 3c d9 e5 2b 3c 84 9f a8 3b 7d 1a c1 bb
       0.016468665 0.010491812 0.005145969 -0.00589305
000090 48 27 20 3b f4 03 55 bb 06 0e 05 3b 01 cb d2 bc
       0.0024437476 -0.0032503577 0.0020302548 -0.025731565
0000a0 73 75 17 bc 09 de a5 3c a6 9e 22 bb 2d a3 c9 3c
       -0.009244311 0.020247476 -0.00248138 0.024613941
0000b0 fd cf 7a 3c 5a d0 1d bb 20 39 83 bc 24 a6 9d 3c
       0.015308377 -0.0024080486 -0.01601845 0.019244261
0000c0 69 9e ff 3b 96 06 df bb 56 06 17 bc 3d 86 fe bc
       0.0078008664 -0.006806205 -0.009217819 -0.03106987
0000d0 e5 5e fe bc 1d f3 d8 bc 64 9c 8b ba 7e 19 b4 3c
       -0.031051109 -0.026483113 -0.0010651466 0.021984812
0000e0 b0 3d 8e 82 27 84 89 bc 49 43 ca bc 8f 21 a4 3c
       -2.0900432e-37 -0.016786648 -0.024690287 0.020035533
0000f0 19 73 f8 3c ef d9 32 bc 64 a2 4f bc 0f 09 2a 3c
       0.03032832 -0.010916217 -0.012672994 0.010378136
000100 61 3d bf 3a f2 b2 8d 3c 67 b0 17 3c 5e 9f 6e 3c
       0.0014590436 0.017297242 0.009258366 0.014564363
000110 9f 86 a7 bc ef 0f ed ba 6d 7c bc 3c 31 34 ad bc
       -0.020449935 -0.0018086414 0.02300855 -0.02114305
000120 ad d0 29 3c 36 cc de 3c 31 c3 d0 bc ae 73 38 3c
       0.010364694 0.027196985 -0.0254837 0.011258049
000130 4c 90 63 ba 63 d3 c8 3c 50 4e 08 3d bb a4 a2 3c
       -0.00086808647 0.02451486 0.03327781 0.01985394
000140 83 41 3a 3c d7 09 48 bc 85 55 0b 3d 93 11 d5 3b
       0.011368158 -0.012209377 0.034017105 0.006502339
000150 26 eb f4 3c fb 61 83 bc ce 9a 98 bb 25 14 4a 3c
       0.029897284 -0.016037932 -0.004657126 0.012333904
000160 09 15 4c bc fa 77 c2 3c 7c 33 57 bc 24 01 33 ba
       -0.012456187 0.02373885 -0.013134833 -0.0006828478
000170 de e1 fe bc c6 5e 14 bc db 77 03 bd 54 17 39 bc
       -0.031113561 -0.009055799 -0.032096725 -0.011297066
000180 a8 00 99 3c 1d 40 65 3c 0c 22 0a bc e0 9d 02 bd
       0.01867707 0.013992337 -0.008430969 -0.031888843
000190 22 52 1e bc d7 a3 96 bc 82 31 b6 bb 28 3d 89 ba
       -0.009663137 -0.018388672 -0.005560101 -0.0010470496
0001a0 2d 5c 41 bc 56 45 d4 3b 6e e0 25 bc ac 29 97 3c
       -0.011801762 0.006477992 -0.010124309 0.018452488
0001b0 09 06 ad bc bd 16 03 3d 91 92 2c bc 99 8c f9 b5
       -0.021121042 0.032004107 -0.010532991 -1.8592865e-06
0001c0 e5 a6 2e 3c b0 a4 b5 3c 75 87 a1 3c f0 81 a9 bc
       0.010659908 0.022173256 0.019717911 -0.020691842
0001d0 2b 5d aa 3c 72 ce 0b ba a1 ae c3 3c 3d c8 ee 3c
       0.02079638 -0.0005333192 0.02388698 0.029148215
0001e0 6d 73 fd 3b 7d 19 9e 3b 2d ba f7 bc 00 09 c7 3c
       0.007734707 0.004824816 -0.030240143 0.024296284
0001f0 eb 29 98 3c 78 3a 45 3c be 1b 91 bc b2 49 e9 bc
       0.018574676 0.012037866 -0.017713424 -0.028477523
000200 26 62 f7 bc 67 4b 13 3c 5f cb 05 3d 01 0f 08 3d
       -0.030198168 0.008990145 0.032664653 0.033217434
000210 de ef 5d 3c 12 c4 c4 bc 0d 72 c2 bc 03 7c d1 3b
       0.013545958 -0.024019275 -0.023736024 0.006392957
000220 f3 a0 f3 3a 5e 0d 0b bd ed 1e cb bc 6a 06 05 bc
       0.0018587395 -0.033948295 -0.02479502 -0.008119205
000230 c0 f2 6a bb 87 0a 08 3d 14 3b c5 3b 8a 89 c5 bc
       -0.0035850257 0.033213165 0.0060190056 -0.024113435
000240 64 cd 04 3d 3a ca 92 ba b2 08 43 bb 4d e0 ca 3c
       0.03242244 -0.0011199184 -0.0029759821 0.024765158
000250 a8 75 a2 3c db 45 ca 3c b5 bb 57 39 01 0d 84 3c
       0.019831493 0.024691513 0.00020573924 0.016119482
000260 0b 15 c0 bc 3c 78 79 bb ca 57 e4 bc 34 2b f6 3c
       -0.023447534 -0.003806605 -0.027873892 0.030049898
000270 44 fa 60 bc f4 e7 1c 3c 7f d6 13 3c b6 ba e9 bb
       -0.013731543 0.009576786 0.009023308 -0.0071328534
000280 97 06 0d bd 3a 9e 06 3d d5 31 59 3c bb 8b 51 3b
       -0.034430113 0.03286574 0.01325651 0.0031974155
000290 31 fe d1 3c 1a 7b b6 3c d7 6f 23 ba ed 7a 03 3d
       0.025633903 0.022275496 -0.0006234622 0.032099653
0002a0 55 52 04 3d 27 2d fb 3c 6c 5f c0 bc 43 ef 21 3c
       0.03230508 0.030661179 -0.023483 0.009883705
0002b0 3d 8e d6 bb 43 ae 11 bd b6 4d c4 bc e1 d1 11 bc
       -0.006547718 -0.03556658 -0.023962837 -0.008900137
0002c0 30 e1 fb 3c 18 3d 13 bc 1a 8a 48 3b 61 cd b0 bc
       0.030747026 -0.008986734 0.0030599893 -0.021582307
0002d0 8a 6c b3 ba c5 b7 33 3c 1a c4 10 bd ba 20 02 3c
       -0.0013688963 0.010969107 -0.035343267 0.007942373
0002e0 d5 88 7f bc 41 74 a7 bc e9 44 80 3c 69 fa f1 bc
       -0.015596588 -0.020441176 0.015657859 -0.02953835
0002f0 e0 8b a3 bc ea d7 ee bc 0b 62 86 bc e5 9e 50 3c
       -0.019964159 -0.02915569 -0.016404172 0.012733196
000300 30 e2 8e 3c d8 e6 c6 bc 3c 8e 76 b9 e6 ce 9d ba
       0.017441839 -0.024279997 -0.00023513375 -0.001203981
000310 ef 3c 07 bd 5e 24 0b bd 2c 93 ef 3c bb 3c e7 3c
       -0.033017095 -0.03397023 0.029244982 0.0282272
000320 b1 97 49 3c d2 21 bd 3c 72 03 c4 3c 84 d9 6e 3c
       0.012304232 0.023087416 0.023927424 0.014578227
000330 6a ad ef bc e0 e9 eb bc be ad 96 3c 13 22 0f 3c
       -0.029257495 -0.028798044 0.018393394 0.008736151
000340 17 55 a9 bc 1b ab b7 bb a8 a8 dc 3b 13 58 c8 3b
       -0.020670457 -0.005605114 0.0067339726 0.006114015
000350 83 10 35 bb 1e 5b ab 3a 4f c8 fb 3c f3 00 13 bd
       -0.002762825 0.001307342 0.030735163 -0.035889577
000360 d2 33 e9 3b 63 d8 e0 3b ef bf 12 bd f3 48 bf 3c
       0.007116773 0.006861733 -0.035827573 0.023350215
000370 a8 d0 f4 bc f4 8d 6e 3c a8 56 7f bc dd c5 f8 bc
       -0.029884651 0.014560211 -0.015584625 -0.030367786
000380 34 aa 07 bc e4 e7 ea bc 33 a4 d5 bc 02 fb b6 ba
       -0.008280326 -0.028675027 -0.026079273 -0.0013960304
000390 ab ad f2 bc 41 a1 11 bd 0c ca 09 3c 6e f9 db bc
       -0.029623827 -0.035554174 0.008409988 -0.026852336
0003a0 01 bf 02 bd 0f c8 87 bb bf 54 4d bc 39 eb 71 bc
       -0.031920437 -0.004143722 -0.012532412 -0.014765554
0003b0 63 04 a1 3a 86 b8 b9 ba 7d e4 fc 3c 98 88 f6 bb
       0.0012284633 -0.0014169372 0.03087067 -0.0075236075
0003c0 9e c0 47 3c a7 cd 89 bc ed c0 de bc 44 ef a3 3c
       0.01219192 -0.016821695 -0.027191604 0.020011552
0003d0 94 06 42 3c c6 19 72 bb 32 c0 67 bc 0e b1 b0 3c
       0.011842389 -0.0036941632 -0.014144944 0.021568801
0003e0 ea 97 0b bd dc 9d 32 bc 19 14 e1 3b 29 47 8c 3c
       -0.034080423 -0.010901894 0.006868851 0.017123776
0003f0 33 33 ef 3c 26 78 23 3b e1 09 31 3b 42 70 83 bc
       0.029199218 0.002494344 0.0027013945 -0.01604474

fc1.bias f4 [128]
000000 9e 13 8c bc e5 19 e2 bc f6 dd 5c bc 8f fb aa 3c
       -0.017099198 -0.027600238 -0.013480654 0.020871906
000010 26 de f9 3b 53 80 3f bc ae 4c 8b 3c a9 08 ee bc
       0.007625359 -0.01168831 0.017004337 -0.029056864
000020 5e e1 6d 3c e8 77 88 3b ca 6e 0a bd 6d 00 c5 bb
       0.014519064 0.0041646846 -0.033797063 -0.0060120136
000030 ad 11 a0 ba 00 6f 8e bb 96 8e da bb 64 60 91 bc
       -0.0012212299 -0.0043467283 -0.0066698296 -0.017746158
000040 2d 0b 28 3c b8 de b7 bc b3 d8 cc 3c 78 39 88 bc
       0.010256571 -0.022445068 0.025005674 -0.016628966
000050 18 45 72 bb ec b4 cc bc 8b 9d eb 3c 10 9f c4 3b
       -0.0036967453 -0.024988614 0.028761646 0.006000407
000060 a6 22 d1 3c a6 f5 e7 bc c5 e3 de bc 0c c9 ad 3b
       0.025529217 -0.028315376 -0.027208218 0.0053035077
000070 30 ac cc 3c 2b 67 da 3c 54 d3 e3 bc 63 78 8e 3c
       0.02498445 0.026660522 -0.02781073 0.01739139
000080 0b 65 41 3c c8 76 12 2d 5f 0d fa bb 3a b5 93 3a
       0.011803876 8.325514e-12 -0.0076309885 0.001126922
000090 81 2e 98 3c 4c 26 d3 bb 56 e6 0b 3b 2e a5 8f 3b
       0.018576862 -0.0064437743 0.0021347008 0.0043837046
0000a0 71 ce f1 3c 12 04 7b 3b 13 a6 db bc 5a a3 39 ba
       0.029517384 0.0038301987 -0.026812589 -0.0007081531
0000b0 25 7a 47 bc 59 49 54 3c cb fc 65 bc 11 28 88 bc
       -0.012175118 0.012956941 -0.014037321 -0.016620668
0000c0 8c 3a 00 3d 6c 66 69 bc 48 22 2f b7 d6 cb c9 3b
       0.031305835 -0.014245611 -1.0438795e-05 0.0061583323
0000d0 a5 2e 1a 3c d2 0f 33 bb e4 84 1b bc c3 5b d7 3c
       0.009410535 -0.0027322662 -0.009492133 0.026288873
0000e0 77 7c 86 3c 2e e2 03 3d ea 8a 69 bc e0 ae 00 3c
       0.016416771 0.032198124 -0.014254311 0.007854193
0000f0 78 0e fc 3c 85 98 59 3c b9 6e d6 3b 2d 80 08 3c
       0.030768618 0.013280992 0.006543961 0.008331341
000100 78 bf ea bb d8 a2 d1 bc 9f 1a 97 3b 6d 8a 02 3d
       -0.007163938 -0.025590345 0.004611328 0.031870294
000110 6c 51 bb 3c 37 24 c3 bb 02 3c 54 bb 8f 13 b8 ba
       0.022865973 -0.005955245 -0.00323844 -0.0014043915
000120 6f 7a 47 bc 72 4f ab 3c 29 22 cf 3c 48 7f 39 bc
       -0.012175187 0.020911906 0.025284844 -0.01132185
000130 f5 fa bb 3b 1a b3 50 3c 89 96 7d bc 75 75 56 3c
       0.0057367035 0.012738014 -0.015477785 0.013089527
000140 09 c7 e2 bc da ee 67 3c ea 1b 99 3b 1c 89 d3 3c
       -0.027682798 0.014156068 0.004672517 0.025822215
000150 cb 2f ca bc d2 c5 85 3c 03 07 4d bc 7a 05 2e 3b
       -0.024680993 0.01632968 -0.012513879 0.0026553557
000160 db 67 ca 3b fa 14 98 bc ca f2 08 3d cd 06 b7 39
       0.0061769313 -0.01856469 0.033434667 0.00034909547
000170 71 2b 62 3c d3 5b 27 bc 36 60 b0 bc 89 e7 28 bc
       0.013804303 -0.010214764 -0.021530252 -0.0103091085
000180 9f b8 44 3c 05 3b 25 3c 3f 64 ce bc 2f 0d 92 3c
       0.012006908 0.010084872 -0.025194285 0.017828552
000190 48 00 82 bc 9c 9b b9 3c b0 cd 48 bb 8f 4f 6f 3c
       -0.015869275 0.022657208 -0.0030640177 0.014606371
0001a0 37 9c dc 3c 37 8e 07 80 61 96 23 bc cd 1f cf bb
       0.026929958 -6.93866e-40 -0.009984584 -0.0063209296
0001b0 58 11 ee bc db 01 54 bb 9b 24 ed bb 28 6d e6 3c
       -0.029061005 -0.0032349739 -0.0072370297 0.028128222
0001c0 a9 1d 95 bc bb dd c1 bc 55 e3 29 3b b7 7c c2 bc
       -0.01820262 -0.0236653 0.0025922854 -0.02374111
0001d0 28 33 af bc 89 26 37 bc 6e 8d 0d 3d 35 f1 93 bb
       -0.021386698 -0.011178621 0.034558706 -0.004514838
0001e0 58 de b3 3b 8e 49 07 3d 03 cb 99 bb 39 c3 c9 3c
       0.005489152 0.03302913 -0.0046933903 0.024629222
0001f0 6e 86 4d bc 5e f3 49 bc 73 dc 4c 3c f6 f9 eb 3b
       -0.012544258 -0.01232609 0.012503731 0.0072014285

fc2.weight f4 [60, 128]
000000 88 bc 2a 3d 21 db e4 bc 90 c9 b7 bd e3 12 24 3d
       0.041683704 -0.02793652 -0.08973992 0.040057074
000010 3d 0a 38 3d a4 37 e3 3c f3 b4 01 bc 28 ea 48 3b
       0.04493164 0.027736492 -0.007916677 0.0030657146
000020 0d 7e 98 3d 7e 27 99 bd 0d 4d 12 3d 30 e9 60 3d
       0.07445917 -0.07478236 0.035718013 0.054909885
000030 80 19 02 3d fc 2a 06 bd a4 c3 90 bd 1c b6 f2 3c
       0.0317626 -0.032755837 -0.070685655 0.029627852
000040 3f 62 2a 3d a3 17 b8 3c ca 1f 35 3d 1e bf 4e bd
       0.0415976 0.022472208 0.04421977 -0.050475232
000050 27 b2 01 3d 6c 42 78 3c 0d 96 06 3d 79 e0 7b 3b
       0.03166404 0.015152555 0.032857943 0.0038433357
000060 84 66 ca 3c 97 86 0f bd f0 ff 93 3d 32 18 a2 bd
       0.024707086 -0.035040464 0.072265506 -0.07914771
000070 17 2a 8d 3d 8f a7 63 bd b3 33 e1 bc b0 b0 96 3d
       0.068927936 -0.05557972 -0.027490472 0.07357919
000080 d9 f7 82 bd cb 94 9e 3d 80 b1 5b bd 14 f4 26 3d
       -0.063949294 0.07743224 -0.053636074 0.040760115
000090 e3 43 58 3d c1 d7 06 bc 29 c2 a0 bd 5f b5 90 bd
       0.052799117 -0.008230151 -0.07849533 -0.07065844
0000a0 77 7e af bd f1 92 79 bd b8 ea 50 bd d9 e7 10 3a
       -0.08569043 -0.06093115 -0.051005095 0.0005527712
0000b0 db a9 a2 3d b5 af 6a bd f9 2a 32 bd 2c f1 61 bd
       0.079425536 -0.057296474 -0.043498013 -0.05516164
0000c0 84 c8 8c 3d 1c db 53 bc 42 a5 bf 3a ff fb 85 3d
       0.06874183 -0.012930658 0.0014621394 0.06542205
0000d0 b5 f9 9a bd cb f7 a2 bd 48 98 4d bd 9a ac ce bc
       -0.07567159 -0.07957419 -0.050194055 -0.025228787
0000e0 ab 9c 45 3d dd 04 8f 3d 48 09 24 bd 2a f2 4a 3d
       0.048245113 0.069833495 -0.040047914 0.049547352
0000f0 b9 6a 1f 3c ac 1a b2 3c 95 59 65 3c ba 81 a2 bd
       0.0097300345 0.021741234 0.013998409 -0.079349
000100 3a be 8f 3d ba 39 a3 bc c9 92 48 3d 26 d1 1a 3d
       0.07018705 -0.019924987 0.04896811 0.037797116
000110 55 4d 82 3d 63 eb 7e 3d 66 32 8d 3d c2 e1 8c 3d
       0.06362406 0.0622362 0.06894378 0.068789974
000120 a9 5e 18 3d 48 e2 73 3d 05 56 00 bd 16 7c 8f 3d
       0.03719965 0.05954197 -0.031332035 0.070060894
000130 f1 4c 60 3b 87 82 c0 bc e4 2a 7a 3b 72 2f 5e 3d
       0.0034225548 -0.02349974 0.0038172537 0.054244466
000140 94 23 3f 3d be 07 8a 3d 5f f3 a6 3d 23 37 40 3c
       0.04666479 0.06739758 0.08151888 0.011731896
000150 a1 17 8d bd eb 76 90 bb e7 1f cb 3b 1b 65 ff bc
       -0.068892725 -0.0044087074 0.0061988714 -0.03117614
000160 3d b0 a2 bd 00 94 3a bd 32 c2 9e 3d bc 64 69 bb
       -0.07943771 -0.0455513 0.077518836 -0.003561302
000170 40 10 8e bd 30 f8 d8 3c e2 01 a5 bc c0 8d 72 3d
       -0.06936693 0.026485533 -0.0201425 0.059217215
000180 92 44 3a 3d 9e 1f 01 3b bc af 2f bd e4 74 4a bc
       0.04547555 0.0019702683 -0.042892203 -0.01235697
000190 61 4d 89 bd ad ef 93 bd 16 72 72 3d fa 5e 0d bd
       -0.06704212 -0.07223449 0.059190832 -0.034514405
0001a0 f2 52 8b 3d bb f7 3c bd cd 81 bf bb 7b 3e 83 3c
       0.0680293 -0.04613469 -0.005844331 0.016021004
0001b0 6d 12 77 bd 3e 06 09 bd 48 dd 5e 3c 50 a8 85 3c
       -0.060320307 -0.03345322 0.013602562 0.01631561
0001c0 b3 81 bc 3c 90 18 b8 bc 5c 87 73 3d 5a 87 73 3d
       0.023011064 -0.02247265 0.05945526 0.059455253
0001d0 3e 89 4a bd f2 09 85 3d de eb d4 3a 4e cb 47 bd
       -0.04944729 0.064960375 0.001624461 -0.04877787
0001e0 4f 99 a3 bc da 10 19 3d 53 e0 8f 3c a7 71 a2 3d
       -0.019970564 0.037369587 0.01756302 0.07931834
0001f0 92 01 97 bd e8 55 9f 3d a9 ba 89 bd cf 0f 9b bc
       -0.073733464 0.07780057 -0.06725056 -0.018928437
000200 fb 1e 4b 3c 94 d7 b5 3d 08 90 97 bc 7e 7e b2 bc
       0.012397523 0.08879009 -0.018501297 -0.021788832
000210 d6 33 c9 bc 78 ad 56 3d a6 3e 47 3d dd 07 00 bd
       -0.02456085 0.052411526 0.04864373 -0.0312575
000220 39 39 58 3d b1 5d a6 bd 4d 0d a8 bd ac 0f 49 bd
       0.052788947 -0.08123339 -0.08205662 -0.04908721
000230 ff 61 9c bd 8c 66 8d 3d 34 6e 49 3c 8f 21 16 3d
       -0.07635879 0.06904325 0.012294341 0.036653098
000240 fd 94 63 bd ff 26 a2 bd 8b eb 4e 3d 30 c0 28 bd
       -0.05556201 -0.07917594 0.0505176 -0.04119891
000250 25 6f 3c bd b9 ab bc 3c 85 7c 3b 3d 0b 6e 21 3d
       -0.046004433 0.023031102 0.045773048 0.039411586
000260 19 f4 46 bd 66 86 0f 3d 31 57 12 bb 68 1b cf bc
       -0.048572633 0.03504028 -0.0022329802 -0.025281623
000270 27 9f 1b bc f9 aa 2c 3c a8 52 69 bc 9b 7a 6f bc
       -0.009498394 0.01053881 -0.014240898 -0.014616634
000280 64 26 09 3d 41 2a ae bc b2 74 0c bd cc c6 a2 3d
       0.033483878 -0.021260383 -0.034290977 0.07948074
000290 bc f9 6d 3d 72 69 b3 bd c6 49 3c 3d fb 4c f0 3b
       0.058099493 -0.087603465 0.045968793 0.0073333955
0002a0 e6 c9 0d 3c 49 e7 27 bd ad 7b b7 bc a4 2b fb bc
       0.008654093 -0.040992055 -0.02239784 -0.030660458
0002b0 a9 85 a1 bc 77 90 95 bd 0a b7 db 3c 60 f4 c7 bc
       -0.019717054 -0.07302945 0.026820678 -0.02440852
0002c0 a6 4e 42 3d 92 4d d7 bc 06 8e 76 3d 8e 9c 71 bd
       0.047438286 -0.026282106 0.060194038 -0.058987193
0002d0 0f b1 5c bc a9 d1 1d bd cc 90 b2 bc 34 1f 5b 3d
       -0.013469948 -0.038530026 -0.02179756 0.053496554
0002e0 1c 8c a4 bd c1 00 a6 3d 1c 4f e5 bc 16 ea b1 3d
       -0.08034536 0.081056125 -0.027991824 0.086872265
0002f0 f9 78 a9 bc 6c ca 34 bd aa 50 69 3d 59 b2 70 bd
       -0.020687567 -0.044138357 0.056961693 -0.058763836
000300 e8 b0 1c 3d a1 2e ac bd 7d 65 98 bd 74 3a 62 bb
       0.03825465 -0.08407331 -0.07441232 -0.0034519704
000310 8f 6e 11 bd f4 06 4a 3c ec 66 67 bc c3 f4 24 bd
       -0.035505828 0.012330759 -0.01412366 -0.040272485
000320 8a a0 b3 bd 03 28 84 3c 84 1d 7c 3d 2c 66 37 bd
       -0.08770855 0.01613236 0.061551586 -0.044775173
000330 e9 c6 ee bb 58 fa af bd 4d b8 ee 3b 1b 9c 0e 3d
       -0.0072868955 -0.08592671 0.007285154 0.034816843
000340 8c 56 4f 3d 36 b0 51 bd ce 80 77 3d cd 7d 63 3d
       0.050619647 -0.05119344 0.060425572 0.055539895
000350 0e 03 6a bc c7 f3 92 bd f0 4f 87 3d 21 e9 04 3d
       -0.014282955 -0.07175403 0.06607044 0.03244889
000360 62 46 a7 bd 9c e7 bb 3b 30 1d a6 3d 8a 9c 0f 3c
       -0.08167721 0.005734397 0.08111036 0.008765349
000370 b9 f4 81 3d e0 0a af 3d 54 8a 85 3d 5a 79 94 bd
       0.06345505 0.08546996 0.065205246 -0.072497085
000380 b5 20 16 3d 11 7d af 3d ff 79 c7 3c 34 45 3e bd
       0.036652286 0.085687764 0.024350164 -0.046452716
000390 f7 c5 8d 3d 7b fc 8a bc 2d 7e b0 bd f8 47 8a 3d
       0.069225244 -0.016966095 -0.08617816 0.06752008
0003a0 ba 8e 96 bd 11 07 95 3d a5 a0 08 3d 8a cd bb 3c
       -0.07351442 0.072767384 0.033356328 0.022925157
0003b0 5e 0b 36 3c 8e a9 12 3d aa fb 73 bd 96 9f 27 3d
       0.011111109 0.03580623 -0.059566177 0.040923677
0003c0 a9 ed 76 3d b5 48 79 3a fe b6 51 bc 28 40 39 3d
       0.060285244 0.00095094304 -0.012799976 0.0452272
0003d0 6f 94 19 bd 05 78 a3 bd f3 d3 65 3d 29 cd c3 bc
       -0.037495073 -0.07981876 0.056110334 -0.023901539
0003e0 38 21 bc 3c ee 8f 7c bc 49 19 85 bd 85 82 9c bd
       0.022965059 -0.015415175 -0.064989634 -0.07642082
0003f0 45 6a 83 bd 85 da 82 3c 7e 7d 11 3d 64 86 85 bd
       -0.06416754 0.015973339 0.03552007 -0.065197736

fc2.bias f4 [60]
000000 45 83 41 bd b6 d4 99 3d b6 74 6a 3d 4a 56 a8 3d
       -0.04724433 0.075112745 0.05724021 0.08219583
000010 bf 74 9a bc 7b 42 3e 3d ab e1 b9 bc c7 42 12 3c
       -0.018854497 0.04645012 -0.022690615 0.008927054
000020 0f 13 87 3d c7 b2 9a bd fa 67 0d bc a7 26 c6 bc
       0.06595432 -0.0755363 -0.008630747 -0.024188353
000030 ec f7 a4 bd 5c 74 a5 bc aa 95 02 3c e1 80 2b bd
       -0.080551 -0.020197086 0.007970253 -0.041870955
000040 3b c4 10 bc d9 cb a6 bd 00 1a 93 3d 77 b9 95 3d
       -0.0088358475 -0.081443496 0.071826935 0.07310765
000050 c5 b9 83 3d be fa bc 3c 8b 4f 93 bc 71 64 2d bc
       0.06431917 0.023068782 -0.017982265 -0.010583029
000060 69 09 98 bd f9 1c a1 bc 6e 07 39 3d 8f b4 7f bd
       -0.0742367 -0.019667136 0.0451731 -0.062428053
000070 81 44 6c bd 57 ad 9f bd f5 0d 93 bd b2 42 75 bc
       -0.057682518 -0.07796734 -0.071803965 -0.014969515
000080 97 ee 6f bd 34 3f c0 bc 72 b7 81 bd 75 98 9c 3c
       -0.058577146 -0.023467638 -0.063338175 0.019115666
000090 6a 0d 39 bd 88 aa 31 bd be 4d 75 3a 55 ff 0d bd
       -0.04517881 -0.043375522 0.0009357593 -0.03466733
0000a0 d7 1c 74 bd 76 16 89 bd 84 2c 6e bd ec af 8f 3c
       -0.059597816 -0.06693737 -0.058147922 0.01753994
0000b0 19 26 0b 3d 30 b1 4b 3d 27 d6 4f bc 93 8d 8b 3d
       0.03397188 0.049729526 -0.012685335 0.068141125
0000c0 25 bc ab bd 54 b0 9f 3d 36 06 92 3d 9f ea 48 3b
       -0.08385495 0.07797304 0.07130091 0.0030657423
0000d0 89 6b cf 3b 75 66 72 3c 35 5f 95 bd a7 c9 0f 3d
       0.006329958 0.0147949355 -0.0729355 0.03510442
0000e0 05 6b a5 3d 7f b4 a8 bd 01 d5 7f bd c9 d0 23 3d
       0.08077053 -0.08237552 -0.062458996 0.039994035
