model/芙宁娜/CharacterClassify_10.pth (torch, 463040 bytes, 8 tensors)

conv1.weight f4 [16, 1, 3, 3]
-0.23712035 -0.2290985 -0.20255518 0.26092583 -0.32931966 0.29877257 0.07635887 0.11945967
-0.31459484 0.28147715 -0.24908023 0.096636824 -0.0103865815 0.30186138 -0.33042133 0.16270153
0.20021431 -0.0761148 -0.2286901 0.16415517 0.17477365 -0.2758735 -0.2416215 0.20043263
0.31649607 0.2443034 0.2527376 0.044881344 -0.01034179 -0.14594394 -0.045209937 0.2707583
0.02228142 0.2704335 0.09579847 -0.04656786 -0.11875691 0.08468256 -0.123171315 -0.0142249195
-0.22365901 0.07294978 0.27430812 0.09311461 0.10148897 -0.20958552 0.23534508 -0.13741453
0.07831739 0.026129115 -0.19569527 0.32474914 -0.07299389 0.31215066 0.21600933 -0.1617806
0.10952085 -0.1275569 0.3196756 0.10928888 -0.14791018 -0.26226014 0.058413465 -0.14780176
0.2400929 -0.29685792 -0.29660225 0.19122428 -0.24712236 0.33032843 0.2813593 -0.11018771
-0.122998975 0.22098006 0.17113203 -0.2746343 0.09854311 -0.18938364 -0.33247963 -0.18099771
0.25873113 0.14707829 0.2315281 0.23550436 0.3093517 0.12679294 0.18836266 -0.27945626
0.21591964 0.28891614 -0.0012714489 -0.12638764 -0.22615159 -0.31900936 0.037367932 -0.30027896
0.012021589 -0.18253298 -0.24086028 0.3005282 0.10638346 0.03221584 0.016845845 0.3153876
0.20769116 -0.15205263 -0.14948787 0.27653027 -0.21906926 0.30086398 -0.08105075 0.13741785
0.25637835 0.13505484 0.29257092 -0.001207463 0.0724568 0.20189276 0.12050584 -0.26909292
-0.3038058 -0.06895117 -0.20376313 0.0061168917 -0.058784217 -0.31857577 -0.08215921 0.23005326
-0.08371096 -0.12540835 0.2406773 0.12296058 -0.15583643 -0.022828668 -0.1717379 0.16563824
0.16089389 -0.21615703 0.29105353 0.24415812 -0.07496871 0.047635607 0.23891476 -0.22553985
00000000: adcf 72be cc98 6abe a06a 4fbe 1298 853e
00000010: 969c a8be b8f8 983e 0a62 9c3d 45a7 f43d
00000020: 9312 a1be c61d 903e e30e 7fbe 87e9 c53d
00000030: 7b2c 2abc 938d 9a3e fc2c a9be 3b9b 263e
00000040: fb04 4d3e 14e2 9bbd bd2d 6abe 4b18 283e
00000050: ddf7 323e 4b3f 8dbe a06b 77be 363e 4d3e
00000060: c60b a23e ac2a 7a3e d366 813e 80d5 373d
00000070: 9c70 29bc 5472 15be 0e2e 39bd d5a0 8a3e
00000080: 8687 b63c 4276 8a3e fd31 c43d f1bd 3ebd
00000090: d336 f3bd 0d6e ad3d 3e41 fcbd a30f 69bc
000000a0: de06 65be b266 953d 1d72 8c3e dfb2 be3d
000000b0: 73d9 cf3d 969d 56be 4dfe 703e 65b6 0cbe
000000c0: de64 a03d ba0c d63c 5764 48be 8545 a63e
000000d0: d27d 95bd 36d2 9f3e 8d31 5d3e d0a9 25be
000000e0: 784c e03d 479e 02be 85ac a33e d9d2 df3d
000000f0: c475 17be f646 86be f542 6f3d 5859 17be
00000100: eada 753e c3fd 97be 40dc 97be 4cd0 433e
00000110: a50d 7dbe cf20 a93e 530e 903e 18aa e1bd
00000120: e3e6 fbbd 9948 623e 3c3d 2f3e de9c 8cbe
00000130: f8d0 c93d c9ed 41be c53a aabe 7757 39be
00000140: 6878 843e b19b 163e b415 6d3e 0e28 713e
00000150: 5963 9e3e 02d6 013e 24e2 403e e414 8fbe
00000160: 0a1a 5d3e d1ec 933e bfa6 a6ba c36b 01be
00000170: 4894 67be 3255 a3be 1e0f 193d 2abe 99be
00000180: 33f6 443c ede9 3abe 14a4 76be d5de 993e
00000190: 92df d93d c2f4 033d 4c00 8a3c 7c7a a13e
000001a0: feac 543e afb3 1bbe 5913 19be 6095 8d3e
000001b0: b153 60be d80a 9a3e f0fd a5bd 44b7 0c3e
000001c0: 0644 833e d14b 0a3e dbcb 953e bc43 9eba
000001d0: 3b64 943d fabc 4e3e c4cb f63d 8cc6 89be
000001e0: 6f8c 9bbe 4536 8dbd 48a7 50be 3570 c83b
000001f0: b8c7 70bd 5d1c a3be 1743 a8bd 1593 6b3e
00000200: a770 abbd 0c6b 00be 1c74 763e c2d2 fb3d
00000210: 9693 1fbe 3003 bbbc 0fdc 2fbe 129d 293e
00000220: 5ec1 243e 4558 5dbe f804 953e 9604 7a3e
00000230: 3289 99bd 8e1d 433d 12a6 743e ebf3 66be

conv1.bias f4 [16]
-0.05156229 -0.15099569 0.14035964 0.0796179 0.12989353 0.33301985 -0.32558218 -0.017148824
0.23321296 0.24335523 0.3281996 -0.1874094 0.026165169 -0.15973727 0.10109669 0.30209824
00000000: fb32 53bd 9d9e 1abe 70ba 0f3e b60e a33d
00000010: cf02 053e 9481 aa3e b5b2 a6be b17b 8cbc
00000020: 61cf 6e3e 1d32 793e c709 a83e 40e8 3fbe
00000030: 5658 d63c 2b92 23be c80b cf3d 9fac 9a3e

conv2.weight f4 [32, 16, 3, 3]
-0.025702646 0.065747224 0.06263946 -0.016489157 -0.02645106 0.062401235 -0.03849997 -0.019382644
-0.066366166 -0.01442373 -0.017566677 0.06684386 0.07989055 0.08145934 -0.004511088 0.045599606
-0.060359996 -0.08220212 0.07741288 -0.06464578 0.056365527 0.06643755 0.03863271 -0.058038298
0.03934678 -0.015990814 0.009129055 -0.0343662 -0.08114472 -0.022199653 -0.04234264 -0.08077927
0.031915672 0.033006325 -0.010754086 -0.021747515 0.0031134903 -0.055614717 0.08080645 0.07990241
-0.04956929 0.032119565 -0.06291851 -0.076648 0.0517595 -0.08212841 0.040111467 0.076579146
0.038935687 0.07481756 0.074548565 0.0072630886 0.06731456 0.02545951 -0.057264145 -0.027165426
-0.031185323 -0.057807457 0.008923946 0.00787848 -0.0767533 -0.07582671 -0.033304714 -0.0013415208
-0.079460375 -0.055527296 0.0037363158 0.08281727 -0.066075295 -0.07658597 -0.00041338147 0.045933947
-0.06613698 0.015170967 0.07473373 -0.06273571 -0.054234415 -0.01906808 0.018124375 -0.008516703
-0.0055367905 0.032404907 0.06384079 0.012780507 0.060207486 0.043358088 0.035729617 -0.058938485
-0.028639847 -0.03241013 0.033834375 0.07728384 -0.047517944 -0.016819945 0.048902962 -0.020689761
0.054326862 0.012452935 0.07778281 0.007803411 0.05453532 -0.07537051 0.038352977 -0.061704397
-0.067317575 0.0013557387 -0.044718497 0.004100467 0.06690886 0.070027165 -0.064705774 -0.062395904
-0.00069410657 0.015881203 -0.07133596 -0.07564896 -0.027902488 0.017798163 0.023070876 -0.07592471
0.020779878 0.081804484 -0.013121925 0.06549923 -0.038215794 -0.028718023 0.0019220489 0.0045172987
0.05979974 -0.013724256 -0.057768237 0.06104638 0.070584334 -0.038471393 0.08190649 0.055639125
0.029072877 -0.068290584 0.030670483 -0.019583419 0.0038068714 -0.060490265 0.047313944 -0.044760242
0.0068233865 -0.029162528 0.07256041 0.009012748 -0.043325637 -0.04582151 -0.06701643 0.008851996
0.036642358 0.057510514 -0.0036011827 -0.026812997 -0.052473735 -0.03985488 0.029218134 0.019765692
0.06400736 0.012742837 -0.07459837 -0.07314941 0.022934167 0.031111633 -0.025770258 -0.044546023
-0.051014945 -0.07919783 0.0054497435 -0.009274103 0.022989593 -0.034682326 -0.065041 0.056656264
0.039774716 0.05664924 -0.0382177 -0.060859505 0.056111865 0.04199945 0.01938792 -0.03487236
0.07868246 -0.0622613 -0.058718972 -0.030922651 0.019503504 -0.019103099 -0.059429985 -0.00536676
-0.067397065 -0.028056648 -0.0143235875 0.026489487 -0.007978558 -0.017056683 -0.079467244 -0.0817354
-0.03920441 0.07687228 0.08285932 0.03188336 0.041710164 0.061056957 0.059882253 -0.005916913
0.016746037 -0.05691697 0.0033639898 -0.008865257 0.03502107 0.079369195 0.064794816 -0.06346057
-0.03816731 -0.03213917 -0.01908008 0.011167276 -0.03905617 0.049988195 0.0014565247 -0.06000098
-0.007168366 0.08121528 -0.06979901 -0.04854104 -0.04746354 0.03359797 -0.023542307 0.019020706
-0.005624992 0.069843374 0.012729261 -0.08000876 0.029900102 0.012348888 -0.022297213 -0.03245454
0.0019369419 0.030079672 -0.047820587 0.047627885 0.08054049 0.0072769634 0.053319752 0.07678544
0.051661454 0.07517158 -0.047964755 0.023697086 -0.02231136 -0.023213975 0.007981213 0.014672584
00000000: 5b8e d2bc 7ba6 863d 1e49 803d 4514 87bc
00000010: e5af d8bc 7098 7f3d 25b2 1dbd 5ac8 9ebc
00000020: fcea 87bd 8251 6cbc fee7 8fbc 6fe5 883d
00000030: a89d a33d 28d4 a63d c0d1 93bb a7c6 3a3d
00000040: 0b3c 77bd 9659 a8bd a58a 9e3d 0265 84bd
00000050: 8adf 663d 6910 883d 553d 1e3d 91b9 6dbd
00000060: 172a 213d 2bff 82bc 0892 153c 93c3 0cbd
00000070: 342f a6bd 0cdc b5bc 7a6f 2dbd 9a6f a5bd
00000080: 02ba 023d a431 073d e831 30bc d827 b2bc
00000090: b30b 4c3b 42cc 63bd da7d a53d e0a3 a33d
000000a0: 2b09 4bbd ce8f 033d 6bdb 80bd a0f9 9cbd
000000b0: c501 543d f132 a8bd ec4b 243d 87d5 9c3d
000000c0: 077b 1f3d f339 993d ebac 983d 34ff ed3b
000000d0: 37dc 893d 7690 d03c cf8d 6abd 078a debc
000000e0: 5d78 ffbc 83c7 6cbd be35 123c bd14 013c
000000f0: d630 9dbd 094b 9bbd 866a 08bd f8d5 afba
00000100: 1fbc a2bd 9770 63bd fadc 743b 1a9c a93d
00000110: 7c52 87bd 1bd9 9cbd 1fbb d8b9 3c25 3c3d
00000120: d372 87bd a68f 783c ff0d 993d 947b 80bd
00000130: e824 5ebd a934 9cbc 9279 943c a489 0bbc
00000140: f76d b5bb 02bb 043d f6be 823d 5565 513c
00000150: 209c 763d 4098 313d 3859 123d 7b69 71bd
00000160: 1d9e eabc 7cc0 04bd ea95 0a3d fd46 9e3d
00000170: 2da2 42bd fbc9 89bc 794e 483d 937d a9bc
00000180: d885 5e3d 6507 4c3c 984c 9f3d c2b3 ff3b
00000190: 6d60 5f3d db5b 9abd 0318 1d3d c0bd 7cbd
000001a0: ccdd 89bd 0bb3 b13a be2a 37bd 365d 863b
000001b0: 8307 893d 676a 8f3d 7684 84bd d992 7fbd
000001c0: b4f4 35ba 4c19 823c 9618 92bd d8ed 9abd
000001d0: c293 e4bc 74cd 913c 22ff bc3c 6a7e 9bbd
000001e0: 903a aa3c 1c89 a73d 58fd 56bc 7624 863d
000001f0: 2a88 1cbd 0f42 ebbc 42ed fb3a d905 943b
00000200: 92f0 743d b4db 60bc 639e 6cbd c50b 7a3d
00000210: 858e 903d 2e94 1dbd 97be a73d dae5 633d
00000220: 3e2a ee3c efdb 8bbd aa40 fb3c 686d a0bc
00000230: b47c 793b a4c4 77bd 44cc 413d 8456 37bd
00000240: b796 df3b 41e6 eebc 8d9a 943d 34aa 133c
00000250: 3976 31bd 56af 3bbd e93f 89bd f607 113c
00000260: 4c16 163d 2590 6b3d d201 6cbb eea6 dbbc
00000270: b3ee 56bd df3e 23bd de5a ef3c a9eb a13c
00000280: 4a16 833d 55c7 503c 08c7 98bd 5ccf 95bd
00000290: 6fe0 bb3c d3dd fe3c 261c d3bc e475 36bd
000002a0: 0cf5 50bd 7932 a2bd c393 b23b 68f2 17bc
000002b0: ac54 bc3c 0e0f 0ebd 3734 85bd 6610 683d
000002c0: d0ea 223d 0909 683d 2a8a 1cbd d147 79bd
000002d0: 8ed5 653d 9e07 2c3d 6ad3 9e3c 52d6 0ebd
000002e0: 4524 a13d b405 7fbd 4e83 70bd 8051 fdbc
000002f0: d0c5 9f3c 1a7e 9cbc db6c 73bd a5db afbb
00000300: 7907 8abd 0ed7 e5bc 7bad 6abc 7b00 d93c
00000310: 7fb8 02bc 75ba 8bbc b9bf a2bd e464 a7bd
00000320: ce94 20bd 376f 9d3d 26b2 a93d 2098 023d
00000330: 47d8 2a3d dc16 7a3d 1847 753d aae2 c1bb
00000340: fc2e 893c c521 69bd 6276 5c3b 953f 11bc
00000350: 4172 0f3d 518c a23d 25b3 843d 9ef7 81bd
00000360: 5355 1cbd 5da4 03bd d44d 9cbc f3f6 363c
00000370: 5df9 1fbd 6cc0 4c3d dce8 be3a 96c3 75bd
00000380: 9de4 eabb 3254 a63d c9f2 8ebd f8d2 46bd
00000390: 2169 42bd 069e 093d ccdb c0bc 50d1 9b3c
000003a0: da51 b8bb 0b0a 8f3d 648e 503c a2db a3bd
000003b0: 0ff1 f43c fe52 4a3c a5a8 b6bc 0def 04bd
000003c0: fce0 fd3a a569 f63c 85df 43bd 7515 433d
000003d0: 6af2 a43d 9873 ee3b d065 5a3d af41 9d3d
000003e0: f69a 533d 8ff3 993d b176 44bd 6420 c23c
000003f0: 50c6 b6bc 3c2b bebc a2c3 023c 4765 703c

conv2.bias f4 [32]
0.06185522 0.03701801 0.077423625 -0.0538854 0.0455 0.06477223 -0.03076331 -0.04606412
0.032407194 0.064715885 -0.07142317 -0.028743427 0.06382343 -0.081866115 -0.07959827 0.023220021
0.049583133 0.055659488 -0.053983424 0.063597836 0.082922444 -0.06428609 -0.035220336 -0.044686113
-0.064160146 -0.021820659 0.030955674 0.073366486 -0.025575064 -0.02637932 -0.03557727 -0.061928272
00000000: e65b 7d3d 32a0 173d 4790 9e3d f0b6 5cbd
00000010: 355e 3a3d 4ea7 843d 5603 fcbc bbad 3cbd
00000020: 68bd 043d c389 843d 5046 92bd 5677 ebbc
00000030: dcb5 823d 6ca9 a7bd 6b04 a3bd ea37 be3c
00000040: af17 4b3d 34fb 633d b91d 5dbd 953f 823d
00000050: 3ed3 a93d 6da8 83bd 3343 10bd c908 37bd
00000060: 6566 83bd 3dc1 b2bc c196 fd3c 2b41 963d
00000070: cc82 d1bc 7219 d8bc 79b9 11bd 80a8 7dbd

fc1.weight f4 [128, 800]
-0.013336175 -0.02738999 0.013846941 -0.022950806 0.0004799664 -0.012157186 -0.024322297 0.019675832
-0.033390693 -0.030352173 0.02929512 -0.004900816 0.024427254 -0.027010774 0.017064635 -0.007257654
0.012314467 0.009380739 0.011245027 -0.018912531 0.02098088 -0.001519903 -0.028408743 0.03513674
0.007127241 0.011076221 -0.02219318 -0.02157456 0.024726182 -0.0023188447 -0.028851155 0.021353828
-0.0070056394 -0.0010581926 0.015592789 -0.014898784 0.025710585 0.017213564 0.001667118 -0.016329046
0.021517647 0.0035121718 -0.033230647 -0.025950203 0.030201914 -0.034976486 -0.015036488 0.020405766
-0.0033907448 0.003191955 -0.021998959 -0.008730327 0.028358031 -0.007374695 -0.023817578 0.02440753
-0.024277749 -0.0062586446 0.015993802 0.017899958 0.02855361 -0.03332439 0.010063454 0.022076806
0.0030799203 0.011220972 0.030727493 0.009853079 -0.0013175497 -0.030581312 0.01625908 -0.012105775
-0.017970568 -0.031909984 -0.005745092 -0.031664465 0.0027217327 0.01725067 -0.034857064 0.0070772087
-0.031935677 0.015813835 -0.0042786035 -0.027484417 -0.0063858414 0.0026343435 0.01820275 -0.014046242
0.035544332 -0.007880554 0.030928623 0.005001101 0.016466038 0.015289965 0.033750296 0.028362606
-0.030906042 -0.013650501 0.032628704 0.017474307 -0.002181771 -0.0106292255 0.0077842837 -0.02886329
0.005705088 0.004512404 -0.0343984 0.011976899 0.020246545 -0.034315612 0.025538193 0.004041302
-0.016812844 -0.0033358526 0.008100087 -0.01892185 0.034456488 -0.007202099 -0.023938002 -0.01745387
0.01195152 0.017013371 -0.0067990394 -0.008787926 -0.016859453 0.010219032 -0.033930294 0.0047362535
0.013200307 -0.0043732934 0.028930014 0.024595283 -0.031159695 -0.022922242 -0.0075859744 0.019409785
-0.026496952 -0.032692075 -0.010016773 0.020773929 0.025789192 0.0056725647 -0.005676864 0.022552324
-0.008351494 -0.0063692546 0.025797997 0.021703172 0.024745746 0.0023990583 0.03138617 -0.012080328
0.028526101 -0.013841938 0.026600063 -0.011578081 0.025846066 0.004166796 0.023489842 0.022301268
-0.021838306 -0.0002196357 -0.021055141 -0.0071512153 0.012654368 0.023457719 0.032570392 -0.024671307
-0.023146141 -0.031135425 0.018800793 0.0013768862 0.015075682 0.019822145 0.023607273 -0.033784166
-0.011998091 0.021978535 -0.027812775 -0.0094316285 0.0005536297 0.008348193 0.023206543 -0.013025237
0.005534334 -0.00025833052 0.007446131 0.0074126082 -0.01223232 0.02904198 -0.0016800249 -0.024144737
0.0044859904 0.0037963097 0.011097189 0.019002898 -0.03189637 0.0091991685 -0.033908326 0.013626296
0.006458462 0.0010239513 -0.02660701 -0.025319971 0.034217097 0.0074984254 0.03455273 0.020705143
-0.0057862806 0.00038679648 -0.0055096345 -0.00010741874 0.0049497276 -0.024232363 0.006839084 0.027222883
-0.017734336 -0.019740807 -0.024884151 0.034857407 0.004477636 -0.03250031 -0.01508453 0.0135996025
0.016530901 -0.0025229699 -0.033246726 0.0019400531 -0.0076667443 0.03457526 -0.016697932 -0.026402967
-0.008318333 0.022839893 0.0031407475 0.02060419 0.0123286685 -0.033382393 -0.01895949 0.020878619
-0.0008324749 0.015789524 0.014520492 0.010059122 -0.023462128 0.00769323 0.0015702754 0.026671255
0.030887604 -0.0033474602 0.026834862 0.0023684653 -0.023317238 0.006675634 0.02354331 -0.006318397
00000000: f97f 5abc f960 e0bc 48de 623c 5403 bcbc
00000010: 00a4 fb39 ef2e 47bc 8e3f c7bc 362f a13c
00000020: aec4 08bd 1fa5 f8bc 52fc ef3c 0697 a0bb
00000030: aa1b c83c b345 ddbc 22cb 8b3c 9dd1 edbb
00000040: 9ec2 493c acb1 193c 103d 383c 74ee 9abc
00000050: 18e0 ab3c 7b37 c7ba 74b9 e8bc 8beb 0f3d
00000060: a28b e93b 0a79 353c 79ce b5bc 22bd b0bc
00000070: 908e ca3c c2f7 17bb 4259 ecbc 39ee ae3c
00000080: 908f e5bb 0db3 8aba e678 7f3c 081a 74bc
00000090: 019f d23c 7603 8d3c 3383 da3a 7ec4 85bc
000000a0: c745 b03c 772c 663b dc1c 08bd 8595 d4bc
000000b0: 016a f73c 8143 0fbd 9a5b 76bc fe29 a73c
000000c0: 4237 5ebb 1e30 513b 2937 b4bc a509 0fbc
000000d0: 1a4f e83c 6da7 f1bb 151d c3bc 4df2 c73c
000000e0: 21e2 c6bc 5115 cdbb 6f05 833c efa2 923c
000000f0: 43e9 e93c 287f 08bd 2fe1 243c 6bda b43c
00000100: 7dd8 493b 2bd8 373c 39b8 fb3c cf6e 213c
00000110: a2b1 acba a985 fabc c331 853c 4d57 46bc
00000120: 0337 93bc 0bb4 02bd 5341 bcbb 99b2 01bd
00000130: 195f 323b 4751 8d3c 48c6 0ebd eee7 e73b
00000140: fcce 02bd 048c 813c 8733 8cbb 0027 e1bc
00000150: 5240 d1bb f3a4 2c3b ef1d 953c 3622 66bc
00000160: ef96 113d 701d 01bc 065e fd3c 47e0 a33b
00000170: c9e3 863c c382 7a3c c03d 0a3d b258 e83c
00000180: ab2e fdbc 5aa6 5fbc ada5 053d 4726 8f3c
00000190: 0bfc 0ebb 3426 2ebc 4e13 ff3b b572 ecbc
000001a0: bff1 ba3b cadc 933b 56e5 0cbd c13a 443c
000001b0: 15dc a53c 878e 0cbd 7935 d13c e66c 843b
000001c0: 17bb 89bc 529e 5abb 3ab6 043c ff01 9bbc
000001d0: 3f22 0d3d 96ff ebbb a119 c4bc 6bfb 8ebc
000001e0: 4fd0 433c a05f 8b3c 7aca debb 3cfb 0fbc
000001f0: d61c 8abc ba6d 273c 7efa 0abd 9332 9b3b
00000200: 1a46 583c d84d 8fbb a3fe ec3c 0c7c c93c
00000210: 9e42 ffbc 6dc7 bbbc c493 f8bb 4501 9f3c
00000220: 2310 d9bc 20e8 05bd 641d 24bc 162e aa3c
00000230: db43 d33c ece0 b93b fd04 babb a7bf b83c
00000240: b4d4 08bc 2eb5 d0bb 5256 d33c daca b13c
00000250: 97b7 ca3c 8539 1d3b c98e 003d 91ec 45bc
00000260: 92af e93c 4cc9 62bc 60e8 d93c feb1 3dbc
00000270: 21bb d33c 9e89 883b c56d c03c 26b1 b63c
00000280: 3fe6 b2bc 024e 66b9 d57b acbc be54 eabb
00000290: 4454 4f3c 672a c03c 8868 053d 7b1b cabc
000002a0: fa9c bdbc b80f ffbc 1f04 9a3c a278 b43a
000002b0: feff 763c 0d62 a23c 0a64 c13c 4461 0abd
000002c0: a493 44bc 540c b43c 9ed7 e3bc 1e87 1abc
000002d0: 7621 113a dcc6 083c a61b be3c ce67 55bc
000002e0: 5c59 b53b 8970 87b9 adfe f33b 77e5 f23b
000002f0: 126a 48bc 72e9 ed3c 4834 dcba 2fcb c5bc
00000300: 37ff 923b 82cb 783b fcd0 353c f7ab 9b3c
00000310: c5a5 02bd 1cb8 163c 75e3 0abd d440 5f3c
00000320: 82a1 d33b 1b36 863a f2f6 d9bc d46b cfbc
00000330: 3a27 0c3d 5ab5 f53b 2a87 0d3d d59d a93c
00000340: d79a bdbb f2ca ca39 2a8a b4bb ff45 e1b8
00000350: 5331 a23b f382 c6bc 651a e03b 8602 df3c
00000360: 9947 91bc 79b7 a1bc d9d9 cbbc a4c6 0e3d
00000370: 22b9 923b 0c1f 05bd 1b25 77bc ded0 5e3c
00000380: d06b 873c 6958 25bb b82d 08bd 6149 fe3a
00000390: 5039 fbbb ca9e 0d3d 1aca 88bc 094b d8bc
000003a0: 9e49 08bc ba1a bb3c 00d5 4d3b 1eca a83c
000003b0: 2ffe 493c fabb 08bd ef50 9bbc a309 ab3c
000003c0: 723a 5aba 0859 813c 5ce7 6d3c 04cf 243c
000003d0: a633 c0bc 7e17 fc3b b3d1 cd3a ad7d da3c
000003e0: 0008 fd3c 1061 5bbb c9d4 db3c 4138 1b3b
000003f0: cb03 bfbc 47bf da3b e6dd c03c 8e0a cfbb

fc1.bias f4 [128]
-0.020191286 0.0060719433 -0.020813452 0.032178883 0.005148242 0.012723661 -0.00017831907 -0.0016970168
-0.009046843 -0.0082213115 -0.008992344 0.011261985 0.030809455 0.027079614 0.024784384 0.022512577
0.003134195 -0.012729199 0.020778734 0.027103867 0.0033461715 -0.020355765 -0.01803816 -0.025455918
-0.0014216978 -0.0076688705 -0.0092954375 0.024892714 -0.0031052278 0.020949546 -0.034372184 -0.012055829
0.025348708 -0.0044746497 0.017848536 -0.032013007 -0.009860896 0.00020212751 0.00046557622 -0.010765424
-0.032761417 0.0082285395 -0.030674506 -0.022472488 -0.0005781005 0.017716667 -0.007957923 -0.004211728
0.005038288 -0.019733801 0.02901194 -0.011769158 0.026174188 -0.026961623 -0.010969985 -0.026755946
-0.0014330873 -0.034985192 -0.029048838 0.01443588 0.024345975 -0.035252202 -0.007501463 0.022983782
0.026522502 -0.029983725 -0.0307039 -0.011683163 -0.013318619 0.009322583 -0.025179312 0.007268254
-0.017253818 -0.008760041 0.016451772 0.014180935 0.013096299 -0.011358045 0.01880639 0.024458023
-0.0067136693 -0.018019015 -0.03192693 -0.0036517165 -0.001922639 0.03108895 -0.03426569 -0.016696991
-0.0055691483 -0.033514705 0.014599461 -0.025146242 -0.008555079 0.023256414 -0.03078895 -0.01074525
-0.0010380102 -0.020697733 0.0009783161 -0.03173176 -0.008773807 0.023792457 0.02560374 -0.020021446
-0.01694339 0.002829252 -0.020529421 0.005807575 -0.023621932 0.029569102 0.03414126 -0.001481844
-0.001912026 -0.028612874 0.009827931 -0.0040988848 -0.027845226 0.020325404 -0.01445801 -0.02288991
0.009364652 -0.027137743 -0.031339586 -0.02106966 0.010081193 -0.03319862 0.012206974 0.0013667062
00000000: 3268 a5bc 27f7 c63b f980 aabc 01ce 033d
00000010: 96b2 a83b e776 503c 29fb 3ab9 6f6e deba
00000020: 3639 14bc aeb2 06bc a054 13bc 3084 383c
00000030: 1c64 fc3c 11d6 dd3c 9f08 cb3c 4c6c b83c
00000040: 1167 4d3b 218e 50bc 2a38 aa3c ee08 de3c
00000050: 714b 5b3b 22c1 a6bc c3c4 93bc ee88 d0bc
00000060: 4358 baba 264b fbbb e44b 18bc ceeb cb3c
00000070: 1481 4bbb 629e ab3c d9c9 0cbd d085 45bc
00000080: 18a8 cf3c 15a0 92bb 1837 923c 1220 03bd
00000090: 988f 21bc 31f2 5339 9518 f439 7661 30bc
000000a0: d630 06bd ffd0 063c 1a49 fbbc 3918 b8bc
000000b0: ab8b 17ba 8b22 913c f361 02bc 8902 8abb
000000c0: 3918 a53b c8a8 a1bc 73aa ed3c 6dd3 40bc
000000d0: 406b d63c 9fde dcbc 74bb 33bc 492f dbbc
000000e0: 6ed6 bbba a24c 0fbd d4f7 edbc 7884 6c3c
000000f0: 3671 c73c 9d64 10bd d5ce f5bb 7c48 bc3c
00000100: b845 d93c 6ea0 f5bc bf86 fbbc bd6a 3fbc
00000110: 5636 5abc bfbd 183c d844 cebc 892a ee3b
00000120: e157 8dbc 4686 0fbc dec5 863c 2757 683c
00000130: dc91 563c 1817 3abc dc0f 9a3c 315c c83c
00000140: 57fe dbbb 9d9c 93bc d0c5 02bd a351 6fbb
00000150: 0f01 fcba 41ae fe3c 2e5a 0cbd 21c8 88bc
00000160: 677d b6bb b746 09bd 9432 6f3c 7eff cdbc
00000170: 9a2a 0cbc 3c84 be3c 1c39 fcbc d80c 30bc
00000180: d80d 88ba 4b8e a9bc d73a 803a 29f9 01bd
00000190: 04c0 0fbc 66e8 c23c efbe d13c 0404 a4bc
000001a0: ddcc 8abc f96a 393b 512d a8bc 784d be3b
000001b0: c882 c1bc e73a f23c b5d7 0b3d 6f3a c2ba
000001c0: f29c faba 8c65 eabc 5505 213c f04f 86bb
000001d0: ac1b e4bc 7681 a63c 4ae1 6cbc 9f83 bbbc
000001e0: 336e 193c f94f debc f05d 00bd 489a acbc
000001f0: 972b 253c 47fb 07bd c3ff 473c 0d23 b33a

fc2.weight f4 [60, 128]
-0.00970026 -0.019604186 0.057207644 -0.08281747 0.03929242 -0.08688801 0.041586895 -0.05745374
0.0059623905 0.024680285 -0.019423686 -0.04728671 -0.07576617 0.057494063 -0.028594818 0.08743722
-0.004828831 -0.06724073 0.0865323 -0.072629526 -0.086098365 -0.014406707 -0.054602917 -0.030840881
0.036268532 -0.020332703 0.02278597 0.03178107 0.00069275015 -0.06334665 -0.01077551 0.019797005
0.04266743 -0.037840508 -0.079628505 -0.0589672 -0.019933486 0.04490627 0.01706496 0.040417425
-0.05246968 0.0334839 0.082081325 -0.0073129917 0.0663832 -0.03429579 0.08474598 0.020879956
0.08633153 0.023888644 -0.059741158 -0.02404767 -0.0051486436 0.010658488 -0.012423371 0.030119147
0.04179478 0.009623595 -0.03520262 -0.08475191 0.048949115 0.08024461 -0.029267106 -0.086074054
-0.004398958 -0.062060405 -0.08011816 -0.07516946 -0.06476292 -0.008957748 0.0022759081 -0.042548265
-0.029063147 0.07450213 0.068532474 0.024944184 -0.063219905 0.0084150955 0.0149224 -0.067058
-0.044439215 -0.063033156 0.031655196 -0.032786272 0.041770745 0.00053684186 0.009225868 0.01902711
-0.042030368 -0.045948844 -0.048909307 -0.05713428 0.03475508 -0.03399945 0.06496699 0.030743584
-0.04880001 0.070384935 0.037602182 0.0133371055 -0.044044 -0.032166336 0.022033611 -0.0015131575
0.015399771 0.03827629 -0.07478386 -0.036172923 -0.051321916 0.06604511 -0.026510188 -0.046425693
-0.07107543 -0.06843217 0.069479294 -0.0070286924 -0.0017946303 0.056977253 0.048934255 -0.0422182
0.06010252 -0.07966654 0.08630485 -0.04386804 -0.084855616 0.022215523 -0.07742432 0.0642453
0.08360281 -0.0015320303 0.038337313 -0.0033944463 0.081863604 0.014194939 -0.0729653 -0.040442284
0.04784341 0.022992052 -0.023871846 0.03477646 0.006249587 -0.05453207 -0.046314478 -0.0209802
0.03131433 -0.067048036 0.06374442 0.00038995137 0.00030947555 0.0009250232 -0.042350203 0.0865307
-0.08598217 0.056506764 0.07704029 0.0028950274 0.0857425 0.019534081 0.0483904 -0.04984634
0.070068344 -0.007905041 0.014432316 -0.010117007 -0.08386493 -0.042953975 -0.012234976 -0.038785312
0.026038507 0.0004642269 0.021818753 0.06238707 0.03192248 0.058109168 0.051346224 -0.08070241
-0.040306397 0.065400474 0.022781204 -0.07486146 0.029580908 0.05144053 -0.054524086 -0.06081559
-0.02500889 -0.065915376 0.016791236 0.028308881 0.0452148 -0.016341954 -0.06923085 -0.07234219
0.045500416 0.05632467 0.03698681 0.049031988 0.06127106 -0.07037021 0.06606931 0.031291563
0.062784106 0.08810698 -0.018498763 -0.010077951 -0.006832458 -0.029886536 0.04242965 0.023355026
-0.060915876 -0.03500584 0.00029097582 -0.06673192 0.009436885 -0.0026393125 0.05879862 0.044459615
0.052098494 -0.08294038 0.07765168 0.033311035 0.049874295 -0.042591266 -0.01757584 -0.007650535
0.084398285 -0.08658532 0.032538567 -0.0039048344 0.08158957 0.05572968 -0.088063955 -0.05486707
-0.005466977 0.034677118 0.05908845 -0.010205038 0.074998945 0.036139045 -0.042639036 -0.078120604
0.019950349 0.048596177 0.00029627443 -0.0874654 0.008586896 -0.04285419 0.052343283 -0.0744519
-0.06903229 0.0006510659 -0.04953249 -0.053146657 0.072650254 0.03982916 0.08093303 0.07855428
00000000: d7ed 1ebc f598 a0bc 9052 6a3d 359c a9bd
00000010: 17f1 203d 57f2 b1bd 0557 2a3d 9d54 6bbd
00000020: 2860 c33b 4f2e ca3c 6c1e 9fbc b6af 41bd
00000030: 4b2b 9bbd e57e 6b3d ae3f eabc 4912 b33d
00000040: 2c3b 9ebb 82b5 89bd d937 b13d cabe 94bd
00000050: 5754 b0bd 1c0a 6cbc 4fa7 5fbd 04a6 fcbc
00000060: 508e 143d c590 a6bc a4a9 ba3c de2c 023d
00000070: ad99 353a e3bb 81bd c48b 30bc 542d a23c
00000080: 0bc4 2e3d a6fe 1abd 4514 a3bd 9787 71bd
00000090: 8d4b a3bc a3ef 373d d1cb 8b3c be8c 253d
000000a0: 72ea 56bd 6a26 093d 411a a83d d2a1 efbb
000000b0: eaf3 873d be79 0cbd 4d8f ad3d 710c ab3c
000000c0: 96ce b03d 1eb2 c33c 25b3 74bd 9fff c4bc
000000d0: f4b5 a8bb f0a0 2e3c 658b 4bbc 6ebc f63c
000000e0: 0131 2b3d 48ac 1d3c 9f30 10bd 6992 adbd
000000f0: de7e 483d 4957 a43d 92c1 efbc 9847 b0bd
00000100: 2225 90bb 0d33 7ebd fd14 a4bd 72f2 99bd
00000110: 6ca2 84bd 85c3 12bc 6727 153b 1747 2ebd
00000120: d615 eebc 9394 983d c15a 8c3d bf57 cc3c
00000130: 7079 81bd 78df 093c 157d 743c b455 89bd
00000140: e505 36bd 8717 81bd e1a8 013d e64a 06bd
00000150: cd17 2b3d d9ba 0c3a 1828 173c bede 9b3c
00000160: 0928 2cbd db34 3cbd 2055 48bd a305 6abd
00000170: 585b 0e3d 0243 0bbd 6a0d 853d f8d9 fb3c
00000180: 85e2 47bd fa25 903d bf04 1a3d e083 5a3c
00000190: 7b67 34bd d9c0 03bd d57f b43c 2455 c6ba
000001a0: 524f 7c3c 99c7 1c3d 4828 99bd 0f2a 14bd
000001b0: ee36 52bd a942 873d e52b d9bc de28 3ebd
000001c0: ff8f 91bd 2a26 8cbd 294b 8e3d f250 e6bb
000001d0: cd39 ebba fb60 693d 496f 483d feec 2cbd
000001e0: 0f2e 763d 3628 a3bd 99c0 b03d f9ae 33bd
000001f0: c8c8 adbd 54fd b53c a490 9ebd 0a93 833d
00000200: f337 ab3d 68ce c8ba 9607 1d3d 5c75 5ebb
00000210: 1ba8 a73d e491 683c d56e 95bd cfa6 25bd
00000220: 74f7 433d d459 bc3c e48e c3bc c371 0e3d
00000230: 56c9 cc3b 055d 5fbd 40b4 3dbd abde abbc
00000240: 7443 003d 7b50 89bd 6f8c 823d 6372 cc39
00000250: 1b41 a239 427d 723a 6877 2dbd 0237 b13d
00000260: 6c17 b0bd a373 673d 4dc7 9d3d 80ba 3d3b
00000270: c499 af3d f005 a03c 0335 463d ad2b 4cbd
00000280: fe7f 8f3d 2584 01bc 8575 6c3c cec1 25bc
00000290: 60c1 abbd 82f0 2fbd 3575 48bc 59dd 1ebd
000002a0: b54e d53c 7b63 f339 3ebd b23c 9689 7f3d
000002b0: 25c1 023d e103 6e3d 6b50 523d 4e47 a5bd
000002c0: 5218 25bd aff0 853d a69f ba3c f750 99bd
000002d0: a953 f23c 4eb3 523d a654 5fbd c519 79bd
000002e0: 72df ccbc a4fe 86bd c68d 893c 07e8 e73c
000002f0: 2733 393d 90df 85bc e7c8 8dbd 2428 94bd
00000300: a55e 3a3d b2b4 663d 7b7f 173d c4d5 483d
00000310: 5df7 7a3d 421e 90bd 594f 873d 952b 003d
00000320: f494 803d 6f71 b43d b88a 97bc fd1d 25bc
00000330: d0e2 dfbb 9cd4 f4bc b6ca 2d3d 0a53 bf3c
00000340: ed82 79bd 4962 0fbd 1d8e 9839 bfaa 88bd
00000350: 2a9d 1a3c 51f8 2cbb d2d6 703d 491b 363d
00000360: 3b65 553d a5dc a9bd d807 9f3d 2771 083d
00000370: fd48 4c3d 2e74 2ebd 35fb 8fbc 57b1 fabb
00000380: 02d9 ac3d a553 b1bd 2947 053d 40e8 7fbb
00000390: 6f18 a73d ce44 643d e05a b4bd 4bbc 60bd
000003a0: 5424 b3bb 9809 0e3d bb06 723d 0833 27bc
000003b0: 0c99 993d 8906 143d 45a6 2ebd b2fd 9fbd
000003c0: ea6e a33c c90c 473d 4855 9b39 0f21 b3bd
000003d0: 0db0 0c3c e087 2fbd e965 563d 3d7a 98bd
000003e0: cd60 8dbd 4bac 2a3a 95e2 4abd 4fb0 59bd
000003f0: a8c9 943d e723 233d 37c0 a53d 11e1 a03d

fc2.bias f4 [60]
-0.03850893 0.009273756 0.08213633 0.07579799 -0.078292124 0.0130483825 0.0076702023 0.033921566
-0.069045186 -0.04434965 -0.068488866 -0.024272861 -0.060309824 -0.015956806 0.0835132 0.07594584
-0.0702558 -0.020150227 -0.074960016 0.08790004 -0.024460858 -0.06459813 0.046640933 0.06452452
0.06941577 -0.0009414026 0.07261304 -0.055199426 0.026206369 0.030460548 0.04494805 -0.06689389
-0.0075857476 -0.066201724 0.07411459 0.014279961 -0.07360079 -0.009926857 0.01688325 0.0092905015
0.03331335 -0.040658735 -0.051386833 0.018908603 -0.02566757 -0.02944145 0.0145165445 0.005644961
0.050473392 -0.08702541 -0.012064926 -0.057034075 0.08643043 -0.028266089 0.036274046 -0.08421903
-0.055078454 -0.06825991 -0.06452531 0.009806914
00000000: 8abb 1dbd f4f0 173c 1837 a83d fa3b 9b3d
00000010: 9f57 a0bd e2c8 553c 5256 fb3b 57f1 0a3d
00000020: 9067 8dbd fba7 35bd e443 8cbd e1d7 c6bc
00000030: 6f07 77bd d9b7 82bc f808 ab3d 7e89 9b3d
00000040: 46e2 8fbd 1712 a5bc a384 99bd f004 b43d
00000050: 2362 c8bc 064c 84bd 900a 3f3d 6e25 843d
00000060: db29 8e3d 76c8 76ba 25b6 943d cb18 62bd
00000070: bdae d63c 6688 f93c 721b 383d aaff 88bd
00000080: dd91 f8bb c594 87bd 64c9 973d 7ff6 693c
00000090: 03bc 96bd 42a4 22bc be4e 8a3c 3037 183c
000000a0: 9473 083d c689 26bd 007b 52bd 37e6 9a3c
000000b0: cc44 d2bc 322f f1bc cdd6 6d3c 5df9 b83b
000000c0: 30bd 4e3d 613a b2bd f8ab 45bc 909c 69bd
000000d0: 7002 b13d 498e e7bc 1894 143d 077b acbd
000000e0: f299 61bd dacb 8bbd d925 84bd 2ead 203c
