model/芙宁娜/CharacterClassify_5.pth (torch, 463040 bytes, 8 tensors)

conv1.weight f4 [16, 1, 3, 3]
-0.23718928 -0.22916646 -0.20262383 0.26097742 -0.32926357 0.29882896 0.0764734 0.119604364
-0.31442845 0.28132975 -0.24922602 0.09649239 -0.010242292 0.30200595 -0.33027506 0.1625735
0.20008455 -0.07624122 -0.22874522 0.16408549 0.17469403 -0.2757457 -0.24149452 0.2005591
0.3163605 0.24416782 0.2526067 0.045044746 -0.010178202 -0.14577997 -0.045376092 0.2705914
0.022113897 0.27059928 0.09596039 -0.046408482 -0.11876139 0.08467602 -0.12318143 -0.014235484
-0.22367974 0.07293098 0.2742784 0.09305807 0.10140757 -0.20948133 0.23544839 -0.13731171
0.07831423 0.026151732 -0.19563773 0.3246332 -0.073105894 0.31204408 0.21601908 -0.1617553
0.109568216 -0.12753057 0.31968254 0.109297544 -0.14790967 -0.2622627 0.058401816 -0.1477096
0.24018541 -0.2967639 -0.2966122 0.19119722 -0.24713995 0.33021238 0.2812397 -0.1102718
-0.123127945 0.22086263 0.17103575 -0.27443144 0.098750725 -0.189173 -0.33231562 -0.1808381
0.25888073 0.14699012 0.23143753 0.23540585 0.30932406 0.12675282 0.18831775 -0.2793741
0.21598992 0.2889841 -0.0013304795 -0.12644915 -0.22621882 -0.31911972 0.037259873 -0.3003895
0.011984531 -0.1825705 -0.24090049 0.3003805 0.10623676 0.03207125 0.016945336 0.31542277
0.20769607 -0.15201673 -0.14949508 0.2764738 -0.21918176 0.30075172 -0.081163235 0.13753444
0.25649488 0.13517185 0.29244527 -0.0013333878 0.07233083 0.20194434 0.120554954 -0.26905492
-0.3038859 -0.069030814 -0.20384453 0.0060288697 -0.058870714 -0.31866267 -0.08227218 0.22993983
-0.08382458 -0.12529224 0.2407919 0.12307485 -0.15594591 -0.022938281 -0.17184769 0.16556373
0.16081797 -0.21623604 0.29113832 0.24424186 -0.0748864 0.04758017 0.23886052 -0.22560552
00000000: bfe1 72be 9daa 6abe 9f7c 4fbe d59e 853e
00000010: 3c95 a8be 1c00 993e 169e 9c3d 22f3 f43d
00000020: c4fc a0be 740a 903e 1b35 7fbe cd9d c53d
00000030: 49cf 27bc 86a0 9a3e d019 a9be ab79 263e
00000040: f7e2 4c3e 5b24 9cbd 303c 6abe 0706 283e
00000050: fee2 323e 8a2e 8dbe 574a 77be 5d5f 4d3e
00000060: 01fa a13e 2107 7a3e aa55 813e d780 383d
00000070: 79c2 26bc 5847 15be 48dc 39bd f58a 8a3e
00000080: 3428 b53c fd8b 8a3e e286 c43d d216 3ebd
00000090: 2c39 f3bd 9f6a ad3d 8c46 fcbd f33b 69bc
000000a0: 4d0c 65be d65c 953d 386e 8c3e 3b95 be3d
000000b0: c6ae cf3d 4682 56be 6219 713e 719b 0cbe
000000c0: 3663 a03d 283c d63c 4255 48be 5336 a63e
000000d0: 8bb8 95bd 3ec4 9f3e 1b34 5d3e 2ea3 25be
000000e0: 4d65 e03d 6097 02be 6ead a33e 64d7 df3d
000000f0: a275 17be 4c47 86be be36 6f3d 2f41 17be
00000100: 2af3 753e 70f1 97be 8edd 97be 34c9 433e
00000110: 4112 7dbe 9911 a93e a6fe 8f3e 2ed6 e1bd
00000120: 812a fcbd d029 623e ff23 2f3e 4782 8cbe
00000130: d23d ca3d 91b6 41be 4625 aabe 9f2d 39be
00000140: 048c 843e 9484 163e f6fd 6c3e 3b0e 713e
00000150: b95f 9e3e 7ecb 013e 5ed6 403e 1f0a 8fbe
00000160: 762c 5d3e b9f5 933e 7c63 aeba e37b 01be
00000170: e8a5 67be a963 a3be cf9d 183d a7cc 99be
00000180: c45a 443c c3f3 3abe 9eae 76be 79cb 993e
00000190: a992 d93d 255d 033d f2d0 8a3c 187f a13e
000001a0: 47ae 543e 46aa 1bbe 3d15 19be f98d 8d3e
000001b0: 2f71 60be 21fc 993e e938 a6bd d4d5 0c3e
000001c0: 4c53 833e 7d6a 0a3e 63bb 953e 12c5 aeba
000001d0: 3022 943d 7fca 4e3e 84e5 f63d 91c1 89be
000001e0: ef96 9bbe 0760 8dbd 9fbc 50be d38d c53b
000001f0: 6b22 71bd c127 a3be 517e a8bd 5975 6b3e
00000200: 39ac abbd 9c4c 00be 2792 763e ab0e fc3d
00000210: 49b0 1fbe 10e9 bbbc d7f8 2fbe 8a89 293e
00000220: 77ad 243e fb6c 5dbe 1510 953e 8a1a 7a3e
00000230: 0a5e 99bd 6de3 423d da97 743e 2205 67be

conv1.bias f4 [16]
-0.05177362 -0.15113331 0.1402362 0.07947119 0.12997586 0.3328877 -0.32574025 -0.017311882
0.23299898 0.24324381 0.32826823 -0.18757635 0.02629434 -0.15964344 0.101201706 0.3021814
00000000: 9310 54bd b1c2 1abe 149a 0f3e cbc1 a23d
00000010: 6418 053e 4270 aa3e 6dc7 a6be a6d1 8dbc
00000020: 4997 6e3e e814 793e c612 a83e 0414 40be
00000030: 3a67 d73c 9279 23be d742 cf3d 85b7 9a3e

conv2.weight f4 [32, 16, 3, 3]
-0.025594287 0.06585553 0.06274783 -0.01637838 -0.026340215 0.062512 -0.038388148 -0.01927084
-0.06625436 -0.014315873 -0.017459108 0.066951215 0.07999675 0.08156455 -0.0044064852 0.04570644
-0.060253687 -0.08209592 0.07751932 -0.06453945 0.05647175 0.06654505 0.03873996 -0.05793128
0.03945459 -0.015883008 0.009236993 -0.034257855 -0.081036374 -0.022091271 -0.04223925 -0.08067607
0.032018725 0.03311615 -0.010644379 -0.02163787 0.0032197884 -0.0555087 0.080912426 0.08001226
-0.049459685 0.032228865 -0.06280817 -0.07653748 0.051870152 -0.08202204 0.04021763 0.07668516
0.039042883 0.07492432 0.07465503 0.0073729837 0.067424595 0.025569549 -0.05715382 -0.02705482
-0.031074524 -0.05770079 0.0090304185 0.0079846615 -0.07664794 -0.07572158 -0.033200115 -0.0012350006
-0.0793541 -0.055421002 0.0038480407 0.08292899 -0.065963514 -0.07647563 -0.00030311034 0.04604433
-0.06602531 0.015282892 0.07484552 -0.0626257 -0.05412438 -0.018958138 0.018230852 -0.008410272
-0.005430778 0.032512087 0.06394781 0.01288746 0.06031057 0.043460727 0.035832305 -0.058835562
-0.02853698 -0.03230751 0.033942007 0.07739149 -0.047410227 -0.01670629 0.04901672 -0.020575924
0.05443703 0.012563031 0.07789282 0.007910733 0.054642588 -0.07526323 0.03845666 -0.061601292
-0.06721466 0.0014600287 -0.04461451 0.004204081 0.06701714 0.07013533 -0.064598106 -0.062293444
-0.0005919414 0.015983285 -0.07122979 -0.07554281 -0.027796771 0.017910535 0.023183232 -0.07581205
0.020892266 0.0819169 -0.013009492 0.06560738 -0.03810807 -0.02861044 0.0020327047 0.004628254
0.059910603 -0.013615808 -0.05765995 0.061154556 0.070690274 -0.0383659 0.08201181 0.055747695
0.02918128 -0.068182506 0.030774359 -0.019480197 0.0039096926 -0.06038443 0.04741917 -0.04465549
0.0069232597 -0.029063132 0.072659224 0.00911551 -0.043220613 -0.045714747 -0.06690652 0.008961935
0.03675243 0.057620868 -0.0034902543 -0.026702229 -0.052368343 -0.03974949 0.029324055 0.019869244
0.064110294 0.012846091 -0.07449095 -0.0730413 0.02304265 0.03121773 -0.025664056 -0.044439446
-0.050909836 -0.079091854 0.0055563385 -0.009170167 0.023092685 -0.034580056 -0.06493904 0.056759626
0.039878152 0.056750454 -0.038115803 -0.06075744 0.056208994 0.042095892 0.019483455 -0.03476782
0.07878699 -0.06215635 -0.05861191 -0.030814921 0.019611172 -0.01900315 -0.059330773 -0.0052684955
-0.06729479 -0.027953831 -0.014220577 0.026594903 -0.00787261 -0.016950788 -0.07935758 -0.08162587
-0.03909566 0.07698373 0.08297055 0.03199416 0.041814253 0.061162744 0.059988778 -0.005821793
0.016840562 -0.056823105 0.0034704553 -0.008758389 0.035127852 0.079477526 0.064903684 -0.06335173
-0.038059186 -0.03203082 -0.018971564 0.011277254 -0.038946085 0.05009818 0.0015634608 -0.05989316
-0.0070601488 0.08132663 -0.069687836 -0.048430476 -0.04735659 0.03370474 -0.023436477 0.019112192
-0.0055322614 0.06993636 0.01282193 -0.079916105 0.02999306 0.012456947 -0.022188917 -0.032346062
0.0020465765 0.030189592 -0.047710437 0.04773906 0.080651596 0.007387414 0.05342926 0.07689461
0.0517696 0.07526633 -0.04786869 0.023794279 -0.022200204 -0.023102881 0.008091948 0.014775186
00000000: 1cab d1bc 44df 863d ef81 803d f42b 86bc
00000010: 6fc7 d7bc 4b06 803d e43c 1dbd e1dd 9dbc
00000020: 5eb0 87bd 208d 6abc 6706 8fbc b81d 893d
00000030: 56d5 a33d 510b a73d 4764 90bb ad36 3b3d
00000040: 92cc 76bd e821 a8bd 73c2 9e3d 422d 84bd
00000050: ec4e 673d c548 883d cbad 1e3d 5a49 6dbd
00000060: 239b 213d 151d 82bc c256 173c f751 0cbd
00000070: 66f6 a5bd c1f8 b4bc 1003 2dbd 7f39 a5bd
00000080: 1126 033d cda4 073d c365 2ebc e741 b1bc
00000090: 1603 533b 175d 63bd 6ab5 a53d 78dd a33d
000000a0: 3d96 4abd 6a02 043d 92a1 80bd afbf 9cbd
000000b0: cc75 543d 2cfb a7bd 3ebb 243d 1c0d 9d3d
000000c0: 6eeb 1f3d ec71 993d bde4 983d 1299 f13b
000000d0: e815 8a3d 3b77 d13c 201a 6abd 12a2 ddbc
000000e0: 0090 febc aa57 6cbd 52f4 133c 19d2 023c
000000f0: 98f9 9cbd ea13 9bbd d8fc 07bd bedf a1ba
00000100: 6784 a2bd 2201 63bd 692f 7c3b add6 a93d
00000110: e117 87bd 419f 9cbd c8ea 9eb9 fb98 3c3d
00000120: 4738 87bd 1865 7a3c 9c48 993d e741 80bd
00000130: 87b1 5dbd 194e 9bbc de58 953c 3dcb 09bc
00000140: abf4 b1bb 652b 053d 12f7 823d ed25 533c
00000150: 3708 773d e003 323d e5c4 123d 8ffd 70bd
00000160: 62c6 e9bc e154 04bd c606 0b3d 6e7f 9e3d
00000170: 3a31 42bd a1db 88bc c2c5 483d d78e a8bc
00000180: 5df9 5e3d 2cd5 4d3c 4586 9f3d 059c 013c
00000190: e8d0 5f3d 9c23 9abd bb84 1d3d a351 7cbd
000001a0: d7a7 89bd 6f5e bf3a b4bd 36bd 63c2 893b
000001b0: 4840 893d 1da3 8f3d 034c 84bd 6927 7fbd
000001c0: 842c 1bba 61ef 823c ede0 91bd 30b6 9abd
000001d0: 0eb6 e3bc 1db9 923c c3ea bd3c 5943 9bbd
000001e0: 4226 ab3c 0cc4 a73d c425 55bc 295d 863d
000001f0: 3517 1cbd 7160 eabc 2037 053b 9ca8 973b
00000200: d264 753d d714 5fbc d72c 6cbd 337d 7a3d
00000210: 10c6 903d 9025 1dbd cff5 a73d b257 643d
00000220: 940d ef3c 45a3 8bbd 821a fc3c ef94 9fbc
00000230: e11c 803b aa55 77bd 9b3a 423d ade8 36bd
00000240: 83dc e23b ce15 eebc 5cce 943d 3859 153c
00000250: 1908 31bd 633f 3bbd 4906 89bd 14d5 123c
00000260: b789 163d dc03 6c3d c0bc 64bb a2be dabc
00000270: 3080 56bd 5cd0 22bd 0039 f03c d3c4 a23c
00000280: 424c 833d 6978 523c b68e 98bd ad96 95bd
00000290: f1c3 bc3c 53bc ff3c 6d3d d2bc 2306 36bd
000002a0: d586 50bd e9fa a1bd f211 b63b 783e 16bc
000002b0: df2c bd3c d1a3 0dbd c2fe 84bd c87c 683d
000002c0: 4657 233d 2a73 683d 511f 1cbd cbdc 78bd
000002d0: 673b 663d be6c 2c3d c49b 9f3c b468 0ebd
000002e0: 135b a13d a897 7ebd 0b13 70bd 936f fcbc
000002f0: 9ca7 a03c 7eac 9bbc d304 73bd 58a3 acbb
00000300: dad1 89bd 6fff e4bc 6cfd 68bc 8edd d93c
00000310: 1ffc 00bc 61dc 8abc 3a86 a2bd 772b a7bd
00000320: c522 20bd a5a9 9d3d 77ec a93d 4f0c 033d
00000330: 6c45 2b3d c985 7a3d cbb6 753d bdc4 bebb
00000340: 38f5 893c 58bf 68bd 9470 633b 597f 0fbc
00000350: 39e2 0f3d 1dc5 a23d 39ec 843d 8dbe 81bd
00000360: f3e3 1bbd c032 03bd 416a 9bbc 3bc4 383c
00000370: ee85 1fbd c033 4d3d 0aed cc3a 8852 75bd
00000380: d258 e7bb 948e a63d 7fb8 8ebd 095f 46bd
00000390: fcf8 41bd fb0d 0a3d dbfd bfbc 2c91 9c3c
000003a0: f947 b5bb cb3a 8f3d 1313 523c 0eab a3bd
000003b0: 01b4 f53c 3918 4c3c 88c5 b5bc 4e7d 04bd
000003c0: db1f 063b 2a50 f73c 056c 43bd 088a 433d
000003d0: aa2c a53d 1f12 f23b a4d8 5a3d ec7a 9d3d
000003e0: 5c0c 543d 3c25 9a3d f611 44bd 38ec c23c
000003f0: 34dd b5bc 4142 bdbc 1794 043c 9f13 723c

conv2.bias f4 [32]
0.061962623 0.03712181 0.07727455 -0.053787675 0.04531209 0.06488543 -0.030766383 -0.04606172
0.032268066 0.064565465 -0.071578465 -0.028640298 0.06368043 -0.081807114 -0.07974212 0.023268724
0.049687896 0.055712096 -0.054138757 0.06347753 0.082980424 -0.06448435 -0.035388846 -0.04474474
-0.06430869 -0.021985227 0.030803962 0.07320051 -0.025683653 -0.026247675 -0.035478823 -0.06190812
00000000: 85cc 7d3d 0a0d 183d 1f42 9e3d 7750 5cbd
00000010: 2c99 393d a7e2 843d c809 fcbc 37ab 3cbd
00000020: 852b 043d e63a 843d bb97 92bd 0f9f eabc
00000030: e36a 823d 7d8a a7bd d64f a3bd 0d9e be3c
00000040: 8985 4b3d 5e32 643d 9ac0 5dbd 8200 823d
00000050: a4f1 a93d 5f10 84bd e5f3 10bd 4346 37bd
00000060: 46b4 83bd 5d1a b4bc 9758 fc3c 26ea 953d
00000070: 8666 d2bc 5d05 d7bc 3e52 11bd 5e93 7dbd

fc1.weight f4 [128, 800]
-0.01348312 -0.027536774 0.013701216 -0.023093637 0.00033795208 -0.012304131 -0.024469081 0.01953009
-0.033533543 -0.030494185 0.029148169 -0.0050476007 0.024281511 -0.027153606 0.016922623 -0.0074046017
0.012167684 0.009235014 0.0111022005 -0.019054543 0.020833928 -0.0016666851 -0.028554486 0.03499389
0.0069852276 0.010936777 -0.02233472 -0.021716774 0.024592008 -0.0024548478 -0.028990604 0.02121229
-0.0071478547 -0.0011923587 0.015456785 -0.015038229 0.025569046 0.017071351 0.001532952 -0.016465055
0.021378199 0.0033706308 -0.033372894 -0.026084376 0.030065905 -0.035115898 -0.0151780285 0.020263553
-0.0035249114 0.0030559518 -0.022146713 -0.008878167 0.028212808 -0.0075195837 -0.023969425 0.024259776
-0.024425577 -0.006403855 0.015848918 0.017748112 0.028405856 -0.033472225 0.00991824 0.021931922
0.0029280768 0.011073233 0.030579664 0.009707865 -0.0014624347 -0.030733159 0.016111325 -0.012253615
-0.01811579 -0.032054875 -0.0058969357 -0.031815346 0.0025716906 0.017107323 -0.03500045 0.0069385758
-0.03208656 0.01566379 -0.004421949 -0.027627796 -0.0065244744 0.0024834634 0.018052705 -0.014189594
0.035400946 -0.008019184 0.030777734 0.0048510577 0.016322691 0.015146591 0.033611663 0.028211717
-0.031056087 -0.013793853 0.032485317 0.017335674 -0.0023279174 -0.010776195 0.007634446 -0.02900857
0.0055583953 0.004366258 -0.034545396 0.011827057 0.020101266 -0.034462303 0.025392054 0.0038943326
-0.016962687 -0.003481134 0.007953388 -0.01906799 0.03430949 -0.007351937 -0.024083281 -0.017600562
0.011805377 0.016866393 -0.006948877 -0.008933207 -0.017006146 0.010074808 -0.034075417 0.0045890273
0.013057818 -0.004519276 0.028785776 0.024450164 -0.031306952 -0.023064734 -0.007731957 0.019265547
-0.026642071 -0.032839317 -0.010159262 0.020627946 0.025644954 0.00552745 -0.0058240904 0.022409832
-0.008497474 -0.0065134824 0.025652878 0.021555932 0.024603253 0.0022530765 0.031237064 -0.012229162
0.028379757 -0.013985723 0.026457561 -0.011727213 0.025697237 0.0040204525 0.02334605 0.022158766
-0.021987448 -0.0003684723 -0.021201486 -0.0072950055 0.01251188 0.023308577 0.032421537 -0.024817651
-0.023289934 -0.031277925 0.018651651 0.0012280495 0.014929338 0.019678352 0.023464771 -0.03393135
-0.01214527 0.021831244 -0.027956165 -0.009575799 0.00040644314 0.008201014 0.023059253 -0.013168629
0.005390162 -0.00040551723 0.0072989445 0.007265314 -0.012375712 0.0288978 -0.0018272117 -0.024291923
0.004338696 0.0036529202 0.010953018 0.018855713 -0.032043554 0.009051879 -0.034051724 0.0134821255
0.006310072 0.00087468803 -0.026757766 -0.025465466 0.034072865 0.007350035 0.03440345 0.020554388
-0.0059317723 0.00024256547 -0.005658025 -0.0002566824 0.004798971 -0.024377858 0.0066948566 0.02707449
-0.017883597 -0.019891562 -0.025029646 0.034713175 0.0043292455 -0.03264959 -0.01523529 0.013454112
0.016386665 -0.002680645 -0.033405047 0.0017916149 -0.007818308 0.034427993 -0.016855603 -0.026561288
-0.0084667755 0.022688331 0.0029934798 0.020446518 0.012170331 -0.033530835 -0.019111052 0.020731356
-0.0009901508 0.015631203 0.01437205 0.009907562 -0.02360939 0.007535554 0.001411944 0.02652282
0.030736042 -0.003494728 0.026679685 0.002210768 -0.023465201 0.0065287943 0.023397302 -0.006473578
00000000: 4ee8 5cbc cd94 e1bc 117b 603c de2e bdbc
00000010: 292f b139 4497 49bc 6273 c8bc 91fd 9f3c
00000020: 785a 09bd f1ce f9bc 24c8 ee3c 5866 a5bb
00000030: 05ea c63c 3d71 debc 50a1 8a3c 4da2 f2bb
00000040: f75a 473c 754e 173c 01e6 353c 4618 9cbc
00000050: eaab aa3c ac74 daba 19eb e9bc c155 0f3d
00000060: 56e4 e43b 2b30 333c 4df7 b6bc 60e7 b1bc
00000070: 2e75 c93c 83e1 20bb b47d edbc 65c5 ad3c
00000080: 8d38 eabb eb48 9cba 753e 7d3c e762 76bc
00000090: 2d76 d13c 38d9 8b3c 55ed c83a b9e1 86bc
000000a0: 5521 af3c cde5 5c3b 04b2 08bd e7ae d5bc
000000b0: c64c f63c b0d5 0fbd 44ad 78bc c0ff a53c
000000c0: 3302 67bb 5d46 483b 066d b5bc bb75 11bc
000000d0: 8c1e e73c d766 f6bb 875b c4bc 70bc c63c
000000e0: 2618 c8bc 6ed7 d1bb 97d5 813c 7d64 913c
000000f0: 66b3 e83c 2c1a 09bd 1d80 223c 93aa b33c
00000100: fae4 3f3b 816c 353c 3482 fa3c bd0d 1f3c
00000110: 2aaf bfba 1bc4 fbbc e6fb 833c 63c3 48bc
00000120: 9167 94bc f94b 03bd 153b c1bb cf50 02bd
00000130: cf89 283b a824 8c3c a25c 0fbd fe5c e33b
00000140: 326d 03bd 5951 803c ffe5 90bb b053 e2bc
00000150: 42cb d5bb 9ac1 223b 44e3 933c 797b 68bc
00000160: 9500 113d e562 03bc 9621 fc3c 9ff5 9e3b
00000170: 2ab7 853c 6829 783c 62ac 093d 421c e73c
00000180: 5669 febc 9dff 61bc 530f 053d 8b03 8e3c
00000190: f98f 18bb a38e 30bc 602a fa3b 61a3 edbc
000001a0: 3323 b63b d412 8f3b 797f 0dbd 46c6 413c
000001b0: 69ab a43c 5828 0dbd ff02 d03c 0f38 7f3b
000001c0: 55f5 8abc bd23 64bb ed4e 023c 7934 9cbc
000001d0: 1c88 0c3d 84e8 f0bb 4d4a c5bc 0e2f 90bc
000001e0: 576b 413c 642b 8a3c 68b3 e3bb 965c 12bc
000001f0: 7950 8bbc cf10 253c aa92 0bbd 8d5f 963b
00000200: 75f0 553c 6f16 94bb 26d0 eb3c b64b c83c
00000210: b83b 00bd 41f2 bcbc 5b5c fdbb c8d2 9d3c
00000220: 7940 dabc 8582 06bd 0973 26bc f0fb a83c
00000230: 5e15 d23c 9c1f b53b 03d8 bebb d394 b73c
00000240: fd38 0bbc 0d6f d5bb fc25 d23c 1196 b03c
00000250: c38c c93c 5aa8 133b dfe4 ff3c d35c 48bc
00000260: aa7c e83c 6024 65bc 87bd d83c 7f23 40bc
00000270: 0383 d23c 00be 833b 3740 bf3c 4d86 b53c
00000280: 051f b4bc 842f c1b9 bdae adbc f10a efbb
00000290: a1fe 4c3c a1f1 be3c 72cc 043d 634e cbbc
000002a0: 88ca bebc 481d 00bd 59cb 983c 81f6 a03a
000002b0: 2f9a 743c 7f34 a13c 3139 c03c 99fb 0abd
000002c0: f4fc 46bc 70d7 b23c 5404 e5bc d0e3 1cbc
000002d0: e017 d539 8c5d 063c c2e6 bc3c 3cc1 57bc
000002e0: f59f b03b 9a9b d4b9 fc2b ef3b df11 ee3b
000002f0: 80c3 4abc 14bb ec3c 0d7f efba dbff c6bc
00000300: 9f2b 8e3b d565 6f3b 4a74 333c 4c77 9a3c
00000310: 1a40 03bd 554e 143c d279 0bbd 22e4 5c3c
00000320: b8c4 ce3b 524b 653a 1a33 dbbc f49c d0bc
00000330: fd8f 0b3d 90d8 f03b a2ea 0c3d ad61 a83c
00000340: 505f c2bb 2c59 7e39 f466 b9bb 5493 86b9
00000350: b040 9d3b 13b4 c7bc 8760 db3b 52cb dd3c
00000360: 9f80 92bc a1f3 a2bc f90a cdbc 672f 0e3d
00000370: 58dc 8d3b 94bb 05bd 709d 79bc a36e 5c3c
00000380: 543d 863c c3ad 2fbb bbd3 08bd 9fd4 ea3a
00000390: 5c18 00bc 5e04 0d3d c314 8abc 0f97 d9bc
000003a0: 3bb8 0abc e1dc b93c 422e 443b 757f a73c
000003b0: 1166 473c a157 09bd c88e 9cbc ced4 a93c
000003c0: f3c7 81ba 020d 803c bf78 6b3c 5453 223c
000003d0: 7b68 c1bc cfec f63b fb10 b93a 6346 d93c
000003e0: 27ca fb3c ce07 65bb 5b8f da3c 88e2 103b
000003f0: 183a c0bc 7fef d53b b3ab bf3c 4f20 d4bb

fc1.bias f4 [128]
-0.020340478 0.006162114 -0.0209476 0.03210294 0.004980034 0.012819966 -0.00013847496 -0.0015472778
-0.009286761 -0.008286257 -0.008953292 0.0112983165 0.030761661 0.027180213 0.02495999 0.022588156
0.0030754944 -0.01270339 0.020630268 0.027171452 0.0034515988 -0.02031393 -0.017970985 -0.025535189
-0.0013158157 -0.0077944063 -0.0092954375 0.024892714 -0.003180998 0.020949546 -0.03435146 -0.012055829
0.02522345 -0.004494728 0.017957265 -0.031869505 -0.009756383 0.00032188228 0.0005437773 -0.010637447
-0.032796074 0.008158008 -0.030779442 -0.022612825 -0.00070521125 0.017687805 -0.008115449 -0.0041175336
0.0051616267 -0.019752683 0.028957248 -0.011632197 0.026028473 -0.026961623 -0.010836853 -0.026626209
-0.0015126001 -0.034884784 -0.02895851 0.014376265 0.02428537 -0.035252202 -0.0073752096 0.022983782
0.026463764 -0.030134918 -0.030798731 -0.0117896125 -0.013351813 0.009420445 -0.025326626 0.0071473
-0.017389232 -0.008930459 0.016569385 0.01430604 0.013096299 -0.0113144 0.01869059 0.024570793
-0.006600579 -0.017909406 -0.031901564 -0.003618429 -0.0020583724 0.031072697 -0.03426569 -0.016834494
-0.0057060802 -0.033378154 0.01441006 -0.025185918 -0.008636086 0.02336149 -0.030917952 -0.010743354
-0.0011636119 -0.020580987 0.0008665577 -0.03173176 -0.008898115 0.023677442 0.02572753 -0.020021275
-0.016800206 0.0026560302 -0.02064221 0.005807575 -0.02375993 0.029456956 0.034251068 -0.0014168893
-0.0018812323 -0.02875961 0.009824936 -0.0040236064 -0.027816001 0.02041015 -0.014600519 -0.022784216
0.00949072 -0.027113054 -0.031339586 -0.020955589 0.009940285 -0.03325496 0.012060238 0.0012321456
00000000: 13a1 a6bc 8feb c93b 4d9a abbc 5f7e 033d
00000010: 8e2f a33b d60a 523c 9733 11b9 07ce caba
00000020: 8027 18bc 15c3 07bc d4b0 12bc 931c 393c
00000030: e1ff fb3c 0aa9 de3c e578 cc3c cc0a b93c
00000040: 3c8e 493b e121 50bc cf00 a93c aa96 de3c
00000050: 3834 623b 6669 a6bc e337 93bc 2c2f d1bc
00000060: 7377 acba 3868 ffbb e44b 18bc ceeb cb3c
00000070: 4a78 50bb 629e ab3c 1eb4 0cbd d085 45bc
00000080: 69a1 ce3c 8348 93bb 1d1b 933c 9989 02bd
00000090: 3cd9 1fbc 4fc2 a839 478c 0e3a b048 2ebc
000000a0: 2d55 06bd 2aa9 053c 2b25 fcbc 883e b9bc
000000b0: eddd 38ba 04e6 903c a9f6 04bc 60ec 86bb
000000c0: dd22 a93b 61d0 a1bc c037 ed3c f894 3ebc
000000d0: aa39 d53c 9fde dcbc 0e8d 31bc 351f dabc
000000e0: 7042 c6ba 59e3 0ebd 663a edbc 6d8a 6b3c
000000f0: 1df2 c63c 9d64 10bd beab f1bb 7c48 bc3c
00000100: 89ca d83c 81dd f6bc 9f4d fcbc 3829 41bc
00000110: 90c1 5abc 3658 1a3c c979 cfbc e633 ea3b
00000120: dd73 8ebc 0f51 12bc 85bc 873c e163 6a3c
00000130: dc91 563c 0860 39bc 021d 993c b048 c93c
00000140: ab49 d8bb bfb6 92bc 37ab 02bd 2a23 6dbb
00000150: c2e5 06bb 2b8c fe3c 2e5a 0cbd 7ee8 89bc
00000160: 12fa babb 88b7 08bd 2c18 6c3c b352 cebc
00000170: 5f7e 0dbc 9860 bf3c a547 fdbc e504 30bc
00000180: 5684 98ba 7599 a8bc b429 633a 29f9 01bd
00000190: 66c9 11bc 32f7 c13c 8ac2 d23c a803 a4bc
000001a0: 96a0 89bc cb10 2e3b da19 a9bc 784d be3b
000001b0: 2fa4 c2bc b74f f13c d94a 0c3d eab6 b9ba
000001c0: ae93 f6ba 4699 ebbc c5f8 203c 75d8 83bb
000001d0: 62de e3bc 3033 a73c 0437 6fbc f7a5 babc
000001e0: f77e 1b3c 321c debc f05d 00bd 0eab abbc
000001f0: 94dc 223c 5a36 08bd 4e98 453c f27f a13a

fc2.weight f4 [60, 128]
-0.009551955 -0.019519914 0.05733089 -0.08267928 0.03944909 -0.08677206 0.041625205 -0.057320513
0.006101857 0.02471921 -0.019355465 -0.047243256 -0.07569613 0.057583112 -0.028473388 0.08748567
-0.0046976884 -0.06721273 0.08670934 -0.07248854 -0.08594318 -0.014376244 -0.05451076 -0.030790033
0.036380135 -0.020180704 0.02278597 0.03178107 0.0007596291 -0.06334665 -0.010690441 0.019797005
0.042837244 -0.03770045 -0.079497576 -0.05883005 -0.019801173 0.045029826 0.0171833 0.040561248
-0.052419487 0.033642203 0.08223348 -0.007157836 0.066542886 -0.034258794 0.084915034 0.020979578
0.08645747 0.023918873 -0.059681967 -0.023912666 -0.004921241 0.010658488 -0.01231044 0.030249944
0.041943 0.009752918 -0.03517637 -0.08464989 0.0491082 0.08024461 -0.029162811 -0.086074054
-0.004254753 -0.061933685 -0.079930075 -0.075028256 -0.06472435 -0.008871202 0.0024411604 -0.042415533
-0.028923234 0.074712396 0.06866855 0.025089206 -0.063219905 0.008463283 0.0150646195 -0.06695685
-0.04429818 -0.06292289 0.031689253 -0.032720048 0.041984275 0.0006808305 0.009225868 0.0191793
-0.04184036 -0.045821577 -0.04875732 -0.0570758 0.03484641 -0.033890378 0.06510625 0.030951336
-0.048601486 0.070518866 0.037769973 0.0133371055 -0.043803003 -0.031955123 0.022144843 -0.0015131575
0.015566316 0.038461942 -0.07462401 -0.036172923 -0.051177017 0.06613582 -0.026425172 -0.046364523
-0.07101362 -0.06828237 0.06955948 -0.0069933617 -0.0016742762 0.057066713 0.049091436 -0.042080734
0.06021714 -0.079619385 0.08630485 -0.04375341 -0.08469562 0.022351276 -0.0771919 0.06437469
0.083448455 -0.0016043049 0.038167085 -0.0035471895 0.08168408 0.01408279 -0.072993614 -0.040555466
0.047691938 0.022948204 -0.023911696 0.034734797 0.006191509 -0.054607127 -0.046430703 -0.02104839
0.031167438 -0.067072146 0.06357937 0.00026556273 0.00018776777 0.0008973942 -0.04241383 0.08646313
-0.08607904 0.056361277 0.07704029 0.0028950274 0.08568026 0.019534081 0.048298847 -0.04984634
0.069917716 -0.008049481 0.014314226 -0.010239912 -0.08397642 -0.043067627 -0.012360321 -0.03891291
0.02600111 0.00029576768 0.021668363 0.06224593 0.03173811 0.05807676 0.051154103 -0.08079312
-0.040428106 0.06537495 0.022715127 -0.07498254 0.029406788 0.05144053 -0.05463517 -0.060938075
-0.02517603 -0.06601232 0.016712762 0.028225865 0.045059353 -0.016341954 -0.06932924 -0.07234219
0.0453346 0.056158096 0.0368448 0.048887454 0.06123771 -0.07047278 0.06590406 0.031106604
0.06265047 0.08792624 -0.018622594 -0.010201679 -0.006832458 -0.029927 0.042280138 0.02325827
-0.06103903 -0.035108056 0.00025327495 -0.06675785 0.009279255 -0.002769579 0.05879862 0.044282217
0.051946957 -0.08305971 0.07744961 0.03325735 0.049786437 -0.042696193 -0.017737702 -0.007772699
0.08424613 -0.08670293 0.032390796 -0.0039048344 0.08143343 0.055559017 -0.08817566 -0.054867126
-0.00557454 0.034482352 0.058927253 -0.010205038 0.07483592 0.03601175 -0.04274479 -0.07818748
0.019898534 0.048418153 0.00024494334 -0.08751529 0.008478929 -0.042933565 0.05218483 -0.07455273
-0.06915206 0.0006086586 -0.04953249 -0.053236235 0.07249408 0.03969707 0.08078664 0.0784066
00000000: ce7f 1cbc 3ae8 9fbc ccd3 6a3d c153 a9bd
00000010: 5e95 213d 8db5 b1bd 317f 2a3d eac8 6abd
00000020: 16f2 c73b f17f ca3c 5a8f 9ebc 2582 41bd
00000030: 9306 9bbd 45dc 6b3d 0641 e9bc b02b b33d
00000040: 11ef 99bb d4a6 89bd ab94 b13d df74 94bd
00000050: fa02 b0bd 568a 6bbc ad46 5fbd 613b fcbc
00000060: 5603 153d 0152 a5bc a4a9 ba3c de2c 023d
00000070: d921 473a e3bb 81bd f626 2fbc 542d a23c
00000080: 1b76 2f3d c96b 1abd a0cf a2bd c7f7 70bd
00000090: 1236 a2bc 3271 383d fec3 8c3c 8d23 263d
000000a0: d1b5 56bd 68cc 093d 076a a83d 488c eabb
000000b0: a347 883d f352 0cbd efe7 ad3d 5ddd ab3c
000000c0: 9d10 b13d 83f1 c33c 1475 74bd 7fe4 c3bc
000000d0: 5d42 a1bb f0a0 2e3c bab1 49bc bbce f73c
000000e0: 6ccc 2b3d b4ca 1f3c 1915 10bd ec5c adbd
000000f0: ae25 493d 4957 a43d d9e6 eebc 9847 b0bd
00000100: 746b 8bbb 2dae 7dbd 61b2 a3bd 6aa8 99bd
00000110: 338e 84bd 8558 11bc e0fb 1f3b e9bb 2dbd
00000120: 6bf0 ecbc d002 993d 19a2 8c3d e187 cd3c
00000130: 7079 81bd 95a9 0a3c 98d1 763c ac20 89bd
00000140: 0272 35bd b7dd 80bd 97cc 013d 7505 06bd
00000150: b4f7 2b3d c379 323a 1828 173c e81d 9d3c
00000160: cc60 2bbd 68af 3bbd c1b5 47bd 50c8 69bd
00000170: 1cbb 0e3d a3d0 0abd 6d56 853d a88d fd3c
00000180: 5a12 47bd 326c 903d b0b4 1a3d e083 5a3c
00000190: c76a 33bd 60e3 02bd 1a69 b53c 2455 c6ba
000001a0: dd09 7f3c 458a 1d3d 79d4 98bd 0f2a 14bd
000001b0: fe9e 51bd 3772 873d 9a79 d8bc bae8 3dbd
000001c0: 976f 91bd a1d7 8bbd 3375 8e3d 9228 e5bb
000001d0: 6373 dbba c9be 693d 1a14 493d d95c 2cbd
000001e0: 3fa6 763d 7d0f a3bd 99c0 b03d c736 33bd
000001f0: e674 adbd 061a b73c c916 9ebd e1d6 833d
00000200: 06e7 aa3d 8a47 d2ba 1755 1c3d f777 68bb
00000210: fc49 a73d 81bb 663c ad7d 95bd 7d1d 26bd
00000220: 9f58 433d dffd bb3c 76e2 c3bc 1346 0e3d
00000230: 24e2 ca3b b9ab 5fbd 1f2e 3ebd ac6d acbc
00000240: db52 ff3c 1f5d 89bd e735 823d 3a3b 8b39
00000250: 87e3 4439 1b3f 6b3a 20ba 2dbd 9513 b13d
00000260: 354a b0bd 15db 663d 4dc7 9d3d 80ba 3d3b
00000270: 2279 af3d f005 a03c 03d5 453d ad2b 4cbd
00000280: 0531 8f3d f8e1 03bc 3786 6a3c 4ec5 27bc
00000290: d4fb abbd ae67 30bd f282 4abc 2563 1fbd
000002a0: 4800 d53c 4411 9b39 da81 b13c 97f5 7e3d
000002b0: d2ff 013d e6e1 6d3d f786 513d dd76 a5bd
000002c0: f197 25bd 4de3 853d 1315 ba3c 7290 99bd
000002d0: 81e6 f03c 4eb3 523d 21c9 5fbd 349a 79bd
000002e0: f63d cebc 7831 87bd 34e9 883c ee39 e73c
000002f0: 2890 383d 90df 85bc 7dfc 8dbd 2428 94bd
00000300: c6b0 393d 0806 663d 93ea 163d 363e 483d
00000310: 65d4 7a3d 0854 90bd b5f8 863d 47d3 fe3c
00000320: e44e 803d ac12 b43d 698e 98bc f124 27bc
00000330: d0e2 dfbb 7829 f5bc f02d 2d3d 2188 be3c
00000340: 1004 7abd 77cd 0fbd fdc9 8439 57b8 88bd
00000350: 0408 183c d381 35bb d2d6 703d 4561 353d
00000360: 55c6 543d 361b aabd e79d 9e3d dc38 083d
00000370: ddec 4b3d 34e2 2ebd a84e 91bc 20b2 febb
00000380: 3c89 ac3d 4e91 b1bd 36ac 043d 40e8 7fbb
00000390: 92c6 a63d da91 633d 7195 b4bd 5abc 60bd
000003a0: a1aa b6bb 5e3d 0d3d b45d 713d 0833 27bc
000003b0: 9343 993d 0f81 133d 2915 2fbd c220 a0bd
000003c0: 4002 a33c 1d52 463d bd6b 8039 373b b3bd
000003d0: 35eb 0a3c 1bdb 2fbd c3bf 553d 1aaf 98bd
000003e0: 989f 8dbd 638e 1f3a 95e2 4abd 3d0e 5abd
000003f0: c777 943d 6599 223d 7773 a53d a493 a03d

fc2.bias f4 [60]
-0.0383618 0.009137323 0.08225697 0.075926416 -0.0781626 0.013141388 0.007826849 0.03403185
-0.06897636 -0.044133462 -0.0684088 -0.024207767 -0.060150597 -0.015788632 0.083617 0.07604571
-0.0700485 -0.020036688 -0.074838616 0.08803387 -0.024310205 -0.06445111 0.04675483 0.06470822
0.06959948 -0.00070346706 0.07281957 -0.05512692 0.026352407 0.030629858 0.04511749 -0.06667066
-0.007346076 -0.06605348 0.0742438 0.014464151 -0.0733937 -0.009843237 0.016953269 0.0093712285
0.033435687 -0.040577136 -0.051311363 0.019051082 -0.02552847 -0.02933715 0.01468219 0.0057858285
0.050599657 -0.08679677 -0.011896769 -0.05693567 0.08667677 -0.028123321 0.036349438 -0.084090985
-0.054925382 -0.06810975 -0.06439505 0.009996028
00000000: 4321 1dbd b6b4 153c 5876 a83d 4f7f 9b3d
00000010: b713 a0bd fa4e 573c 2f3c 003c fb64 0b3d
00000020: 7a43 8dbd 4ac5 34bd ea19 8cbd 5e4f c6bc
00000030: 7960 76bd 2957 81bc 643f ab3d dabd 9b3d
00000040: 9775 8fbd fb23 a4bc fd44 99bd 1a4b b43d
00000050: 3226 c7bc f2fe 83bd fe81 3f3d be85 843d
00000060: 2c8a 8e3d e068 38ba 6d22 953d c4cc 61bd
00000070: 01e1 d73c 78eb fa3c 1ecd 383d a18a 88bd
00000080: 5ab7 f0bb 0c47 87bd 220d 983d 0cfb 6c3c
00000090: 704f 96bd 8745 21bc 95e1 8a3c c889 193c
000000a0: dcf3 083d 3634 26bd dd2b 52bd 0411 9c3c
000000b0: 1521 d1bc 7654 f0bc 918d 703c 0c97 bd3b
000000c0: 9641 4f3d 81c2 b1bd aaea 42bc 6135 69bd
000000d0: 9783 b13d e162 e6bc 26e3 143d e537 acbd
000000e0: 70f9 60bd 207d 8bbd 8de1 83bd 61c6 233c
